{"format": "graph-model", "userDefinedMetadata": {"signature": {"outputs": {"detection_boxes": {"name": "detection_boxes"}, "detection_classes": {"name": "detection_classes"}, "detection_scores": {"name": "detection_scores"}, "num_detections": {"name": "num_detections"}}}}, "generatedBy": "2.1.0", "convertedBy": "TensorFlow.js Converter v1.6.0", "modelTopology": {"node": [{"attr": {"dtype": {"type": "DT_FLOAT"}, "value": {"tensor": {"tensorShape": {"dim": [{"size": "1"}, {"size": "1"}, {"size": "576"}, {"size": "12"}]}, "dtype": "DT_FLOAT"}}}, "op": "Const", "name": "BoxPredictor_0/ClassPredictor/weights"}, {"attr": {"dtype": {"type": "DT_FLOAT"}, "value": {"tensor": {"tensorShape": {"dim": [{"size": "12"}]}, "dtype": "DT_FLOAT"}}}, "op": "Const", "name": "BoxPredictor_0/ClassPredictor/biases"}, {"attr": {"dtype": {"type": "DT_FLOAT"}, "value": {"tensor": {"tensorShape": {"dim": [{"size": "1"}, {"size": "1"}, {"size": "1280"}, {"size": "24"}]}, "dtype": "DT_FLOAT"}}}, "op": "Const", "name": "BoxPredictor_1/ClassPredictor/weights"}, {"attr": {"dtype": {"type": "DT_FLOAT"}, "value": {"tensor": {"tensorShape": {"dim": [{"size": "24"}]}, "dtype": "DT_FLOAT"}}}, "op": "Const", "name": "BoxPredictor_1/ClassPredictor/biases"}, {"attr": {"dtype": {"type": "DT_FLOAT"}, "value": {"tensor": {"tensorShape": {"dim": [{"size": "1"}, {"size": "1"}, {"size": "512"}, {"size": "24"}]}, "dtype": "DT_FLOAT"}}}, "op": "Const", "name": "BoxPredictor_2/ClassPredictor/weights"}, {"attr": {"dtype": {"type": "DT_FLOAT"}, "value": {"tensor": {"tensorShape": {"dim": [{"size": "24"}]}, "dtype": "DT_FLOAT"}}}, "op": "Const", "name": "BoxPredictor_2/ClassPredictor/biases"}, {"attr": {"dtype": {"type": "DT_FLOAT"}, "value": {"tensor": {"tensorShape": {"dim": [{"size": "1"}, {"size": "1"}, {"size": "256"}, {"size": "24"}]}, "dtype": "DT_FLOAT"}}}, "op": "Const", "name": "BoxPredictor_3/ClassPredictor/weights"}, {"attr": {"dtype": {"type": "DT_FLOAT"}, "value": {"tensor": {"tensorShape": {"dim": [{"size": "24"}]}, "dtype": "DT_FLOAT"}}}, "op": "Const", "name": "BoxPredictor_3/ClassPredictor/biases"}, {"attr": {"dtype": {"type": "DT_FLOAT"}, "value": {"tensor": {"tensorShape": {"dim": [{"size": "1"}, {"size": "1"}, {"size": "256"}, {"size": "24"}]}, "dtype": "DT_FLOAT"}}}, "op": "Const", "name": "BoxPredictor_4/ClassPredictor/weights"}, {"attr": {"dtype": {"type": "DT_FLOAT"}, "value": {"tensor": {"tensorShape": {"dim": [{"size": "24"}]}, "dtype": "DT_FLOAT"}}}, "op": "Const", "name": "BoxPredictor_4/ClassPredictor/biases"}, {"attr": {"dtype": {"type": "DT_FLOAT"}, "value": {"tensor": {"tensorShape": {"dim": [{"size": "1"}, {"size": "1"}, {"size": "128"}, {"size": "24"}]}, "dtype": "DT_FLOAT"}}}, "op": "Const", "name": "BoxPredictor_5/ClassPredictor/weights"}, {"attr": {"dtype": {"type": "DT_FLOAT"}, "value": {"tensor": {"tensorShape": {"dim": [{"size": "24"}]}, "dtype": "DT_FLOAT"}}}, "op": "Const", "name": "BoxPredictor_5/ClassPredictor/biases"}, {"attr": {"dtype": {"type": "DT_INT32"}, "value": {"tensor": {"tensorShape": {"dim": [{"size": "3"}]}, "dtype": "DT_INT32"}}}, "op": "Const", "name": "Postprocessor/Slice/begin"}, {"attr": {"dtype": {"type": "DT_INT32"}, "value": {"tensor": {"tensorShape": {"dim": [{"size": "3"}]}, "dtype": "DT_INT32"}}}, "op": "Const", "name": "Postprocessor/Slice/size"}, {"attr": {"dtype": {"type": "DT_FLOAT"}, "value": {"tensor": {"tensorShape": {}, "dtype": "DT_FLOAT"}}}, "op": "Const", "name": "ConstantFolding/Postprocessor/truediv_recip"}, {"attr": {"dtype": {"type": "DT_FLOAT"}, "value": {"tensor": {"tensorShape": {}, "dtype": "DT_FLOAT"}}}, "op": "Const", "name": "ConstantFolding/Postprocessor/Decode/truediv_recip"}, {"attr": {"dtype": {"type": "DT_FLOAT"}, "value": {"tensor": {"tensorShape": {}, "dtype": "DT_FLOAT"}}}, "op": "Const", "name": "ConstantFolding/Postprocessor/Decode/truediv_2_recip"}, {"attr": {"dtype": {"type": "DT_FLOAT"}, "value": {"tensor": {"tensorShape": {}, "dtype": "DT_FLOAT"}}}, "op": "Const", "name": "ConstantFolding/Postprocessor/Decode/truediv_4_recip"}, {"attr": {"dtype": {"type": "DT_FLOAT"}, "value": {"tensor": {"tensorShape": {"dim": [{"size": "1"}, {"size": "1917"}, {"size": "4"}]}, "dtype": "DT_FLOAT"}}}, "op": "Const", "name": "Postprocessor/ExpandDims"}, {"attr": {"dtype": {"type": "DT_INT32"}, "value": {"tensor": {"tensorShape": {"dim": [{"size": "2"}]}, "dtype": "DT_INT32"}}}, "op": "Const", "name": "Postprocessor/Reshape_1/shape"}, {"attr": {"dtype": {"type": "DT_INT32"}, "value": {"tensor": {"tensorShape": {"dim": [{"size": "2"}]}, "dtype": "DT_INT32"}}}, "op": "Const", "name": "Postprocessor/Decode/transpose/perm"}, {"attr": {"dtype": {"type": "DT_FLOAT"}, "value": {"tensor": {"tensorShape": {"dim": [{"size": "1"}, {"size": "1"}, {"size": "576"}, {"size": "12"}]}, "dtype": "DT_FLOAT"}}}, "op": "Const", "name": "BoxPredictor_0/BoxEncodingPredictor/weights"}, {"attr": {"dtype": {"type": "DT_FLOAT"}, "value": {"tensor": {"tensorShape": {"dim": [{"size": "12"}]}, "dtype": "DT_FLOAT"}}}, "op": "Const", "name": "BoxPredictor_0/BoxEncodingPredictor/biases"}, {"attr": {"dtype": {"type": "DT_FLOAT"}, "value": {"tensor": {"tensorShape": {"dim": [{"size": "1"}, {"size": "1"}, {"size": "1280"}, {"size": "24"}]}, "dtype": "DT_FLOAT"}}}, "op": "Const", "name": "BoxPredictor_1/BoxEncodingPredictor/weights"}, {"attr": {"dtype": {"type": "DT_FLOAT"}, "value": {"tensor": {"tensorShape": {"dim": [{"size": "24"}]}, "dtype": "DT_FLOAT"}}}, "op": "Const", "name": "BoxPredictor_1/BoxEncodingPredictor/biases"}, {"attr": {"dtype": {"type": "DT_FLOAT"}, "value": {"tensor": {"tensorShape": {"dim": [{"size": "1"}, {"size": "1"}, {"size": "512"}, {"size": "24"}]}, "dtype": "DT_FLOAT"}}}, "op": "Const", "name": "BoxPredictor_2/BoxEncodingPredictor/weights"}, {"attr": {"dtype": {"type": "DT_FLOAT"}, "value": {"tensor": {"tensorShape": {"dim": [{"size": "24"}]}, "dtype": "DT_FLOAT"}}}, "op": "Const", "name": "BoxPredictor_2/BoxEncodingPredictor/biases"}, {"attr": {"dtype": {"type": "DT_FLOAT"}, "value": {"tensor": {"tensorShape": {"dim": [{"size": "1"}, {"size": "1"}, {"size": "256"}, {"size": "24"}]}, "dtype": "DT_FLOAT"}}}, "op": "Const", "name": "BoxPredictor_3/BoxEncodingPredictor/weights"}, {"attr": {"dtype": {"type": "DT_FLOAT"}, "value": {"tensor": {"tensorShape": {"dim": [{"size": "24"}]}, "dtype": "DT_FLOAT"}}}, "op": "Const", "name": "BoxPredictor_3/BoxEncodingPredictor/biases"}, {"attr": {"dtype": {"type": "DT_FLOAT"}, "value": {"tensor": {"tensorShape": {"dim": [{"size": "1"}, {"size": "1"}, {"size": "256"}, {"size": "24"}]}, "dtype": "DT_FLOAT"}}}, "op": "Const", "name": "BoxPredictor_4/BoxEncodingPredictor/weights"}, {"attr": {"dtype": {"type": "DT_FLOAT"}, "value": {"tensor": {"tensorShape": {"dim": [{"size": "24"}]}, "dtype": "DT_FLOAT"}}}, "op": "Const", "name": "BoxPredictor_4/BoxEncodingPredictor/biases"}, {"attr": {"dtype": {"type": "DT_FLOAT"}, "value": {"tensor": {"tensorShape": {"dim": [{"size": "1"}, {"size": "1"}, {"size": "128"}, {"size": "24"}]}, "dtype": "DT_FLOAT"}}}, "op": "Const", "name": "BoxPredictor_5/BoxEncodingPredictor/weights"}, {"attr": {"dtype": {"type": "DT_FLOAT"}, "value": {"tensor": {"tensorShape": {"dim": [{"size": "24"}]}, "dtype": "DT_FLOAT"}}}, "op": "Const", "name": "BoxPredictor_5/BoxEncodingPredictor/biases"}, {"attr": {"dtype": {"type": "DT_INT32"}, "value": {"tensor": {"tensorShape": {}, "dtype": "DT_INT32"}}}, "op": "Const", "name": "Postprocessor/BatchMultiClassNonMaxSuppression/map/TensorArrayStack/range/start"}, {"attr": {"dtype": {"type": "DT_UINT8"}, "shape": {"shape": {"dim": [{"size": "-1"}, {"size": "-1"}, {"size": "-1"}, {"size": "3"}]}}}, "op": "Placeholder", "name": "image_tensor"}, {"attr": {"dtype": {"type": "DT_FLOAT"}, "value": {"tensor": {"tensorShape": {}, "dtype": "DT_FLOAT"}}}, "op": "Const", "name": "Preprocessor/mul/x"}, {"attr": {"dtype": {"type": "DT_FLOAT"}, "value": {"tensor": {"tensorShape": {}, "dtype": "DT_FLOAT"}}}, "op": "Const", "name": "add/y"}, {"attr": {"dtype": {"type": "DT_INT32"}, "value": {"tensor": {"tensorShape": {}, "dtype": "DT_INT32"}}}, "op": "Const", "name": "BoxPredictor_0/Reshape_1/shape/1"}, {"attr": {"dtype": {"type": "DT_INT32"}, "value": {"tensor": {"tensorShape": {}, "dtype": "DT_INT32"}}}, "op": "Const", "name": "Postprocessor/BatchMultiClassNonMaxSuppression/map/TensorArrayStack/range/delta"}, {"attr": {"dtype": {"type": "DT_INT32"}, "value": {"tensor": {"tensorShape": {"dim": [{"size": "1"}]}, "dtype": "DT_INT32"}}}, "op": "Const", "name": "Postprocessor/BatchMultiClassNonMaxSuppression/strided_slice_1/stack_1"}, {"attr": {"dtype": {"type": "DT_INT32"}, "value": {"tensor": {"tensorShape": {}, "dtype": "DT_INT32"}}}, "op": "Const", "name": "BoxPredictor_0/Reshape_1/shape/2"}, {"attr": {"dtype": {"type": "DT_INT32"}, "value": {"tensor": {"tensorShape": {}, "dtype": "DT_INT32"}}}, "op": "Const", "name": "Postprocessor/ExpandDims_1/dim"}, {"attr": {"dtype": {"type": "DT_INT32"}, "value": {"tensor": {"tensorShape": {"dim": [{"size": "1"}]}, "dtype": "DT_INT32"}}}, "op": "Const", "name": "Postprocessor/BatchMultiClassNonMaxSuppression/map/TensorArrayUnstack_1/strided_slice/stack"}, {"attr": {"dtype": {"type": "DT_INT32"}, "value": {"tensor": {"tensorShape": {"dim": [{"size": "1"}]}, "dtype": "DT_INT32"}}}, "op": "Const", "name": "Postprocessor/BatchMultiClassNonMaxSuppression/map/TensorArrayUnstack_1/strided_slice/stack_1"}, {"attr": {"dtype": {"type": "DT_FLOAT"}, "value": {"tensor": {"tensorShape": {"dim": [{"size": "3"}, {"size": "3"}, {"size": "3"}, {"size": "32"}]}, "dtype": "DT_FLOAT"}}}, "op": "Const", "name": "FeatureExtractor/MobilenetV2/Conv/Conv2D_weights"}, {"attr": {"dtype": {"type": "DT_FLOAT"}, "value": {"tensor": {"tensorShape": {"dim": [{"size": "32"}]}, "dtype": "DT_FLOAT"}}}, "op": "Const", "name": "FeatureExtractor/MobilenetV2/Conv/Conv2D_bn_offset"}, {"attr": {"dtype": {"type": "DT_FLOAT"}, "value": {"tensor": {"tensorShape": {"dim": [{"size": "3"}, {"size": "3"}, {"size": "32"}, {"size": "1"}]}, "dtype": "DT_FLOAT"}}}, "op": "Const", "name": "FeatureExtractor/MobilenetV2/expanded_conv/depthwise/depthwise_weights"}, {"attr": {"dtype": {"type": "DT_FLOAT"}, "value": {"tensor": {"tensorShape": {"dim": [{"size": "32"}]}, "dtype": "DT_FLOAT"}}}, "op": "Const", "name": "FeatureExtractor/MobilenetV2/expanded_conv/depthwise/depthwise_bn_offset"}, {"attr": {"dtype": {"type": "DT_FLOAT"}, "value": {"tensor": {"tensorShape": {"dim": [{"size": "1"}, {"size": "1"}, {"size": "32"}, {"size": "16"}]}, "dtype": "DT_FLOAT"}}}, "op": "Const", "name": "FeatureExtractor/MobilenetV2/expanded_conv/project/Conv2D_weights"}, {"attr": {"dtype": {"type": "DT_FLOAT"}, "value": {"tensor": {"tensorShape": {"dim": [{"size": "16"}]}, "dtype": "DT_FLOAT"}}}, "op": "Const", "name": "FeatureExtractor/MobilenetV2/expanded_conv/project/Conv2D_bn_offset"}, {"attr": {"dtype": {"type": "DT_FLOAT"}, "value": {"tensor": {"tensorShape": {"dim": [{"size": "1"}, {"size": "1"}, {"size": "16"}, {"size": "96"}]}, "dtype": "DT_FLOAT"}}}, "op": "Const", "name": "FeatureExtractor/MobilenetV2/expanded_conv_1/expand/Conv2D_weights"}, {"attr": {"dtype": {"type": "DT_FLOAT"}, "value": {"tensor": {"tensorShape": {"dim": [{"size": "96"}]}, "dtype": "DT_FLOAT"}}}, "op": "Const", "name": "FeatureExtractor/MobilenetV2/expanded_conv_1/expand/Conv2D_bn_offset"}, {"attr": {"dtype": {"type": "DT_FLOAT"}, "value": {"tensor": {"tensorShape": {"dim": [{"size": "3"}, {"size": "3"}, {"size": "96"}, {"size": "1"}]}, "dtype": "DT_FLOAT"}}}, "op": "Const", "name": "FeatureExtractor/MobilenetV2/expanded_conv_1/depthwise/depthwise_weights"}, {"attr": {"dtype": {"type": "DT_FLOAT"}, "value": {"tensor": {"tensorShape": {"dim": [{"size": "96"}]}, "dtype": "DT_FLOAT"}}}, "op": "Const", "name": "FeatureExtractor/MobilenetV2/expanded_conv_1/depthwise/depthwise_bn_offset"}, {"attr": {"dtype": {"type": "DT_FLOAT"}, "value": {"tensor": {"tensorShape": {"dim": [{"size": "1"}, {"size": "1"}, {"size": "96"}, {"size": "24"}]}, "dtype": "DT_FLOAT"}}}, "op": "Const", "name": "FeatureExtractor/MobilenetV2/expanded_conv_1/project/Conv2D_weights"}, {"attr": {"dtype": {"type": "DT_FLOAT"}, "value": {"tensor": {"tensorShape": {"dim": [{"size": "24"}]}, "dtype": "DT_FLOAT"}}}, "op": "Const", "name": "FeatureExtractor/MobilenetV2/expanded_conv_1/project/Conv2D_bn_offset"}, {"attr": {"dtype": {"type": "DT_FLOAT"}, "value": {"tensor": {"tensorShape": {"dim": [{"size": "1"}, {"size": "1"}, {"size": "24"}, {"size": "144"}]}, "dtype": "DT_FLOAT"}}}, "op": "Const", "name": "FeatureExtractor/MobilenetV2/expanded_conv_2/expand/Conv2D_weights"}, {"attr": {"dtype": {"type": "DT_FLOAT"}, "value": {"tensor": {"tensorShape": {"dim": [{"size": "144"}]}, "dtype": "DT_FLOAT"}}}, "op": "Const", "name": "FeatureExtractor/MobilenetV2/expanded_conv_2/expand/Conv2D_bn_offset"}, {"attr": {"dtype": {"type": "DT_FLOAT"}, "value": {"tensor": {"tensorShape": {"dim": [{"size": "3"}, {"size": "3"}, {"size": "144"}, {"size": "1"}]}, "dtype": "DT_FLOAT"}}}, "op": "Const", "name": "FeatureExtractor/MobilenetV2/expanded_conv_2/depthwise/depthwise_weights"}, {"attr": {"dtype": {"type": "DT_FLOAT"}, "value": {"tensor": {"tensorShape": {"dim": [{"size": "144"}]}, "dtype": "DT_FLOAT"}}}, "op": "Const", "name": "FeatureExtractor/MobilenetV2/expanded_conv_2/depthwise/depthwise_bn_offset"}, {"attr": {"dtype": {"type": "DT_FLOAT"}, "value": {"tensor": {"tensorShape": {"dim": [{"size": "1"}, {"size": "1"}, {"size": "144"}, {"size": "24"}]}, "dtype": "DT_FLOAT"}}}, "op": "Const", "name": "FeatureExtractor/MobilenetV2/expanded_conv_2/project/Conv2D_weights"}, {"attr": {"dtype": {"type": "DT_FLOAT"}, "value": {"tensor": {"tensorShape": {"dim": [{"size": "24"}]}, "dtype": "DT_FLOAT"}}}, "op": "Const", "name": "FeatureExtractor/MobilenetV2/expanded_conv_2/project/Conv2D_bn_offset"}, {"attr": {"dtype": {"type": "DT_FLOAT"}, "value": {"tensor": {"tensorShape": {"dim": [{"size": "1"}, {"size": "1"}, {"size": "24"}, {"size": "144"}]}, "dtype": "DT_FLOAT"}}}, "op": "Const", "name": "FeatureExtractor/MobilenetV2/expanded_conv_3/expand/Conv2D_weights"}, {"attr": {"dtype": {"type": "DT_FLOAT"}, "value": {"tensor": {"tensorShape": {"dim": [{"size": "144"}]}, "dtype": "DT_FLOAT"}}}, "op": "Const", "name": "FeatureExtractor/MobilenetV2/expanded_conv_3/expand/Conv2D_bn_offset"}, {"attr": {"dtype": {"type": "DT_FLOAT"}, "value": {"tensor": {"tensorShape": {"dim": [{"size": "3"}, {"size": "3"}, {"size": "144"}, {"size": "1"}]}, "dtype": "DT_FLOAT"}}}, "op": "Const", "name": "FeatureExtractor/MobilenetV2/expanded_conv_3/depthwise/depthwise_weights"}, {"attr": {"dtype": {"type": "DT_FLOAT"}, "value": {"tensor": {"tensorShape": {"dim": [{"size": "144"}]}, "dtype": "DT_FLOAT"}}}, "op": "Const", "name": "FeatureExtractor/MobilenetV2/expanded_conv_3/depthwise/depthwise_bn_offset"}, {"attr": {"dtype": {"type": "DT_FLOAT"}, "value": {"tensor": {"tensorShape": {"dim": [{"size": "1"}, {"size": "1"}, {"size": "144"}, {"size": "32"}]}, "dtype": "DT_FLOAT"}}}, "op": "Const", "name": "FeatureExtractor/MobilenetV2/expanded_conv_3/project/Conv2D_weights"}, {"attr": {"dtype": {"type": "DT_FLOAT"}, "value": {"tensor": {"tensorShape": {"dim": [{"size": "32"}]}, "dtype": "DT_FLOAT"}}}, "op": "Const", "name": "FeatureExtractor/MobilenetV2/expanded_conv_3/project/Conv2D_bn_offset"}, {"attr": {"dtype": {"type": "DT_FLOAT"}, "value": {"tensor": {"tensorShape": {"dim": [{"size": "1"}, {"size": "1"}, {"size": "32"}, {"size": "192"}]}, "dtype": "DT_FLOAT"}}}, "op": "Const", "name": "FeatureExtractor/MobilenetV2/expanded_conv_4/expand/Conv2D_weights"}, {"attr": {"dtype": {"type": "DT_FLOAT"}, "value": {"tensor": {"tensorShape": {"dim": [{"size": "192"}]}, "dtype": "DT_FLOAT"}}}, "op": "Const", "name": "FeatureExtractor/MobilenetV2/expanded_conv_4/expand/Conv2D_bn_offset"}, {"attr": {"dtype": {"type": "DT_FLOAT"}, "value": {"tensor": {"tensorShape": {"dim": [{"size": "3"}, {"size": "3"}, {"size": "192"}, {"size": "1"}]}, "dtype": "DT_FLOAT"}}}, "op": "Const", "name": "FeatureExtractor/MobilenetV2/expanded_conv_4/depthwise/depthwise_weights"}, {"attr": {"dtype": {"type": "DT_FLOAT"}, "value": {"tensor": {"tensorShape": {"dim": [{"size": "192"}]}, "dtype": "DT_FLOAT"}}}, "op": "Const", "name": "FeatureExtractor/MobilenetV2/expanded_conv_4/depthwise/depthwise_bn_offset"}, {"attr": {"dtype": {"type": "DT_FLOAT"}, "value": {"tensor": {"tensorShape": {"dim": [{"size": "1"}, {"size": "1"}, {"size": "192"}, {"size": "32"}]}, "dtype": "DT_FLOAT"}}}, "op": "Const", "name": "FeatureExtractor/MobilenetV2/expanded_conv_4/project/Conv2D_weights"}, {"attr": {"dtype": {"type": "DT_FLOAT"}, "value": {"tensor": {"tensorShape": {"dim": [{"size": "32"}]}, "dtype": "DT_FLOAT"}}}, "op": "Const", "name": "FeatureExtractor/MobilenetV2/expanded_conv_4/project/Conv2D_bn_offset"}, {"attr": {"dtype": {"type": "DT_FLOAT"}, "value": {"tensor": {"tensorShape": {"dim": [{"size": "1"}, {"size": "1"}, {"size": "32"}, {"size": "192"}]}, "dtype": "DT_FLOAT"}}}, "op": "Const", "name": "FeatureExtractor/MobilenetV2/expanded_conv_5/expand/Conv2D_weights"}, {"attr": {"dtype": {"type": "DT_FLOAT"}, "value": {"tensor": {"tensorShape": {"dim": [{"size": "192"}]}, "dtype": "DT_FLOAT"}}}, "op": "Const", "name": "FeatureExtractor/MobilenetV2/expanded_conv_5/expand/Conv2D_bn_offset"}, {"attr": {"dtype": {"type": "DT_FLOAT"}, "value": {"tensor": {"tensorShape": {"dim": [{"size": "3"}, {"size": "3"}, {"size": "192"}, {"size": "1"}]}, "dtype": "DT_FLOAT"}}}, "op": "Const", "name": "FeatureExtractor/MobilenetV2/expanded_conv_5/depthwise/depthwise_weights"}, {"attr": {"dtype": {"type": "DT_FLOAT"}, "value": {"tensor": {"tensorShape": {"dim": [{"size": "192"}]}, "dtype": "DT_FLOAT"}}}, "op": "Const", "name": "FeatureExtractor/MobilenetV2/expanded_conv_5/depthwise/depthwise_bn_offset"}, {"attr": {"dtype": {"type": "DT_FLOAT"}, "value": {"tensor": {"tensorShape": {"dim": [{"size": "1"}, {"size": "1"}, {"size": "192"}, {"size": "32"}]}, "dtype": "DT_FLOAT"}}}, "op": "Const", "name": "FeatureExtractor/MobilenetV2/expanded_conv_5/project/Conv2D_weights"}, {"attr": {"dtype": {"type": "DT_FLOAT"}, "value": {"tensor": {"tensorShape": {"dim": [{"size": "32"}]}, "dtype": "DT_FLOAT"}}}, "op": "Const", "name": "FeatureExtractor/MobilenetV2/expanded_conv_5/project/Conv2D_bn_offset"}, {"attr": {"dtype": {"type": "DT_FLOAT"}, "value": {"tensor": {"tensorShape": {"dim": [{"size": "1"}, {"size": "1"}, {"size": "32"}, {"size": "192"}]}, "dtype": "DT_FLOAT"}}}, "op": "Const", "name": "FeatureExtractor/MobilenetV2/expanded_conv_6/expand/Conv2D_weights"}, {"attr": {"dtype": {"type": "DT_FLOAT"}, "value": {"tensor": {"tensorShape": {"dim": [{"size": "192"}]}, "dtype": "DT_FLOAT"}}}, "op": "Const", "name": "FeatureExtractor/MobilenetV2/expanded_conv_6/expand/Conv2D_bn_offset"}, {"attr": {"dtype": {"type": "DT_FLOAT"}, "value": {"tensor": {"tensorShape": {"dim": [{"size": "3"}, {"size": "3"}, {"size": "192"}, {"size": "1"}]}, "dtype": "DT_FLOAT"}}}, "op": "Const", "name": "FeatureExtractor/MobilenetV2/expanded_conv_6/depthwise/depthwise_weights"}, {"attr": {"dtype": {"type": "DT_FLOAT"}, "value": {"tensor": {"tensorShape": {"dim": [{"size": "192"}]}, "dtype": "DT_FLOAT"}}}, "op": "Const", "name": "FeatureExtractor/MobilenetV2/expanded_conv_6/depthwise/depthwise_bn_offset"}, {"attr": {"dtype": {"type": "DT_FLOAT"}, "value": {"tensor": {"tensorShape": {"dim": [{"size": "1"}, {"size": "1"}, {"size": "192"}, {"size": "64"}]}, "dtype": "DT_FLOAT"}}}, "op": "Const", "name": "FeatureExtractor/MobilenetV2/expanded_conv_6/project/Conv2D_weights"}, {"attr": {"dtype": {"type": "DT_FLOAT"}, "value": {"tensor": {"tensorShape": {"dim": [{"size": "64"}]}, "dtype": "DT_FLOAT"}}}, "op": "Const", "name": "FeatureExtractor/MobilenetV2/expanded_conv_6/project/Conv2D_bn_offset"}, {"attr": {"dtype": {"type": "DT_FLOAT"}, "value": {"tensor": {"tensorShape": {"dim": [{"size": "1"}, {"size": "1"}, {"size": "64"}, {"size": "384"}]}, "dtype": "DT_FLOAT"}}}, "op": "Const", "name": "FeatureExtractor/MobilenetV2/expanded_conv_7/expand/Conv2D_weights"}, {"attr": {"dtype": {"type": "DT_FLOAT"}, "value": {"tensor": {"tensorShape": {"dim": [{"size": "384"}]}, "dtype": "DT_FLOAT"}}}, "op": "Const", "name": "FeatureExtractor/MobilenetV2/expanded_conv_7/expand/Conv2D_bn_offset"}, {"attr": {"dtype": {"type": "DT_FLOAT"}, "value": {"tensor": {"tensorShape": {"dim": [{"size": "3"}, {"size": "3"}, {"size": "384"}, {"size": "1"}]}, "dtype": "DT_FLOAT"}}}, "op": "Const", "name": "FeatureExtractor/MobilenetV2/expanded_conv_7/depthwise/depthwise_weights"}, {"attr": {"dtype": {"type": "DT_FLOAT"}, "value": {"tensor": {"tensorShape": {"dim": [{"size": "384"}]}, "dtype": "DT_FLOAT"}}}, "op": "Const", "name": "FeatureExtractor/MobilenetV2/expanded_conv_7/depthwise/depthwise_bn_offset"}, {"attr": {"dtype": {"type": "DT_FLOAT"}, "value": {"tensor": {"tensorShape": {"dim": [{"size": "1"}, {"size": "1"}, {"size": "384"}, {"size": "64"}]}, "dtype": "DT_FLOAT"}}}, "op": "Const", "name": "FeatureExtractor/MobilenetV2/expanded_conv_7/project/Conv2D_weights"}, {"attr": {"dtype": {"type": "DT_FLOAT"}, "value": {"tensor": {"tensorShape": {"dim": [{"size": "64"}]}, "dtype": "DT_FLOAT"}}}, "op": "Const", "name": "FeatureExtractor/MobilenetV2/expanded_conv_7/project/Conv2D_bn_offset"}, {"attr": {"dtype": {"type": "DT_FLOAT"}, "value": {"tensor": {"tensorShape": {"dim": [{"size": "1"}, {"size": "1"}, {"size": "64"}, {"size": "384"}]}, "dtype": "DT_FLOAT"}}}, "op": "Const", "name": "FeatureExtractor/MobilenetV2/expanded_conv_8/expand/Conv2D_weights"}, {"attr": {"dtype": {"type": "DT_FLOAT"}, "value": {"tensor": {"tensorShape": {"dim": [{"size": "384"}]}, "dtype": "DT_FLOAT"}}}, "op": "Const", "name": "FeatureExtractor/MobilenetV2/expanded_conv_8/expand/Conv2D_bn_offset"}, {"attr": {"dtype": {"type": "DT_FLOAT"}, "value": {"tensor": {"tensorShape": {"dim": [{"size": "3"}, {"size": "3"}, {"size": "384"}, {"size": "1"}]}, "dtype": "DT_FLOAT"}}}, "op": "Const", "name": "FeatureExtractor/MobilenetV2/expanded_conv_8/depthwise/depthwise_weights"}, {"attr": {"dtype": {"type": "DT_FLOAT"}, "value": {"tensor": {"tensorShape": {"dim": [{"size": "384"}]}, "dtype": "DT_FLOAT"}}}, "op": "Const", "name": "FeatureExtractor/MobilenetV2/expanded_conv_8/depthwise/depthwise_bn_offset"}, {"attr": {"dtype": {"type": "DT_FLOAT"}, "value": {"tensor": {"tensorShape": {"dim": [{"size": "1"}, {"size": "1"}, {"size": "384"}, {"size": "64"}]}, "dtype": "DT_FLOAT"}}}, "op": "Const", "name": "FeatureExtractor/MobilenetV2/expanded_conv_8/project/Conv2D_weights"}, {"attr": {"dtype": {"type": "DT_FLOAT"}, "value": {"tensor": {"tensorShape": {"dim": [{"size": "64"}]}, "dtype": "DT_FLOAT"}}}, "op": "Const", "name": "FeatureExtractor/MobilenetV2/expanded_conv_8/project/Conv2D_bn_offset"}, {"attr": {"dtype": {"type": "DT_FLOAT"}, "value": {"tensor": {"tensorShape": {"dim": [{"size": "1"}, {"size": "1"}, {"size": "64"}, {"size": "384"}]}, "dtype": "DT_FLOAT"}}}, "op": "Const", "name": "FeatureExtractor/MobilenetV2/expanded_conv_9/expand/Conv2D_weights"}, {"attr": {"dtype": {"type": "DT_FLOAT"}, "value": {"tensor": {"tensorShape": {"dim": [{"size": "384"}]}, "dtype": "DT_FLOAT"}}}, "op": "Const", "name": "FeatureExtractor/MobilenetV2/expanded_conv_9/expand/Conv2D_bn_offset"}, {"attr": {"dtype": {"type": "DT_FLOAT"}, "value": {"tensor": {"tensorShape": {"dim": [{"size": "3"}, {"size": "3"}, {"size": "384"}, {"size": "1"}]}, "dtype": "DT_FLOAT"}}}, "op": "Const", "name": "FeatureExtractor/MobilenetV2/expanded_conv_9/depthwise/depthwise_weights"}, {"attr": {"dtype": {"type": "DT_FLOAT"}, "value": {"tensor": {"tensorShape": {"dim": [{"size": "384"}]}, "dtype": "DT_FLOAT"}}}, "op": "Const", "name": "FeatureExtractor/MobilenetV2/expanded_conv_9/depthwise/depthwise_bn_offset"}, {"attr": {"dtype": {"type": "DT_FLOAT"}, "value": {"tensor": {"tensorShape": {"dim": [{"size": "1"}, {"size": "1"}, {"size": "384"}, {"size": "64"}]}, "dtype": "DT_FLOAT"}}}, "op": "Const", "name": "FeatureExtractor/MobilenetV2/expanded_conv_9/project/Conv2D_weights"}, {"attr": {"dtype": {"type": "DT_FLOAT"}, "value": {"tensor": {"tensorShape": {"dim": [{"size": "64"}]}, "dtype": "DT_FLOAT"}}}, "op": "Const", "name": "FeatureExtractor/MobilenetV2/expanded_conv_9/project/Conv2D_bn_offset"}, {"attr": {"dtype": {"type": "DT_FLOAT"}, "value": {"tensor": {"tensorShape": {"dim": [{"size": "1"}, {"size": "1"}, {"size": "64"}, {"size": "384"}]}, "dtype": "DT_FLOAT"}}}, "op": "Const", "name": "FeatureExtractor/MobilenetV2/expanded_conv_10/expand/Conv2D_weights"}, {"attr": {"dtype": {"type": "DT_FLOAT"}, "value": {"tensor": {"tensorShape": {"dim": [{"size": "384"}]}, "dtype": "DT_FLOAT"}}}, "op": "Const", "name": "FeatureExtractor/MobilenetV2/expanded_conv_10/expand/Conv2D_bn_offset"}, {"attr": {"dtype": {"type": "DT_FLOAT"}, "value": {"tensor": {"tensorShape": {"dim": [{"size": "3"}, {"size": "3"}, {"size": "384"}, {"size": "1"}]}, "dtype": "DT_FLOAT"}}}, "op": "Const", "name": "FeatureExtractor/MobilenetV2/expanded_conv_10/depthwise/depthwise_weights"}, {"attr": {"dtype": {"type": "DT_FLOAT"}, "value": {"tensor": {"tensorShape": {"dim": [{"size": "384"}]}, "dtype": "DT_FLOAT"}}}, "op": "Const", "name": "FeatureExtractor/MobilenetV2/expanded_conv_10/depthwise/depthwise_bn_offset"}, {"attr": {"dtype": {"type": "DT_FLOAT"}, "value": {"tensor": {"tensorShape": {"dim": [{"size": "1"}, {"size": "1"}, {"size": "384"}, {"size": "96"}]}, "dtype": "DT_FLOAT"}}}, "op": "Const", "name": "FeatureExtractor/MobilenetV2/expanded_conv_10/project/Conv2D_weights"}, {"attr": {"dtype": {"type": "DT_FLOAT"}, "value": {"tensor": {"tensorShape": {"dim": [{"size": "96"}]}, "dtype": "DT_FLOAT"}}}, "op": "Const", "name": "FeatureExtractor/MobilenetV2/expanded_conv_10/project/Conv2D_bn_offset"}, {"attr": {"dtype": {"type": "DT_FLOAT"}, "value": {"tensor": {"tensorShape": {"dim": [{"size": "1"}, {"size": "1"}, {"size": "96"}, {"size": "576"}]}, "dtype": "DT_FLOAT"}}}, "op": "Const", "name": "FeatureExtractor/MobilenetV2/expanded_conv_11/expand/Conv2D_weights"}, {"attr": {"dtype": {"type": "DT_FLOAT"}, "value": {"tensor": {"tensorShape": {"dim": [{"size": "576"}]}, "dtype": "DT_FLOAT"}}}, "op": "Const", "name": "FeatureExtractor/MobilenetV2/expanded_conv_11/expand/Conv2D_bn_offset"}, {"attr": {"dtype": {"type": "DT_FLOAT"}, "value": {"tensor": {"tensorShape": {"dim": [{"size": "3"}, {"size": "3"}, {"size": "576"}, {"size": "1"}]}, "dtype": "DT_FLOAT"}}}, "op": "Const", "name": "FeatureExtractor/MobilenetV2/expanded_conv_11/depthwise/depthwise_weights"}, {"attr": {"dtype": {"type": "DT_FLOAT"}, "value": {"tensor": {"tensorShape": {"dim": [{"size": "576"}]}, "dtype": "DT_FLOAT"}}}, "op": "Const", "name": "FeatureExtractor/MobilenetV2/expanded_conv_11/depthwise/depthwise_bn_offset"}, {"attr": {"dtype": {"type": "DT_FLOAT"}, "value": {"tensor": {"tensorShape": {"dim": [{"size": "1"}, {"size": "1"}, {"size": "576"}, {"size": "96"}]}, "dtype": "DT_FLOAT"}}}, "op": "Const", "name": "FeatureExtractor/MobilenetV2/expanded_conv_11/project/Conv2D_weights"}, {"attr": {"dtype": {"type": "DT_FLOAT"}, "value": {"tensor": {"tensorShape": {"dim": [{"size": "96"}]}, "dtype": "DT_FLOAT"}}}, "op": "Const", "name": "FeatureExtractor/MobilenetV2/expanded_conv_11/project/Conv2D_bn_offset"}, {"attr": {"dtype": {"type": "DT_FLOAT"}, "value": {"tensor": {"tensorShape": {"dim": [{"size": "1"}, {"size": "1"}, {"size": "96"}, {"size": "576"}]}, "dtype": "DT_FLOAT"}}}, "op": "Const", "name": "FeatureExtractor/MobilenetV2/expanded_conv_12/expand/Conv2D_weights"}, {"attr": {"dtype": {"type": "DT_FLOAT"}, "value": {"tensor": {"tensorShape": {"dim": [{"size": "576"}]}, "dtype": "DT_FLOAT"}}}, "op": "Const", "name": "FeatureExtractor/MobilenetV2/expanded_conv_12/expand/Conv2D_bn_offset"}, {"attr": {"dtype": {"type": "DT_FLOAT"}, "value": {"tensor": {"tensorShape": {"dim": [{"size": "3"}, {"size": "3"}, {"size": "576"}, {"size": "1"}]}, "dtype": "DT_FLOAT"}}}, "op": "Const", "name": "FeatureExtractor/MobilenetV2/expanded_conv_12/depthwise/depthwise_weights"}, {"attr": {"dtype": {"type": "DT_FLOAT"}, "value": {"tensor": {"tensorShape": {"dim": [{"size": "576"}]}, "dtype": "DT_FLOAT"}}}, "op": "Const", "name": "FeatureExtractor/MobilenetV2/expanded_conv_12/depthwise/depthwise_bn_offset"}, {"attr": {"dtype": {"type": "DT_FLOAT"}, "value": {"tensor": {"tensorShape": {"dim": [{"size": "1"}, {"size": "1"}, {"size": "576"}, {"size": "96"}]}, "dtype": "DT_FLOAT"}}}, "op": "Const", "name": "FeatureExtractor/MobilenetV2/expanded_conv_12/project/Conv2D_weights"}, {"attr": {"dtype": {"type": "DT_FLOAT"}, "value": {"tensor": {"tensorShape": {"dim": [{"size": "96"}]}, "dtype": "DT_FLOAT"}}}, "op": "Const", "name": "FeatureExtractor/MobilenetV2/expanded_conv_12/project/Conv2D_bn_offset"}, {"attr": {"dtype": {"type": "DT_FLOAT"}, "value": {"tensor": {"tensorShape": {"dim": [{"size": "1"}, {"size": "1"}, {"size": "96"}, {"size": "576"}]}, "dtype": "DT_FLOAT"}}}, "op": "Const", "name": "FeatureExtractor/MobilenetV2/expanded_conv_13/expand/Conv2D_weights"}, {"attr": {"dtype": {"type": "DT_FLOAT"}, "value": {"tensor": {"tensorShape": {"dim": [{"size": "576"}]}, "dtype": "DT_FLOAT"}}}, "op": "Const", "name": "FeatureExtractor/MobilenetV2/expanded_conv_13/expand/Conv2D_bn_offset"}, {"attr": {"dtype": {"type": "DT_FLOAT"}, "value": {"tensor": {"tensorShape": {"dim": [{"size": "3"}, {"size": "3"}, {"size": "576"}, {"size": "1"}]}, "dtype": "DT_FLOAT"}}}, "op": "Const", "name": "FeatureExtractor/MobilenetV2/expanded_conv_13/depthwise/depthwise_weights"}, {"attr": {"dtype": {"type": "DT_FLOAT"}, "value": {"tensor": {"tensorShape": {"dim": [{"size": "576"}]}, "dtype": "DT_FLOAT"}}}, "op": "Const", "name": "FeatureExtractor/MobilenetV2/expanded_conv_13/depthwise/depthwise_bn_offset"}, {"attr": {"dtype": {"type": "DT_FLOAT"}, "value": {"tensor": {"tensorShape": {"dim": [{"size": "1"}, {"size": "1"}, {"size": "576"}, {"size": "160"}]}, "dtype": "DT_FLOAT"}}}, "op": "Const", "name": "FeatureExtractor/MobilenetV2/expanded_conv_13/project/Conv2D_weights"}, {"attr": {"dtype": {"type": "DT_FLOAT"}, "value": {"tensor": {"tensorShape": {"dim": [{"size": "160"}]}, "dtype": "DT_FLOAT"}}}, "op": "Const", "name": "FeatureExtractor/MobilenetV2/expanded_conv_13/project/Conv2D_bn_offset"}, {"attr": {"dtype": {"type": "DT_FLOAT"}, "value": {"tensor": {"tensorShape": {"dim": [{"size": "1"}, {"size": "1"}, {"size": "160"}, {"size": "960"}]}, "dtype": "DT_FLOAT"}}}, "op": "Const", "name": "FeatureExtractor/MobilenetV2/expanded_conv_14/expand/Conv2D_weights"}, {"attr": {"dtype": {"type": "DT_FLOAT"}, "value": {"tensor": {"tensorShape": {"dim": [{"size": "960"}]}, "dtype": "DT_FLOAT"}}}, "op": "Const", "name": "FeatureExtractor/MobilenetV2/expanded_conv_14/expand/Conv2D_bn_offset"}, {"attr": {"dtype": {"type": "DT_FLOAT"}, "value": {"tensor": {"tensorShape": {"dim": [{"size": "3"}, {"size": "3"}, {"size": "960"}, {"size": "1"}]}, "dtype": "DT_FLOAT"}}}, "op": "Const", "name": "FeatureExtractor/MobilenetV2/expanded_conv_14/depthwise/depthwise_weights"}, {"attr": {"dtype": {"type": "DT_FLOAT"}, "value": {"tensor": {"tensorShape": {"dim": [{"size": "960"}]}, "dtype": "DT_FLOAT"}}}, "op": "Const", "name": "FeatureExtractor/MobilenetV2/expanded_conv_14/depthwise/depthwise_bn_offset"}, {"attr": {"dtype": {"type": "DT_FLOAT"}, "value": {"tensor": {"tensorShape": {"dim": [{"size": "1"}, {"size": "1"}, {"size": "960"}, {"size": "160"}]}, "dtype": "DT_FLOAT"}}}, "op": "Const", "name": "FeatureExtractor/MobilenetV2/expanded_conv_14/project/Conv2D_weights"}, {"attr": {"dtype": {"type": "DT_FLOAT"}, "value": {"tensor": {"tensorShape": {"dim": [{"size": "160"}]}, "dtype": "DT_FLOAT"}}}, "op": "Const", "name": "FeatureExtractor/MobilenetV2/expanded_conv_14/project/Conv2D_bn_offset"}, {"attr": {"dtype": {"type": "DT_FLOAT"}, "value": {"tensor": {"tensorShape": {"dim": [{"size": "1"}, {"size": "1"}, {"size": "160"}, {"size": "960"}]}, "dtype": "DT_FLOAT"}}}, "op": "Const", "name": "FeatureExtractor/MobilenetV2/expanded_conv_15/expand/Conv2D_weights"}, {"attr": {"dtype": {"type": "DT_FLOAT"}, "value": {"tensor": {"tensorShape": {"dim": [{"size": "960"}]}, "dtype": "DT_FLOAT"}}}, "op": "Const", "name": "FeatureExtractor/MobilenetV2/expanded_conv_15/expand/Conv2D_bn_offset"}, {"attr": {"dtype": {"type": "DT_FLOAT"}, "value": {"tensor": {"tensorShape": {"dim": [{"size": "3"}, {"size": "3"}, {"size": "960"}, {"size": "1"}]}, "dtype": "DT_FLOAT"}}}, "op": "Const", "name": "FeatureExtractor/MobilenetV2/expanded_conv_15/depthwise/depthwise_weights"}, {"attr": {"dtype": {"type": "DT_FLOAT"}, "value": {"tensor": {"tensorShape": {"dim": [{"size": "960"}]}, "dtype": "DT_FLOAT"}}}, "op": "Const", "name": "FeatureExtractor/MobilenetV2/expanded_conv_15/depthwise/depthwise_bn_offset"}, {"attr": {"dtype": {"type": "DT_FLOAT"}, "value": {"tensor": {"tensorShape": {"dim": [{"size": "1"}, {"size": "1"}, {"size": "960"}, {"size": "160"}]}, "dtype": "DT_FLOAT"}}}, "op": "Const", "name": "FeatureExtractor/MobilenetV2/expanded_conv_15/project/Conv2D_weights"}, {"attr": {"dtype": {"type": "DT_FLOAT"}, "value": {"tensor": {"tensorShape": {"dim": [{"size": "160"}]}, "dtype": "DT_FLOAT"}}}, "op": "Const", "name": "FeatureExtractor/MobilenetV2/expanded_conv_15/project/Conv2D_bn_offset"}, {"attr": {"dtype": {"type": "DT_FLOAT"}, "value": {"tensor": {"tensorShape": {"dim": [{"size": "1"}, {"size": "1"}, {"size": "160"}, {"size": "960"}]}, "dtype": "DT_FLOAT"}}}, "op": "Const", "name": "FeatureExtractor/MobilenetV2/expanded_conv_16/expand/Conv2D_weights"}, {"attr": {"dtype": {"type": "DT_FLOAT"}, "value": {"tensor": {"tensorShape": {"dim": [{"size": "960"}]}, "dtype": "DT_FLOAT"}}}, "op": "Const", "name": "FeatureExtractor/MobilenetV2/expanded_conv_16/expand/Conv2D_bn_offset"}, {"attr": {"dtype": {"type": "DT_FLOAT"}, "value": {"tensor": {"tensorShape": {"dim": [{"size": "3"}, {"size": "3"}, {"size": "960"}, {"size": "1"}]}, "dtype": "DT_FLOAT"}}}, "op": "Const", "name": "FeatureExtractor/MobilenetV2/expanded_conv_16/depthwise/depthwise_weights"}, {"attr": {"dtype": {"type": "DT_FLOAT"}, "value": {"tensor": {"tensorShape": {"dim": [{"size": "960"}]}, "dtype": "DT_FLOAT"}}}, "op": "Const", "name": "FeatureExtractor/MobilenetV2/expanded_conv_16/depthwise/depthwise_bn_offset"}, {"attr": {"dtype": {"type": "DT_FLOAT"}, "value": {"tensor": {"tensorShape": {"dim": [{"size": "1"}, {"size": "1"}, {"size": "960"}, {"size": "320"}]}, "dtype": "DT_FLOAT"}}}, "op": "Const", "name": "FeatureExtractor/MobilenetV2/expanded_conv_16/project/Conv2D_weights"}, {"attr": {"dtype": {"type": "DT_FLOAT"}, "value": {"tensor": {"tensorShape": {"dim": [{"size": "320"}]}, "dtype": "DT_FLOAT"}}}, "op": "Const", "name": "FeatureExtractor/MobilenetV2/expanded_conv_16/project/Conv2D_bn_offset"}, {"attr": {"dtype": {"type": "DT_FLOAT"}, "value": {"tensor": {"tensorShape": {"dim": [{"size": "1"}, {"size": "1"}, {"size": "320"}, {"size": "1280"}]}, "dtype": "DT_FLOAT"}}}, "op": "Const", "name": "FeatureExtractor/MobilenetV2/Conv_1/Conv2D_weights"}, {"attr": {"dtype": {"type": "DT_FLOAT"}, "value": {"tensor": {"tensorShape": {"dim": [{"size": "1280"}]}, "dtype": "DT_FLOAT"}}}, "op": "Const", "name": "FeatureExtractor/MobilenetV2/Conv_1/Conv2D_bn_offset"}, {"attr": {"dtype": {"type": "DT_FLOAT"}, "value": {"tensor": {"tensorShape": {"dim": [{"size": "1"}, {"size": "1"}, {"size": "1280"}, {"size": "256"}]}, "dtype": "DT_FLOAT"}}}, "op": "Const", "name": "FeatureExtractor/MobilenetV2/layer_19_1_Conv2d_2_1x1_256/Conv2D_weights"}, {"attr": {"dtype": {"type": "DT_FLOAT"}, "value": {"tensor": {"tensorShape": {"dim": [{"size": "256"}]}, "dtype": "DT_FLOAT"}}}, "op": "Const", "name": "FeatureExtractor/MobilenetV2/layer_19_1_Conv2d_2_1x1_256/Conv2D_bn_offset"}, {"attr": {"dtype": {"type": "DT_FLOAT"}, "value": {"tensor": {"tensorShape": {"dim": [{"size": "3"}, {"size": "3"}, {"size": "256"}, {"size": "512"}]}, "dtype": "DT_FLOAT"}}}, "op": "Const", "name": "FeatureExtractor/MobilenetV2/layer_19_2_Conv2d_2_3x3_s2_512/Conv2D_weights"}, {"attr": {"dtype": {"type": "DT_FLOAT"}, "value": {"tensor": {"tensorShape": {"dim": [{"size": "512"}]}, "dtype": "DT_FLOAT"}}}, "op": "Const", "name": "FeatureExtractor/MobilenetV2/layer_19_2_Conv2d_2_3x3_s2_512/Conv2D_bn_offset"}, {"attr": {"dtype": {"type": "DT_FLOAT"}, "value": {"tensor": {"tensorShape": {"dim": [{"size": "1"}, {"size": "1"}, {"size": "512"}, {"size": "128"}]}, "dtype": "DT_FLOAT"}}}, "op": "Const", "name": "FeatureExtractor/MobilenetV2/layer_19_1_Conv2d_3_1x1_128/Conv2D_weights"}, {"attr": {"dtype": {"type": "DT_FLOAT"}, "value": {"tensor": {"tensorShape": {"dim": [{"size": "128"}]}, "dtype": "DT_FLOAT"}}}, "op": "Const", "name": "FeatureExtractor/MobilenetV2/layer_19_1_Conv2d_3_1x1_128/Conv2D_bn_offset"}, {"attr": {"dtype": {"type": "DT_FLOAT"}, "value": {"tensor": {"tensorShape": {"dim": [{"size": "3"}, {"size": "3"}, {"size": "128"}, {"size": "256"}]}, "dtype": "DT_FLOAT"}}}, "op": "Const", "name": "FeatureExtractor/MobilenetV2/layer_19_2_Conv2d_3_3x3_s2_256/Conv2D_weights"}, {"attr": {"dtype": {"type": "DT_FLOAT"}, "value": {"tensor": {"tensorShape": {"dim": [{"size": "256"}]}, "dtype": "DT_FLOAT"}}}, "op": "Const", "name": "FeatureExtractor/MobilenetV2/layer_19_2_Conv2d_3_3x3_s2_256/Conv2D_bn_offset"}, {"attr": {"dtype": {"type": "DT_FLOAT"}, "value": {"tensor": {"tensorShape": {"dim": [{"size": "1"}, {"size": "1"}, {"size": "256"}, {"size": "128"}]}, "dtype": "DT_FLOAT"}}}, "op": "Const", "name": "FeatureExtractor/MobilenetV2/layer_19_1_Conv2d_4_1x1_128/Conv2D_weights"}, {"attr": {"dtype": {"type": "DT_FLOAT"}, "value": {"tensor": {"tensorShape": {"dim": [{"size": "128"}]}, "dtype": "DT_FLOAT"}}}, "op": "Const", "name": "FeatureExtractor/MobilenetV2/layer_19_1_Conv2d_4_1x1_128/Conv2D_bn_offset"}, {"attr": {"dtype": {"type": "DT_FLOAT"}, "value": {"tensor": {"tensorShape": {"dim": [{"size": "3"}, {"size": "3"}, {"size": "128"}, {"size": "256"}]}, "dtype": "DT_FLOAT"}}}, "op": "Const", "name": "FeatureExtractor/MobilenetV2/layer_19_2_Conv2d_4_3x3_s2_256/Conv2D_weights"}, {"attr": {"dtype": {"type": "DT_FLOAT"}, "value": {"tensor": {"tensorShape": {"dim": [{"size": "256"}]}, "dtype": "DT_FLOAT"}}}, "op": "Const", "name": "FeatureExtractor/MobilenetV2/layer_19_2_Conv2d_4_3x3_s2_256/Conv2D_bn_offset"}, {"attr": {"dtype": {"type": "DT_FLOAT"}, "value": {"tensor": {"tensorShape": {"dim": [{"size": "1"}, {"size": "1"}, {"size": "256"}, {"size": "64"}]}, "dtype": "DT_FLOAT"}}}, "op": "Const", "name": "FeatureExtractor/MobilenetV2/layer_19_1_Conv2d_5_1x1_64/Conv2D_weights"}, {"attr": {"dtype": {"type": "DT_FLOAT"}, "value": {"tensor": {"tensorShape": {"dim": [{"size": "64"}]}, "dtype": "DT_FLOAT"}}}, "op": "Const", "name": "FeatureExtractor/MobilenetV2/layer_19_1_Conv2d_5_1x1_64/Conv2D_bn_offset"}, {"attr": {"dtype": {"type": "DT_FLOAT"}, "value": {"tensor": {"tensorShape": {"dim": [{"size": "3"}, {"size": "3"}, {"size": "64"}, {"size": "128"}]}, "dtype": "DT_FLOAT"}}}, "op": "Const", "name": "FeatureExtractor/MobilenetV2/layer_19_2_Conv2d_5_3x3_s2_128/Conv2D_weights"}, {"attr": {"dtype": {"type": "DT_FLOAT"}, "value": {"tensor": {"tensorShape": {"dim": [{"size": "128"}]}, "dtype": "DT_FLOAT"}}}, "op": "Const", "name": "FeatureExtractor/MobilenetV2/layer_19_2_Conv2d_5_3x3_s2_128/Conv2D_bn_offset"}, {"attr": {"frame_name": {"s": "UG9zdHByb2Nlc3Nvci9CYXRjaE11bHRpQ2xhc3NOb25NYXhTdXBwcmVzc2lvbi9tYXAvd2hpbGUvd2hpbGVfY29udGV4dA=="}, "T": {"type": "DT_INT32"}, "is_constant": {"b": false}, "parallel_iterations": {"i": "32"}}, "op": "Enter", "input": ["Postprocessor/BatchMultiClassNonMaxSuppression/map/TensorArrayStack/range/start"], "name": "Postprocessor/BatchMultiClassNonMaxSuppression/map/while/Enter_1"}, {"attr": {"frame_name": {"s": "UG9zdHByb2Nlc3Nvci9CYXRjaE11bHRpQ2xhc3NOb25NYXhTdXBwcmVzc2lvbi9tYXAvd2hpbGUvd2hpbGVfY29udGV4dA=="}, "T": {"type": "DT_INT32"}, "is_constant": {"b": false}, "parallel_iterations": {"i": "32"}}, "op": "Enter", "input": ["Postprocessor/BatchMultiClassNonMaxSuppression/map/TensorArrayStack/range/start"], "name": "Postprocessor/BatchMultiClassNonMaxSuppression/map/while/Enter"}, {"attr": {"frame_name": {"s": "UHJlcHJvY2Vzc29yL21hcC93aGlsZS93aGlsZV9jb250ZXh0"}, "T": {"type": "DT_INT32"}, "is_constant": {"b": false}, "parallel_iterations": {"i": "32"}}, "op": "Enter", "input": ["Postprocessor/BatchMultiClassNonMaxSuppression/map/TensorArrayStack/range/start"], "name": "Preprocessor/map/while/Enter_1"}, {"attr": {"frame_name": {"s": "UHJlcHJvY2Vzc29yL21hcC93aGlsZS93aGlsZV9jb250ZXh0"}, "T": {"type": "DT_INT32"}, "is_constant": {"b": false}, "parallel_iterations": {"i": "32"}}, "op": "Enter", "input": ["Postprocessor/BatchMultiClassNonMaxSuppression/map/TensorArrayStack/range/start"], "name": "Preprocessor/map/while/Enter"}, {"attr": {"Truncate": {"b": false}, "DstT": {"type": "DT_FLOAT"}, "SrcT": {"type": "DT_UINT8"}}, "op": "Cast", "input": ["image_tensor"], "name": "Cast"}, {"attr": {"T": {"type": "DT_INT32"}, "N": {"i": "2"}}, "op": "Merge", "input": ["Postprocessor/BatchMultiClassNonMaxSuppression/map/while/Enter_1", "Postprocessor/BatchMultiClassNonMaxSuppression/map/while/NextIteration_1"], "name": "Postprocessor/BatchMultiClassNonMaxSuppression/map/while/Merge_1"}, {"attr": {"T": {"type": "DT_INT32"}, "N": {"i": "2"}}, "op": "Merge", "input": ["Postprocessor/BatchMultiClassNonMaxSuppression/map/while/Enter", "Postprocessor/BatchMultiClassNonMaxSuppression/map/while/NextIteration"], "name": "Postprocessor/BatchMultiClassNonMaxSuppression/map/while/Merge"}, {"attr": {"T": {"type": "DT_INT32"}, "N": {"i": "2"}}, "op": "Merge", "input": ["Preprocessor/map/while/Enter_1", "Preprocessor/map/while/NextIteration_1"], "name": "Preprocessor/map/while/Merge_1"}, {"attr": {"T": {"type": "DT_INT32"}, "N": {"i": "2"}}, "op": "Merge", "input": ["Preprocessor/map/while/Enter", "Preprocessor/map/while/NextIteration"], "name": "Preprocessor/map/while/Merge"}, {"attr": {"T": {"type": "DT_FLOAT"}, "out_type": {"type": "DT_INT32"}}, "op": "Shape", "input": ["Cast"], "name": "Preprocessor/map/TensorArrayUnstack/Shape"}, {"attr": {"begin_mask": {"i": "0"}, "T": {"type": "DT_INT32"}, "new_axis_mask": {"i": "0"}, "Index": {"type": "DT_INT32"}, "shrink_axis_mask": {"i": "1"}, "ellipsis_mask": {"i": "0"}, "end_mask": {"i": "0"}}, "op": "StridedSlice", "input": ["Preprocessor/map/TensorArrayUnstack/Shape", "Postprocessor/BatchMultiClassNonMaxSuppression/map/TensorArrayUnstack_1/strided_slice/stack", "Postprocessor/BatchMultiClassNonMaxSuppression/map/TensorArrayUnstack_1/strided_slice/stack_1", "Postprocessor/BatchMultiClassNonMaxSuppression/map/TensorArrayUnstack_1/strided_slice/stack_1"], "name": "Preprocessor/map/TensorArrayUnstack/strided_slice"}, {"attr": {"clear_after_read": {"b": true}, "element_shape": {"shape": {"unknownRank": true}}, "identical_element_shapes": {"b": true}, "tensor_array_name": {"s": ""}, "dtype": {"type": "DT_INT32"}, "dynamic_size": {"b": false}}, "op": "TensorArrayV3", "input": ["Preprocessor/map/TensorArrayUnstack/strided_slice"], "name": "Preprocessor/map/TensorArray_2"}, {"attr": {"clear_after_read": {"b": true}, "element_shape": {"shape": {"unknownRank": true}}, "identical_element_shapes": {"b": true}, "tensor_array_name": {"s": ""}, "dtype": {"type": "DT_FLOAT"}, "dynamic_size": {"b": false}}, "op": "TensorArrayV3", "input": ["Preprocessor/map/TensorArrayUnstack/strided_slice"], "name": "Preprocessor/map/TensorArray_1"}, {"attr": {"Tidx": {"type": "DT_INT32"}}, "op": "Range", "input": ["Postprocessor/BatchMultiClassNonMaxSuppression/map/TensorArrayStack/range/start", "Preprocessor/map/TensorArrayUnstack/strided_slice", "Postprocessor/BatchMultiClassNonMaxSuppression/map/TensorArrayStack/range/delta"], "name": "Preprocessor/map/TensorArrayUnstack/range"}, {"attr": {"clear_after_read": {"b": true}, "element_shape": {"shape": {"unknownRank": true}}, "identical_element_shapes": {"b": true}, "tensor_array_name": {"s": ""}, "dtype": {"type": "DT_FLOAT"}, "dynamic_size": {"b": false}}, "op": "TensorArrayV3", "input": ["Preprocessor/map/TensorArrayUnstack/strided_slice"], "name": "Preprocessor/map/TensorArray"}, {"attr": {"frame_name": {"s": "UHJlcHJvY2Vzc29yL21hcC93aGlsZS93aGlsZV9jb250ZXh0"}, "T": {"type": "DT_INT32"}, "is_constant": {"b": true}, "parallel_iterations": {"i": "32"}}, "op": "Enter", "input": ["Preprocessor/map/TensorArrayUnstack/strided_slice"], "name": "Preprocessor/map/while/Less/Enter"}, {"attr": {"frame_name": {"s": "UHJlcHJvY2Vzc29yL21hcC93aGlsZS93aGlsZV9jb250ZXh0"}, "T": {"type": "DT_RESOURCE"}, "is_constant": {"b": true}, "parallel_iterations": {"i": "32"}}, "op": "Enter", "input": ["Preprocessor/map/TensorArray_2"], "name": "Preprocessor/map/while/TensorArrayWrite_1/TensorArrayWriteV3/Enter"}, {"attr": {"frame_name": {"s": "UHJlcHJvY2Vzc29yL21hcC93aGlsZS93aGlsZV9jb250ZXh0"}, "T": {"type": "DT_FLOAT"}, "is_constant": {"b": false}, "parallel_iterations": {"i": "32"}}, "op": "Enter", "input": ["Preprocessor/map/TensorArray_2:1"], "name": "Preprocessor/map/while/Enter_3"}, {"attr": {"frame_name": {"s": "UHJlcHJvY2Vzc29yL21hcC93aGlsZS93aGlsZV9jb250ZXh0"}, "T": {"type": "DT_RESOURCE"}, "is_constant": {"b": true}, "parallel_iterations": {"i": "32"}}, "op": "Enter", "input": ["Preprocessor/map/TensorArray_1"], "name": "Preprocessor/map/while/TensorArrayWrite/TensorArrayWriteV3/Enter"}, {"attr": {"frame_name": {"s": "UHJlcHJvY2Vzc29yL21hcC93aGlsZS93aGlsZV9jb250ZXh0"}, "T": {"type": "DT_FLOAT"}, "is_constant": {"b": false}, "parallel_iterations": {"i": "32"}}, "op": "Enter", "input": ["Preprocessor/map/TensorArray_1:1"], "name": "Preprocessor/map/while/Enter_2"}, {"attr": {"frame_name": {"s": "UHJlcHJvY2Vzc29yL21hcC93aGlsZS93aGlsZV9jb250ZXh0"}, "T": {"type": "DT_RESOURCE"}, "is_constant": {"b": true}, "parallel_iterations": {"i": "32"}}, "op": "Enter", "input": ["Preprocessor/map/TensorArray"], "name": "Preprocessor/map/while/TensorArrayReadV3/Enter"}, {"attr": {"T": {"type": "DT_FLOAT"}}, "op": "TensorArrayScatterV3", "input": ["Preprocessor/map/TensorArray", "Preprocessor/map/TensorArrayUnstack/range", "Cast", "Preprocessor/map/TensorArray:1"], "name": "Preprocessor/map/TensorArrayUnstack/TensorArrayScatter/TensorArrayScatterV3"}, {"attr": {"T": {"type": "DT_INT32"}}, "op": "Less", "input": ["Preprocessor/map/while/Merge", "Preprocessor/map/while/Less/Enter"], "name": "Preprocessor/map/while/Less"}, {"attr": {"T": {"type": "DT_INT32"}}, "op": "Less", "input": ["Preprocessor/map/while/Merge_1", "Preprocessor/map/while/Less/Enter"], "name": "Preprocessor/map/while/Less_1"}, {"attr": {"N": {"i": "2"}, "T": {"type": "DT_FLOAT"}}, "op": "Merge", "input": ["Preprocessor/map/while/Enter_3", "Preprocessor/map/while/NextIteration_3"], "name": "Preprocessor/map/while/Merge_3"}, {"attr": {"T": {"type": "DT_FLOAT"}, "N": {"i": "2"}}, "op": "Merge", "input": ["Preprocessor/map/while/Enter_2", "Preprocessor/map/while/NextIteration_2"], "name": "Preprocessor/map/while/Merge_2"}, {"attr": {"frame_name": {"s": "UHJlcHJvY2Vzc29yL21hcC93aGlsZS93aGlsZV9jb250ZXh0"}, "T": {"type": "DT_FLOAT"}, "is_constant": {"b": true}, "parallel_iterations": {"i": "32"}}, "op": "Enter", "input": ["Preprocessor/map/TensorArrayUnstack/TensorArrayScatter/TensorArrayScatterV3"], "name": "Preprocessor/map/while/TensorArrayReadV3/Enter_1"}, {"op": "LogicalAnd", "input": ["Preprocessor/map/while/Less", "Preprocessor/map/while/Less_1"], "name": "Preprocessor/map/while/LogicalAnd"}, {"op": "LoopCond", "input": ["Preprocessor/map/while/LogicalAnd"], "name": "Preprocessor/map/while/LoopCond"}, {"attr": {"T": {"type": "DT_FLOAT"}}, "op": "Switch", "input": ["Preprocessor/map/while/Merge_3", "Preprocessor/map/while/LoopCond"], "name": "Preprocessor/map/while/Switch_3"}, {"attr": {"T": {"type": "DT_INT32"}}, "op": "Switch", "input": ["Preprocessor/map/while/Merge_1", "Preprocessor/map/while/LoopCond"], "name": "Preprocessor/map/while/Switch_1"}, {"attr": {"T": {"type": "DT_INT32"}}, "op": "Switch", "input": ["Preprocessor/map/while/Merge", "Preprocessor/map/while/LoopCond"], "name": "Preprocessor/map/while/Switch"}, {"attr": {"T": {"type": "DT_FLOAT"}}, "op": "Switch", "input": ["Preprocessor/map/while/Merge_2", "Preprocessor/map/while/LoopCond"], "name": "Preprocessor/map/while/Switch_2"}, {"attr": {"T": {"type": "DT_FLOAT"}}, "op": "Exit", "input": ["Preprocessor/map/while/Switch_3"], "name": "Preprocessor/map/while/Exit_3"}, {"attr": {"dtype": {"type": "DT_FLOAT"}}, "op": "TensorArrayReadV3", "input": ["Preprocessor/map/while/TensorArrayReadV3/Enter", "Preprocessor/map/while/Switch_1:1", "Preprocessor/map/while/TensorArrayReadV3/Enter_1"], "name": "Preprocessor/map/while/TensorArrayReadV3"}, {"attr": {"T": {"type": "DT_INT32"}}, "op": "Identity", "input": ["Preprocessor/map/while/Switch:1"], "name": "Preprocessor/map/while/Identity"}, {"attr": {"T": {"type": "DT_FLOAT"}}, "op": "Exit", "input": ["Preprocessor/map/while/Switch_2"], "name": "Preprocessor/map/while/Exit_2"}, {"op": "TensorArraySizeV3", "input": ["Preprocessor/map/TensorArray_2", "Preprocessor/map/while/Exit_3"], "name": "Preprocessor/map/TensorArrayStack_1/TensorArraySizeV3"}, {"attr": {"dtype": {"type": "DT_INT32"}, "value": {"tensor": {"tensorShape": {"dim": [{"size": "3"}]}, "dtype": "DT_INT32"}}}, "op": "Const", "input": ["^Preprocessor/map/while/Identity"], "name": "Preprocessor/map/while/ResizeImage/stack_1"}, {"attr": {"dtype": {"type": "DT_INT32"}, "value": {"tensor": {"tensorShape": {}, "dtype": "DT_INT32"}}}, "op": "Const", "input": ["^Preprocessor/map/while/Identity"], "name": "Preprocessor/map/while/ResizeImage/resize/ExpandDims/dim"}, {"attr": {"dtype": {"type": "DT_INT32"}, "value": {"tensor": {"tensorShape": {"dim": [{"size": "2"}]}, "dtype": "DT_INT32"}}}, "op": "Const", "input": ["^Preprocessor/map/while/Identity"], "name": "Preprocessor/map/while/ResizeImage/stack"}, {"attr": {"dtype": {"type": "DT_INT32"}, "value": {"tensor": {"tensorShape": {}, "dtype": "DT_INT32"}}}, "op": "Const", "input": ["^Preprocessor/map/while/Identity"], "name": "Preprocessor/map/while/add/y"}, {"op": "TensorArraySizeV3", "input": ["Preprocessor/map/TensorArray_1", "Preprocessor/map/while/Exit_2"], "name": "Preprocessor/map/TensorArrayStack/TensorArraySizeV3"}, {"attr": {"Tidx": {"type": "DT_INT32"}}, "op": "Range", "input": ["Postprocessor/BatchMultiClassNonMaxSuppression/map/TensorArrayStack/range/start", "Preprocessor/map/TensorArrayStack_1/TensorArraySizeV3", "Postprocessor/BatchMultiClassNonMaxSuppression/map/TensorArrayStack/range/delta"], "name": "Preprocessor/map/TensorArrayStack_1/range"}, {"attr": {"T": {"type": "DT_INT32"}}, "op": "TensorArrayWriteV3", "input": ["Preprocessor/map/while/TensorArrayWrite_1/TensorArrayWriteV3/Enter", "Preprocessor/map/while/Switch_1:1", "Preprocessor/map/while/ResizeImage/stack_1", "Preprocessor/map/while/Switch_3:1"], "name": "Preprocessor/map/while/TensorArrayWrite_1/TensorArrayWriteV3"}, {"attr": {"T": {"type": "DT_FLOAT"}, "Tdim": {"type": "DT_INT32"}}, "op": "ExpandDims", "input": ["Preprocessor/map/while/TensorArrayReadV3", "Preprocessor/map/while/ResizeImage/resize/ExpandDims/dim"], "name": "Preprocessor/map/while/ResizeImage/resize/ExpandDims"}, {"attr": {"T": {"type": "DT_INT32"}}, "op": "AddV2", "input": ["Preprocessor/map/while/Identity", "Preprocessor/map/while/add/y"], "name": "Preprocessor/map/while/add"}, {"attr": {"T": {"type": "DT_INT32"}}, "op": "AddV2", "input": ["Preprocessor/map/while/Switch_1:1", "Preprocessor/map/while/add/y"], "name": "Preprocessor/map/while/add_1"}, {"attr": {"Tidx": {"type": "DT_INT32"}}, "op": "Range", "input": ["Postprocessor/BatchMultiClassNonMaxSuppression/map/TensorArrayStack/range/start", "Preprocessor/map/TensorArrayStack/TensorArraySizeV3", "Postprocessor/BatchMultiClassNonMaxSuppression/map/TensorArrayStack/range/delta"], "name": "Preprocessor/map/TensorArrayStack/range"}, {"attr": {"element_shape": {"shape": {"dim": [{"size": "3"}]}}, "dtype": {"type": "DT_INT32"}}, "op": "TensorArrayGatherV3", "input": ["Preprocessor/map/TensorArray_2", "Preprocessor/map/TensorArrayStack_1/range", "Preprocessor/map/while/Exit_3"], "name": "Preprocessor/map/TensorArrayStack_1/TensorArrayGatherV3"}, {"attr": {"T": {"type": "DT_FLOAT"}}, "op": "NextIteration", "input": ["Preprocessor/map/while/TensorArrayWrite_1/TensorArrayWriteV3"], "name": "Preprocessor/map/while/NextIteration_3"}, {"attr": {"T": {"type": "DT_FLOAT"}, "half_pixel_centers": {"b": false}, "align_corners": {"b": false}}, "op": "ResizeBilinear", "input": ["Preprocessor/map/while/ResizeImage/resize/ExpandDims", "Preprocessor/map/while/ResizeImage/stack"], "name": "Preprocessor/map/while/ResizeImage/resize/ResizeBilinear"}, {"attr": {"T": {"type": "DT_INT32"}}, "op": "NextIteration", "input": ["Preprocessor/map/while/add"], "name": "Preprocessor/map/while/NextIteration"}, {"attr": {"T": {"type": "DT_INT32"}}, "op": "NextIteration", "input": ["Preprocessor/map/while/add_1"], "name": "Preprocessor/map/while/NextIteration_1"}, {"attr": {"element_shape": {"shape": {"dim": [{"size": "300"}, {"size": "300"}, {"size": "3"}]}}, "dtype": {"type": "DT_FLOAT"}}, "op": "TensorArrayGatherV3", "input": ["Preprocessor/map/TensorArray_1", "Preprocessor/map/TensorArrayStack/range", "Preprocessor/map/while/Exit_2"], "name": "Preprocessor/map/TensorArrayStack/TensorArrayGatherV3"}, {"attr": {"Truncate": {"b": false}, "DstT": {"type": "DT_FLOAT"}, "SrcT": {"type": "DT_INT32"}}, "op": "Cast", "input": ["Preprocessor/map/TensorArrayStack_1/TensorArrayGatherV3"], "name": "Postprocessor/Cast_1"}, {"attr": {"squeeze_dims": {"list": {"i": ["0"]}}, "T": {"type": "DT_FLOAT"}}, "op": "Squeeze", "input": ["Preprocessor/map/while/ResizeImage/resize/ResizeBilinear"], "name": "Preprocessor/map/while/ResizeImage/resize/Squeeze"}, {"attr": {"T": {"type": "DT_FLOAT"}}, "op": "Mul", "input": ["Preprocessor/map/TensorArrayStack/TensorArrayGatherV3", "Preprocessor/mul/x"], "name": "Preprocessor/mul"}, {"attr": {"T": {"type": "DT_FLOAT"}, "num": {"i": "3"}, "axis": {"i": "1"}}, "op": "Unpack", "input": ["Postprocessor/Cast_1"], "name": "Postprocessor/unstack"}, {"attr": {"T": {"type": "DT_FLOAT"}}, "op": "TensorArrayWriteV3", "input": ["Preprocessor/map/while/TensorArrayWrite/TensorArrayWriteV3/Enter", "Preprocessor/map/while/Switch_1:1", "Preprocessor/map/while/ResizeImage/resize/Squeeze", "Preprocessor/map/while/Switch_2:1"], "name": "Preprocessor/map/while/TensorArrayWrite/TensorArrayWriteV3"}, {"attr": {"T": {"type": "DT_FLOAT"}}, "op": "Sub", "input": ["Preprocessor/mul", "add/y"], "name": "Preprocessor/sub"}, {"attr": {"T": {"type": "DT_FLOAT"}}, "op": "ZerosLike", "input": ["Postprocessor/unstack"], "name": "Postprocessor/zeros_like"}, {"attr": {"T": {"type": "DT_FLOAT"}}, "op": "Mul", "input": ["ConstantFolding/Postprocessor/truediv_recip", "Postprocessor/unstack"], "name": "Postprocessor/truediv"}, {"attr": {"T": {"type": "DT_FLOAT"}}, "op": "ZerosLike", "input": ["Postprocessor/unstack:1"], "name": "Postprocessor/zeros_like_1"}, {"attr": {"T": {"type": "DT_FLOAT"}}, "op": "Mul", "input": ["ConstantFolding/Postprocessor/truediv_recip", "Postprocessor/unstack:1"], "name": "Postprocessor/truediv_1"}, {"attr": {"T": {"type": "DT_FLOAT"}}, "op": "NextIteration", "input": ["Preprocessor/map/while/TensorArrayWrite/TensorArrayWriteV3"], "name": "Preprocessor/map/while/NextIteration_2"}, {"device": "/device:CPU:0", "attr": {"data_format": {"s": "TkhXQw=="}, "T": {"type": "DT_FLOAT"}, "fused_ops": {"list": {"s": ["Qmlhc0FkZA==", "UmVsdTY="]}}, "explicit_paddings": {"list": {}}, "use_cudnn_on_gpu": {"b": true}, "epsilon": {"f": 0.0}, "strides": {"list": {"i": ["1", "2", "2", "1"]}}, "num_args": {"i": "1"}, "dilations": {"list": {"i": ["1", "1", "1", "1"]}}, "padding": {"s": "U0FNRQ=="}}, "op": "_FusedConv2D", "input": ["Preprocessor/sub", "FeatureExtractor/MobilenetV2/Conv/Conv2D_weights", "FeatureExtractor/MobilenetV2/Conv/Conv2D_bn_offset"], "name": "FeatureExtractor/MobilenetV2/Conv/Relu6"}, {"attr": {"N": {"i": "4"}, "T": {"type": "DT_FLOAT"}, "axis": {"i": "1"}}, "op": "Pack", "input": ["Postprocessor/zeros_like", "Postprocessor/zeros_like_1", "Postprocessor/truediv", "Postprocessor/truediv_1"], "name": "Postprocessor/stack_1"}, {"attr": {"data_format": {"s": "TkhXQw=="}, "T": {"type": "DT_FLOAT"}, "fused_ops": {"list": {"s": ["Qmlhc0FkZA==", "UmVsdTY="]}}, "strides": {"list": {"i": ["1", "1", "1", "1"]}}, "num_args": {"i": "1"}, "dilations": {"list": {"i": ["1", "1", "1", "1"]}}, "padding": {"s": "U0FNRQ=="}}, "op": "FusedDepthwiseConv2dNative", "input": ["FeatureExtractor/MobilenetV2/Conv/Relu6", "FeatureExtractor/MobilenetV2/expanded_conv/depthwise/depthwise_weights", "FeatureExtractor/MobilenetV2/expanded_conv/depthwise/depthwise_bn_offset"], "name": "FeatureExtractor/MobilenetV2/expanded_conv/depthwise/depthwise"}, {"attr": {"T": {"type": "DT_FLOAT"}, "out_type": {"type": "DT_INT32"}}, "op": "Shape", "input": ["Postprocessor/stack_1"], "name": "Postprocessor/BatchMultiClassNonMaxSuppression/map/TensorArrayUnstack_3/Shape"}, {"attr": {"ellipsis_mask": {"i": "0"}, "T": {"type": "DT_INT32"}, "new_axis_mask": {"i": "0"}, "shrink_axis_mask": {"i": "1"}, "Index": {"type": "DT_INT32"}, "begin_mask": {"i": "0"}, "end_mask": {"i": "0"}}, "op": "StridedSlice", "input": ["Postprocessor/BatchMultiClassNonMaxSuppression/map/TensorArrayUnstack_3/Shape", "Postprocessor/BatchMultiClassNonMaxSuppression/map/TensorArrayUnstack_1/strided_slice/stack", "Postprocessor/BatchMultiClassNonMaxSuppression/map/TensorArrayUnstack_1/strided_slice/stack_1", "Postprocessor/BatchMultiClassNonMaxSuppression/map/TensorArrayUnstack_1/strided_slice/stack_1"], "name": "Postprocessor/BatchMultiClassNonMaxSuppression/map/TensorArrayUnstack_3/strided_slice"}, {"attr": {"Tidx": {"type": "DT_INT32"}}, "op": "Range", "input": ["Postprocessor/BatchMultiClassNonMaxSuppression/map/TensorArrayStack/range/start", "Postprocessor/BatchMultiClassNonMaxSuppression/map/TensorArrayUnstack_3/strided_slice", "Postprocessor/BatchMultiClassNonMaxSuppression/map/TensorArrayStack/range/delta"], "name": "Postprocessor/BatchMultiClassNonMaxSuppression/map/TensorArrayUnstack_3/range"}, {"device": "/device:CPU:0", "attr": {"data_format": {"s": "TkhXQw=="}, "T": {"type": "DT_FLOAT"}, "fused_ops": {"list": {"s": ["Qmlhc0FkZA=="]}}, "explicit_paddings": {"list": {}}, "use_cudnn_on_gpu": {"b": true}, "epsilon": {"f": 0.0}, "strides": {"list": {"i": ["1", "1", "1", "1"]}}, "num_args": {"i": "1"}, "dilations": {"list": {"i": ["1", "1", "1", "1"]}}, "padding": {"s": "U0FNRQ=="}}, "op": "_FusedConv2D", "input": ["FeatureExtractor/MobilenetV2/expanded_conv/depthwise/depthwise", "FeatureExtractor/MobilenetV2/expanded_conv/project/Conv2D_weights", "FeatureExtractor/MobilenetV2/expanded_conv/project/Conv2D_bn_offset"], "name": "FeatureExtractor/MobilenetV2/expanded_conv/project/BatchNorm/FusedBatchNormV3"}, {"device": "/device:CPU:0", "attr": {"data_format": {"s": "TkhXQw=="}, "T": {"type": "DT_FLOAT"}, "fused_ops": {"list": {"s": ["Qmlhc0FkZA==", "UmVsdTY="]}}, "explicit_paddings": {"list": {}}, "use_cudnn_on_gpu": {"b": true}, "epsilon": {"f": 0.0}, "strides": {"list": {"i": ["1", "1", "1", "1"]}}, "num_args": {"i": "1"}, "dilations": {"list": {"i": ["1", "1", "1", "1"]}}, "padding": {"s": "U0FNRQ=="}}, "op": "_FusedConv2D", "input": ["FeatureExtractor/MobilenetV2/expanded_conv/project/BatchNorm/FusedBatchNormV3", "FeatureExtractor/MobilenetV2/expanded_conv_1/expand/Conv2D_weights", "FeatureExtractor/MobilenetV2/expanded_conv_1/expand/Conv2D_bn_offset"], "name": "FeatureExtractor/MobilenetV2/expanded_conv_1/expand/Relu6"}, {"attr": {"data_format": {"s": "TkhXQw=="}, "T": {"type": "DT_FLOAT"}, "fused_ops": {"list": {"s": ["Qmlhc0FkZA==", "UmVsdTY="]}}, "strides": {"list": {"i": ["1", "2", "2", "1"]}}, "num_args": {"i": "1"}, "dilations": {"list": {"i": ["1", "1", "1", "1"]}}, "padding": {"s": "U0FNRQ=="}}, "op": "FusedDepthwiseConv2dNative", "input": ["FeatureExtractor/MobilenetV2/expanded_conv_1/expand/Relu6", "FeatureExtractor/MobilenetV2/expanded_conv_1/depthwise/depthwise_weights", "FeatureExtractor/MobilenetV2/expanded_conv_1/depthwise/depthwise_bn_offset"], "name": "FeatureExtractor/MobilenetV2/expanded_conv_1/depthwise/depthwise"}, {"device": "/device:CPU:0", "attr": {"data_format": {"s": "TkhXQw=="}, "T": {"type": "DT_FLOAT"}, "fused_ops": {"list": {"s": ["Qmlhc0FkZA=="]}}, "explicit_paddings": {"list": {}}, "use_cudnn_on_gpu": {"b": true}, "epsilon": {"f": 0.0}, "strides": {"list": {"i": ["1", "1", "1", "1"]}}, "num_args": {"i": "1"}, "dilations": {"list": {"i": ["1", "1", "1", "1"]}}, "padding": {"s": "U0FNRQ=="}}, "op": "_FusedConv2D", "input": ["FeatureExtractor/MobilenetV2/expanded_conv_1/depthwise/depthwise", "FeatureExtractor/MobilenetV2/expanded_conv_1/project/Conv2D_weights", "FeatureExtractor/MobilenetV2/expanded_conv_1/project/Conv2D_bn_offset"], "name": "FeatureExtractor/MobilenetV2/expanded_conv_1/project/BatchNorm/FusedBatchNormV3"}, {"device": "/device:CPU:0", "attr": {"data_format": {"s": "TkhXQw=="}, "T": {"type": "DT_FLOAT"}, "fused_ops": {"list": {"s": ["Qmlhc0FkZA==", "UmVsdTY="]}}, "explicit_paddings": {"list": {}}, "use_cudnn_on_gpu": {"b": true}, "epsilon": {"f": 0.0}, "strides": {"list": {"i": ["1", "1", "1", "1"]}}, "num_args": {"i": "1"}, "dilations": {"list": {"i": ["1", "1", "1", "1"]}}, "padding": {"s": "U0FNRQ=="}}, "op": "_FusedConv2D", "input": ["FeatureExtractor/MobilenetV2/expanded_conv_1/project/BatchNorm/FusedBatchNormV3", "FeatureExtractor/MobilenetV2/expanded_conv_2/expand/Conv2D_weights", "FeatureExtractor/MobilenetV2/expanded_conv_2/expand/Conv2D_bn_offset"], "name": "FeatureExtractor/MobilenetV2/expanded_conv_2/expand/Relu6"}, {"attr": {"data_format": {"s": "TkhXQw=="}, "T": {"type": "DT_FLOAT"}, "fused_ops": {"list": {"s": ["Qmlhc0FkZA==", "UmVsdTY="]}}, "strides": {"list": {"i": ["1", "1", "1", "1"]}}, "num_args": {"i": "1"}, "dilations": {"list": {"i": ["1", "1", "1", "1"]}}, "padding": {"s": "U0FNRQ=="}}, "op": "FusedDepthwiseConv2dNative", "input": ["FeatureExtractor/MobilenetV2/expanded_conv_2/expand/Relu6", "FeatureExtractor/MobilenetV2/expanded_conv_2/depthwise/depthwise_weights", "FeatureExtractor/MobilenetV2/expanded_conv_2/depthwise/depthwise_bn_offset"], "name": "FeatureExtractor/MobilenetV2/expanded_conv_2/depthwise/depthwise"}, {"device": "/device:CPU:0", "attr": {"epsilon": {"f": 0.0}, "T": {"type": "DT_FLOAT"}, "fused_ops": {"list": {"s": ["Qmlhc0FkZA=="]}}, "explicit_paddings": {"list": {}}, "use_cudnn_on_gpu": {"b": true}, "data_format": {"s": "TkhXQw=="}, "strides": {"list": {"i": ["1", "1", "1", "1"]}}, "num_args": {"i": "1"}, "dilations": {"list": {"i": ["1", "1", "1", "1"]}}, "padding": {"s": "U0FNRQ=="}}, "op": "_FusedConv2D", "input": ["FeatureExtractor/MobilenetV2/expanded_conv_2/depthwise/depthwise", "FeatureExtractor/MobilenetV2/expanded_conv_2/project/Conv2D_weights", "FeatureExtractor/MobilenetV2/expanded_conv_2/project/Conv2D_bn_offset"], "name": "FeatureExtractor/MobilenetV2/expanded_conv_2/project/BatchNorm/FusedBatchNormV3"}, {"attr": {"T": {"type": "DT_FLOAT"}}, "op": "AddV2", "input": ["FeatureExtractor/MobilenetV2/expanded_conv_1/project/BatchNorm/FusedBatchNormV3", "FeatureExtractor/MobilenetV2/expanded_conv_2/project/BatchNorm/FusedBatchNormV3"], "name": "FeatureExtractor/MobilenetV2/expanded_conv_2/add"}, {"device": "/device:CPU:0", "attr": {"data_format": {"s": "TkhXQw=="}, "T": {"type": "DT_FLOAT"}, "fused_ops": {"list": {"s": ["Qmlhc0FkZA==", "UmVsdTY="]}}, "explicit_paddings": {"list": {}}, "use_cudnn_on_gpu": {"b": true}, "epsilon": {"f": 0.0}, "strides": {"list": {"i": ["1", "1", "1", "1"]}}, "num_args": {"i": "1"}, "dilations": {"list": {"i": ["1", "1", "1", "1"]}}, "padding": {"s": "U0FNRQ=="}}, "op": "_FusedConv2D", "input": ["FeatureExtractor/MobilenetV2/expanded_conv_2/add", "FeatureExtractor/MobilenetV2/expanded_conv_3/expand/Conv2D_weights", "FeatureExtractor/MobilenetV2/expanded_conv_3/expand/Conv2D_bn_offset"], "name": "FeatureExtractor/MobilenetV2/expanded_conv_3/expand/Relu6"}, {"attr": {"data_format": {"s": "TkhXQw=="}, "T": {"type": "DT_FLOAT"}, "fused_ops": {"list": {"s": ["Qmlhc0FkZA==", "UmVsdTY="]}}, "strides": {"list": {"i": ["1", "2", "2", "1"]}}, "num_args": {"i": "1"}, "dilations": {"list": {"i": ["1", "1", "1", "1"]}}, "padding": {"s": "U0FNRQ=="}}, "op": "FusedDepthwiseConv2dNative", "input": ["FeatureExtractor/MobilenetV2/expanded_conv_3/expand/Relu6", "FeatureExtractor/MobilenetV2/expanded_conv_3/depthwise/depthwise_weights", "FeatureExtractor/MobilenetV2/expanded_conv_3/depthwise/depthwise_bn_offset"], "name": "FeatureExtractor/MobilenetV2/expanded_conv_3/depthwise/depthwise"}, {"device": "/device:CPU:0", "attr": {"epsilon": {"f": 0.0}, "T": {"type": "DT_FLOAT"}, "fused_ops": {"list": {"s": ["Qmlhc0FkZA=="]}}, "explicit_paddings": {"list": {}}, "use_cudnn_on_gpu": {"b": true}, "data_format": {"s": "TkhXQw=="}, "strides": {"list": {"i": ["1", "1", "1", "1"]}}, "num_args": {"i": "1"}, "dilations": {"list": {"i": ["1", "1", "1", "1"]}}, "padding": {"s": "U0FNRQ=="}}, "op": "_FusedConv2D", "input": ["FeatureExtractor/MobilenetV2/expanded_conv_3/depthwise/depthwise", "FeatureExtractor/MobilenetV2/expanded_conv_3/project/Conv2D_weights", "FeatureExtractor/MobilenetV2/expanded_conv_3/project/Conv2D_bn_offset"], "name": "FeatureExtractor/MobilenetV2/expanded_conv_3/project/BatchNorm/FusedBatchNormV3"}, {"device": "/device:CPU:0", "attr": {"epsilon": {"f": 0.0}, "T": {"type": "DT_FLOAT"}, "fused_ops": {"list": {"s": ["Qmlhc0FkZA==", "UmVsdTY="]}}, "explicit_paddings": {"list": {}}, "use_cudnn_on_gpu": {"b": true}, "data_format": {"s": "TkhXQw=="}, "strides": {"list": {"i": ["1", "1", "1", "1"]}}, "num_args": {"i": "1"}, "dilations": {"list": {"i": ["1", "1", "1", "1"]}}, "padding": {"s": "U0FNRQ=="}}, "op": "_FusedConv2D", "input": ["FeatureExtractor/MobilenetV2/expanded_conv_3/project/BatchNorm/FusedBatchNormV3", "FeatureExtractor/MobilenetV2/expanded_conv_4/expand/Conv2D_weights", "FeatureExtractor/MobilenetV2/expanded_conv_4/expand/Conv2D_bn_offset"], "name": "FeatureExtractor/MobilenetV2/expanded_conv_4/expand/Relu6"}, {"attr": {"data_format": {"s": "TkhXQw=="}, "T": {"type": "DT_FLOAT"}, "fused_ops": {"list": {"s": ["Qmlhc0FkZA==", "UmVsdTY="]}}, "strides": {"list": {"i": ["1", "1", "1", "1"]}}, "num_args": {"i": "1"}, "dilations": {"list": {"i": ["1", "1", "1", "1"]}}, "padding": {"s": "U0FNRQ=="}}, "op": "FusedDepthwiseConv2dNative", "input": ["FeatureExtractor/MobilenetV2/expanded_conv_4/expand/Relu6", "FeatureExtractor/MobilenetV2/expanded_conv_4/depthwise/depthwise_weights", "FeatureExtractor/MobilenetV2/expanded_conv_4/depthwise/depthwise_bn_offset"], "name": "FeatureExtractor/MobilenetV2/expanded_conv_4/depthwise/depthwise"}, {"device": "/device:CPU:0", "attr": {"data_format": {"s": "TkhXQw=="}, "T": {"type": "DT_FLOAT"}, "fused_ops": {"list": {"s": ["Qmlhc0FkZA=="]}}, "explicit_paddings": {"list": {}}, "use_cudnn_on_gpu": {"b": true}, "epsilon": {"f": 0.0}, "strides": {"list": {"i": ["1", "1", "1", "1"]}}, "num_args": {"i": "1"}, "dilations": {"list": {"i": ["1", "1", "1", "1"]}}, "padding": {"s": "U0FNRQ=="}}, "op": "_FusedConv2D", "input": ["FeatureExtractor/MobilenetV2/expanded_conv_4/depthwise/depthwise", "FeatureExtractor/MobilenetV2/expanded_conv_4/project/Conv2D_weights", "FeatureExtractor/MobilenetV2/expanded_conv_4/project/Conv2D_bn_offset"], "name": "FeatureExtractor/MobilenetV2/expanded_conv_4/project/BatchNorm/FusedBatchNormV3"}, {"attr": {"T": {"type": "DT_FLOAT"}}, "op": "AddV2", "input": ["FeatureExtractor/MobilenetV2/expanded_conv_3/project/BatchNorm/FusedBatchNormV3", "FeatureExtractor/MobilenetV2/expanded_conv_4/project/BatchNorm/FusedBatchNormV3"], "name": "FeatureExtractor/MobilenetV2/expanded_conv_4/add"}, {"device": "/device:CPU:0", "attr": {"data_format": {"s": "TkhXQw=="}, "T": {"type": "DT_FLOAT"}, "fused_ops": {"list": {"s": ["Qmlhc0FkZA==", "UmVsdTY="]}}, "explicit_paddings": {"list": {}}, "use_cudnn_on_gpu": {"b": true}, "epsilon": {"f": 0.0}, "strides": {"list": {"i": ["1", "1", "1", "1"]}}, "num_args": {"i": "1"}, "dilations": {"list": {"i": ["1", "1", "1", "1"]}}, "padding": {"s": "U0FNRQ=="}}, "op": "_FusedConv2D", "input": ["FeatureExtractor/MobilenetV2/expanded_conv_4/add", "FeatureExtractor/MobilenetV2/expanded_conv_5/expand/Conv2D_weights", "FeatureExtractor/MobilenetV2/expanded_conv_5/expand/Conv2D_bn_offset"], "name": "FeatureExtractor/MobilenetV2/expanded_conv_5/expand/Relu6"}, {"attr": {"data_format": {"s": "TkhXQw=="}, "T": {"type": "DT_FLOAT"}, "fused_ops": {"list": {"s": ["Qmlhc0FkZA==", "UmVsdTY="]}}, "strides": {"list": {"i": ["1", "1", "1", "1"]}}, "num_args": {"i": "1"}, "dilations": {"list": {"i": ["1", "1", "1", "1"]}}, "padding": {"s": "U0FNRQ=="}}, "op": "FusedDepthwiseConv2dNative", "input": ["FeatureExtractor/MobilenetV2/expanded_conv_5/expand/Relu6", "FeatureExtractor/MobilenetV2/expanded_conv_5/depthwise/depthwise_weights", "FeatureExtractor/MobilenetV2/expanded_conv_5/depthwise/depthwise_bn_offset"], "name": "FeatureExtractor/MobilenetV2/expanded_conv_5/depthwise/depthwise"}, {"device": "/device:CPU:0", "attr": {"data_format": {"s": "TkhXQw=="}, "T": {"type": "DT_FLOAT"}, "fused_ops": {"list": {"s": ["Qmlhc0FkZA=="]}}, "explicit_paddings": {"list": {}}, "use_cudnn_on_gpu": {"b": true}, "epsilon": {"f": 0.0}, "strides": {"list": {"i": ["1", "1", "1", "1"]}}, "num_args": {"i": "1"}, "dilations": {"list": {"i": ["1", "1", "1", "1"]}}, "padding": {"s": "U0FNRQ=="}}, "op": "_FusedConv2D", "input": ["FeatureExtractor/MobilenetV2/expanded_conv_5/depthwise/depthwise", "FeatureExtractor/MobilenetV2/expanded_conv_5/project/Conv2D_weights", "FeatureExtractor/MobilenetV2/expanded_conv_5/project/Conv2D_bn_offset"], "name": "FeatureExtractor/MobilenetV2/expanded_conv_5/project/BatchNorm/FusedBatchNormV3"}, {"attr": {"T": {"type": "DT_FLOAT"}}, "op": "AddV2", "input": ["FeatureExtractor/MobilenetV2/expanded_conv_4/add", "FeatureExtractor/MobilenetV2/expanded_conv_5/project/BatchNorm/FusedBatchNormV3"], "name": "FeatureExtractor/MobilenetV2/expanded_conv_5/add"}, {"device": "/device:CPU:0", "attr": {"epsilon": {"f": 0.0}, "T": {"type": "DT_FLOAT"}, "fused_ops": {"list": {"s": ["Qmlhc0FkZA==", "UmVsdTY="]}}, "explicit_paddings": {"list": {}}, "use_cudnn_on_gpu": {"b": true}, "data_format": {"s": "TkhXQw=="}, "strides": {"list": {"i": ["1", "1", "1", "1"]}}, "num_args": {"i": "1"}, "dilations": {"list": {"i": ["1", "1", "1", "1"]}}, "padding": {"s": "U0FNRQ=="}}, "op": "_FusedConv2D", "input": ["FeatureExtractor/MobilenetV2/expanded_conv_5/add", "FeatureExtractor/MobilenetV2/expanded_conv_6/expand/Conv2D_weights", "FeatureExtractor/MobilenetV2/expanded_conv_6/expand/Conv2D_bn_offset"], "name": "FeatureExtractor/MobilenetV2/expanded_conv_6/expand/Relu6"}, {"attr": {"data_format": {"s": "TkhXQw=="}, "T": {"type": "DT_FLOAT"}, "fused_ops": {"list": {"s": ["Qmlhc0FkZA==", "UmVsdTY="]}}, "strides": {"list": {"i": ["1", "2", "2", "1"]}}, "num_args": {"i": "1"}, "dilations": {"list": {"i": ["1", "1", "1", "1"]}}, "padding": {"s": "U0FNRQ=="}}, "op": "FusedDepthwiseConv2dNative", "input": ["FeatureExtractor/MobilenetV2/expanded_conv_6/expand/Relu6", "FeatureExtractor/MobilenetV2/expanded_conv_6/depthwise/depthwise_weights", "FeatureExtractor/MobilenetV2/expanded_conv_6/depthwise/depthwise_bn_offset"], "name": "FeatureExtractor/MobilenetV2/expanded_conv_6/depthwise/depthwise"}, {"device": "/device:CPU:0", "attr": {"epsilon": {"f": 0.0}, "T": {"type": "DT_FLOAT"}, "fused_ops": {"list": {"s": ["Qmlhc0FkZA=="]}}, "explicit_paddings": {"list": {}}, "use_cudnn_on_gpu": {"b": true}, "data_format": {"s": "TkhXQw=="}, "strides": {"list": {"i": ["1", "1", "1", "1"]}}, "num_args": {"i": "1"}, "dilations": {"list": {"i": ["1", "1", "1", "1"]}}, "padding": {"s": "U0FNRQ=="}}, "op": "_FusedConv2D", "input": ["FeatureExtractor/MobilenetV2/expanded_conv_6/depthwise/depthwise", "FeatureExtractor/MobilenetV2/expanded_conv_6/project/Conv2D_weights", "FeatureExtractor/MobilenetV2/expanded_conv_6/project/Conv2D_bn_offset"], "name": "FeatureExtractor/MobilenetV2/expanded_conv_6/project/BatchNorm/FusedBatchNormV3"}, {"device": "/device:CPU:0", "attr": {"data_format": {"s": "TkhXQw=="}, "T": {"type": "DT_FLOAT"}, "fused_ops": {"list": {"s": ["Qmlhc0FkZA==", "UmVsdTY="]}}, "explicit_paddings": {"list": {}}, "use_cudnn_on_gpu": {"b": true}, "epsilon": {"f": 0.0}, "strides": {"list": {"i": ["1", "1", "1", "1"]}}, "num_args": {"i": "1"}, "dilations": {"list": {"i": ["1", "1", "1", "1"]}}, "padding": {"s": "U0FNRQ=="}}, "op": "_FusedConv2D", "input": ["FeatureExtractor/MobilenetV2/expanded_conv_6/project/BatchNorm/FusedBatchNormV3", "FeatureExtractor/MobilenetV2/expanded_conv_7/expand/Conv2D_weights", "FeatureExtractor/MobilenetV2/expanded_conv_7/expand/Conv2D_bn_offset"], "name": "FeatureExtractor/MobilenetV2/expanded_conv_7/expand/Relu6"}, {"attr": {"data_format": {"s": "TkhXQw=="}, "T": {"type": "DT_FLOAT"}, "fused_ops": {"list": {"s": ["Qmlhc0FkZA==", "UmVsdTY="]}}, "strides": {"list": {"i": ["1", "1", "1", "1"]}}, "num_args": {"i": "1"}, "dilations": {"list": {"i": ["1", "1", "1", "1"]}}, "padding": {"s": "U0FNRQ=="}}, "op": "FusedDepthwiseConv2dNative", "input": ["FeatureExtractor/MobilenetV2/expanded_conv_7/expand/Relu6", "FeatureExtractor/MobilenetV2/expanded_conv_7/depthwise/depthwise_weights", "FeatureExtractor/MobilenetV2/expanded_conv_7/depthwise/depthwise_bn_offset"], "name": "FeatureExtractor/MobilenetV2/expanded_conv_7/depthwise/depthwise"}, {"device": "/device:CPU:0", "attr": {"data_format": {"s": "TkhXQw=="}, "T": {"type": "DT_FLOAT"}, "fused_ops": {"list": {"s": ["Qmlhc0FkZA=="]}}, "explicit_paddings": {"list": {}}, "use_cudnn_on_gpu": {"b": true}, "epsilon": {"f": 0.0}, "strides": {"list": {"i": ["1", "1", "1", "1"]}}, "num_args": {"i": "1"}, "dilations": {"list": {"i": ["1", "1", "1", "1"]}}, "padding": {"s": "U0FNRQ=="}}, "op": "_FusedConv2D", "input": ["FeatureExtractor/MobilenetV2/expanded_conv_7/depthwise/depthwise", "FeatureExtractor/MobilenetV2/expanded_conv_7/project/Conv2D_weights", "FeatureExtractor/MobilenetV2/expanded_conv_7/project/Conv2D_bn_offset"], "name": "FeatureExtractor/MobilenetV2/expanded_conv_7/project/BatchNorm/FusedBatchNormV3"}, {"attr": {"T": {"type": "DT_FLOAT"}}, "op": "AddV2", "input": ["FeatureExtractor/MobilenetV2/expanded_conv_6/project/BatchNorm/FusedBatchNormV3", "FeatureExtractor/MobilenetV2/expanded_conv_7/project/BatchNorm/FusedBatchNormV3"], "name": "FeatureExtractor/MobilenetV2/expanded_conv_7/add"}, {"device": "/device:CPU:0", "attr": {"epsilon": {"f": 0.0}, "T": {"type": "DT_FLOAT"}, "fused_ops": {"list": {"s": ["Qmlhc0FkZA==", "UmVsdTY="]}}, "explicit_paddings": {"list": {}}, "use_cudnn_on_gpu": {"b": true}, "data_format": {"s": "TkhXQw=="}, "strides": {"list": {"i": ["1", "1", "1", "1"]}}, "num_args": {"i": "1"}, "dilations": {"list": {"i": ["1", "1", "1", "1"]}}, "padding": {"s": "U0FNRQ=="}}, "op": "_FusedConv2D", "input": ["FeatureExtractor/MobilenetV2/expanded_conv_7/add", "FeatureExtractor/MobilenetV2/expanded_conv_8/expand/Conv2D_weights", "FeatureExtractor/MobilenetV2/expanded_conv_8/expand/Conv2D_bn_offset"], "name": "FeatureExtractor/MobilenetV2/expanded_conv_8/expand/Relu6"}, {"attr": {"data_format": {"s": "TkhXQw=="}, "T": {"type": "DT_FLOAT"}, "fused_ops": {"list": {"s": ["Qmlhc0FkZA==", "UmVsdTY="]}}, "strides": {"list": {"i": ["1", "1", "1", "1"]}}, "num_args": {"i": "1"}, "dilations": {"list": {"i": ["1", "1", "1", "1"]}}, "padding": {"s": "U0FNRQ=="}}, "op": "FusedDepthwiseConv2dNative", "input": ["FeatureExtractor/MobilenetV2/expanded_conv_8/expand/Relu6", "FeatureExtractor/MobilenetV2/expanded_conv_8/depthwise/depthwise_weights", "FeatureExtractor/MobilenetV2/expanded_conv_8/depthwise/depthwise_bn_offset"], "name": "FeatureExtractor/MobilenetV2/expanded_conv_8/depthwise/depthwise"}, {"device": "/device:CPU:0", "attr": {"epsilon": {"f": 0.0}, "T": {"type": "DT_FLOAT"}, "fused_ops": {"list": {"s": ["Qmlhc0FkZA=="]}}, "explicit_paddings": {"list": {}}, "use_cudnn_on_gpu": {"b": true}, "data_format": {"s": "TkhXQw=="}, "strides": {"list": {"i": ["1", "1", "1", "1"]}}, "num_args": {"i": "1"}, "dilations": {"list": {"i": ["1", "1", "1", "1"]}}, "padding": {"s": "U0FNRQ=="}}, "op": "_FusedConv2D", "input": ["FeatureExtractor/MobilenetV2/expanded_conv_8/depthwise/depthwise", "FeatureExtractor/MobilenetV2/expanded_conv_8/project/Conv2D_weights", "FeatureExtractor/MobilenetV2/expanded_conv_8/project/Conv2D_bn_offset"], "name": "FeatureExtractor/MobilenetV2/expanded_conv_8/project/BatchNorm/FusedBatchNormV3"}, {"attr": {"T": {"type": "DT_FLOAT"}}, "op": "AddV2", "input": ["FeatureExtractor/MobilenetV2/expanded_conv_7/add", "FeatureExtractor/MobilenetV2/expanded_conv_8/project/BatchNorm/FusedBatchNormV3"], "name": "FeatureExtractor/MobilenetV2/expanded_conv_8/add"}, {"device": "/device:CPU:0", "attr": {"data_format": {"s": "TkhXQw=="}, "T": {"type": "DT_FLOAT"}, "fused_ops": {"list": {"s": ["Qmlhc0FkZA==", "UmVsdTY="]}}, "explicit_paddings": {"list": {}}, "use_cudnn_on_gpu": {"b": true}, "epsilon": {"f": 0.0}, "strides": {"list": {"i": ["1", "1", "1", "1"]}}, "num_args": {"i": "1"}, "dilations": {"list": {"i": ["1", "1", "1", "1"]}}, "padding": {"s": "U0FNRQ=="}}, "op": "_FusedConv2D", "input": ["FeatureExtractor/MobilenetV2/expanded_conv_8/add", "FeatureExtractor/MobilenetV2/expanded_conv_9/expand/Conv2D_weights", "FeatureExtractor/MobilenetV2/expanded_conv_9/expand/Conv2D_bn_offset"], "name": "FeatureExtractor/MobilenetV2/expanded_conv_9/expand/Relu6"}, {"attr": {"data_format": {"s": "TkhXQw=="}, "T": {"type": "DT_FLOAT"}, "fused_ops": {"list": {"s": ["Qmlhc0FkZA==", "UmVsdTY="]}}, "strides": {"list": {"i": ["1", "1", "1", "1"]}}, "num_args": {"i": "1"}, "dilations": {"list": {"i": ["1", "1", "1", "1"]}}, "padding": {"s": "U0FNRQ=="}}, "op": "FusedDepthwiseConv2dNative", "input": ["FeatureExtractor/MobilenetV2/expanded_conv_9/expand/Relu6", "FeatureExtractor/MobilenetV2/expanded_conv_9/depthwise/depthwise_weights", "FeatureExtractor/MobilenetV2/expanded_conv_9/depthwise/depthwise_bn_offset"], "name": "FeatureExtractor/MobilenetV2/expanded_conv_9/depthwise/depthwise"}, {"device": "/device:CPU:0", "attr": {"data_format": {"s": "TkhXQw=="}, "T": {"type": "DT_FLOAT"}, "fused_ops": {"list": {"s": ["Qmlhc0FkZA=="]}}, "explicit_paddings": {"list": {}}, "use_cudnn_on_gpu": {"b": true}, "epsilon": {"f": 0.0}, "strides": {"list": {"i": ["1", "1", "1", "1"]}}, "num_args": {"i": "1"}, "dilations": {"list": {"i": ["1", "1", "1", "1"]}}, "padding": {"s": "U0FNRQ=="}}, "op": "_FusedConv2D", "input": ["FeatureExtractor/MobilenetV2/expanded_conv_9/depthwise/depthwise", "FeatureExtractor/MobilenetV2/expanded_conv_9/project/Conv2D_weights", "FeatureExtractor/MobilenetV2/expanded_conv_9/project/Conv2D_bn_offset"], "name": "FeatureExtractor/MobilenetV2/expanded_conv_9/project/BatchNorm/FusedBatchNormV3"}, {"attr": {"T": {"type": "DT_FLOAT"}}, "op": "AddV2", "input": ["FeatureExtractor/MobilenetV2/expanded_conv_8/add", "FeatureExtractor/MobilenetV2/expanded_conv_9/project/BatchNorm/FusedBatchNormV3"], "name": "FeatureExtractor/MobilenetV2/expanded_conv_9/add"}, {"device": "/device:CPU:0", "attr": {"data_format": {"s": "TkhXQw=="}, "T": {"type": "DT_FLOAT"}, "fused_ops": {"list": {"s": ["Qmlhc0FkZA==", "UmVsdTY="]}}, "explicit_paddings": {"list": {}}, "use_cudnn_on_gpu": {"b": true}, "epsilon": {"f": 0.0}, "strides": {"list": {"i": ["1", "1", "1", "1"]}}, "num_args": {"i": "1"}, "dilations": {"list": {"i": ["1", "1", "1", "1"]}}, "padding": {"s": "U0FNRQ=="}}, "op": "_FusedConv2D", "input": ["FeatureExtractor/MobilenetV2/expanded_conv_9/add", "FeatureExtractor/MobilenetV2/expanded_conv_10/expand/Conv2D_weights", "FeatureExtractor/MobilenetV2/expanded_conv_10/expand/Conv2D_bn_offset"], "name": "FeatureExtractor/MobilenetV2/expanded_conv_10/expand/Relu6"}, {"attr": {"data_format": {"s": "TkhXQw=="}, "T": {"type": "DT_FLOAT"}, "fused_ops": {"list": {"s": ["Qmlhc0FkZA==", "UmVsdTY="]}}, "strides": {"list": {"i": ["1", "1", "1", "1"]}}, "num_args": {"i": "1"}, "dilations": {"list": {"i": ["1", "1", "1", "1"]}}, "padding": {"s": "U0FNRQ=="}}, "op": "FusedDepthwiseConv2dNative", "input": ["FeatureExtractor/MobilenetV2/expanded_conv_10/expand/Relu6", "FeatureExtractor/MobilenetV2/expanded_conv_10/depthwise/depthwise_weights", "FeatureExtractor/MobilenetV2/expanded_conv_10/depthwise/depthwise_bn_offset"], "name": "FeatureExtractor/MobilenetV2/expanded_conv_10/depthwise/depthwise"}, {"device": "/device:CPU:0", "attr": {"epsilon": {"f": 0.0}, "T": {"type": "DT_FLOAT"}, "fused_ops": {"list": {"s": ["Qmlhc0FkZA=="]}}, "explicit_paddings": {"list": {}}, "use_cudnn_on_gpu": {"b": true}, "data_format": {"s": "TkhXQw=="}, "strides": {"list": {"i": ["1", "1", "1", "1"]}}, "num_args": {"i": "1"}, "dilations": {"list": {"i": ["1", "1", "1", "1"]}}, "padding": {"s": "U0FNRQ=="}}, "op": "_FusedConv2D", "input": ["FeatureExtractor/MobilenetV2/expanded_conv_10/depthwise/depthwise", "FeatureExtractor/MobilenetV2/expanded_conv_10/project/Conv2D_weights", "FeatureExtractor/MobilenetV2/expanded_conv_10/project/Conv2D_bn_offset"], "name": "FeatureExtractor/MobilenetV2/expanded_conv_10/project/BatchNorm/FusedBatchNormV3"}, {"device": "/device:CPU:0", "attr": {"epsilon": {"f": 0.0}, "T": {"type": "DT_FLOAT"}, "fused_ops": {"list": {"s": ["Qmlhc0FkZA==", "UmVsdTY="]}}, "explicit_paddings": {"list": {}}, "use_cudnn_on_gpu": {"b": true}, "data_format": {"s": "TkhXQw=="}, "strides": {"list": {"i": ["1", "1", "1", "1"]}}, "num_args": {"i": "1"}, "dilations": {"list": {"i": ["1", "1", "1", "1"]}}, "padding": {"s": "U0FNRQ=="}}, "op": "_FusedConv2D", "input": ["FeatureExtractor/MobilenetV2/expanded_conv_10/project/BatchNorm/FusedBatchNormV3", "FeatureExtractor/MobilenetV2/expanded_conv_11/expand/Conv2D_weights", "FeatureExtractor/MobilenetV2/expanded_conv_11/expand/Conv2D_bn_offset"], "name": "FeatureExtractor/MobilenetV2/expanded_conv_11/expand/Relu6"}, {"attr": {"data_format": {"s": "TkhXQw=="}, "T": {"type": "DT_FLOAT"}, "fused_ops": {"list": {"s": ["Qmlhc0FkZA==", "UmVsdTY="]}}, "strides": {"list": {"i": ["1", "1", "1", "1"]}}, "num_args": {"i": "1"}, "dilations": {"list": {"i": ["1", "1", "1", "1"]}}, "padding": {"s": "U0FNRQ=="}}, "op": "FusedDepthwiseConv2dNative", "input": ["FeatureExtractor/MobilenetV2/expanded_conv_11/expand/Relu6", "FeatureExtractor/MobilenetV2/expanded_conv_11/depthwise/depthwise_weights", "FeatureExtractor/MobilenetV2/expanded_conv_11/depthwise/depthwise_bn_offset"], "name": "FeatureExtractor/MobilenetV2/expanded_conv_11/depthwise/depthwise"}, {"device": "/device:CPU:0", "attr": {"data_format": {"s": "TkhXQw=="}, "T": {"type": "DT_FLOAT"}, "fused_ops": {"list": {"s": ["Qmlhc0FkZA=="]}}, "explicit_paddings": {"list": {}}, "use_cudnn_on_gpu": {"b": true}, "epsilon": {"f": 0.0}, "strides": {"list": {"i": ["1", "1", "1", "1"]}}, "num_args": {"i": "1"}, "dilations": {"list": {"i": ["1", "1", "1", "1"]}}, "padding": {"s": "U0FNRQ=="}}, "op": "_FusedConv2D", "input": ["FeatureExtractor/MobilenetV2/expanded_conv_11/depthwise/depthwise", "FeatureExtractor/MobilenetV2/expanded_conv_11/project/Conv2D_weights", "FeatureExtractor/MobilenetV2/expanded_conv_11/project/Conv2D_bn_offset"], "name": "FeatureExtractor/MobilenetV2/expanded_conv_11/project/BatchNorm/FusedBatchNormV3"}, {"attr": {"T": {"type": "DT_FLOAT"}}, "op": "AddV2", "input": ["FeatureExtractor/MobilenetV2/expanded_conv_10/project/BatchNorm/FusedBatchNormV3", "FeatureExtractor/MobilenetV2/expanded_conv_11/project/BatchNorm/FusedBatchNormV3"], "name": "FeatureExtractor/MobilenetV2/expanded_conv_11/add"}, {"device": "/device:CPU:0", "attr": {"data_format": {"s": "TkhXQw=="}, "T": {"type": "DT_FLOAT"}, "fused_ops": {"list": {"s": ["Qmlhc0FkZA==", "UmVsdTY="]}}, "explicit_paddings": {"list": {}}, "use_cudnn_on_gpu": {"b": true}, "epsilon": {"f": 0.0}, "strides": {"list": {"i": ["1", "1", "1", "1"]}}, "num_args": {"i": "1"}, "dilations": {"list": {"i": ["1", "1", "1", "1"]}}, "padding": {"s": "U0FNRQ=="}}, "op": "_FusedConv2D", "input": ["FeatureExtractor/MobilenetV2/expanded_conv_11/add", "FeatureExtractor/MobilenetV2/expanded_conv_12/expand/Conv2D_weights", "FeatureExtractor/MobilenetV2/expanded_conv_12/expand/Conv2D_bn_offset"], "name": "FeatureExtractor/MobilenetV2/expanded_conv_12/expand/Relu6"}, {"attr": {"data_format": {"s": "TkhXQw=="}, "T": {"type": "DT_FLOAT"}, "fused_ops": {"list": {"s": ["Qmlhc0FkZA==", "UmVsdTY="]}}, "strides": {"list": {"i": ["1", "1", "1", "1"]}}, "num_args": {"i": "1"}, "dilations": {"list": {"i": ["1", "1", "1", "1"]}}, "padding": {"s": "U0FNRQ=="}}, "op": "FusedDepthwiseConv2dNative", "input": ["FeatureExtractor/MobilenetV2/expanded_conv_12/expand/Relu6", "FeatureExtractor/MobilenetV2/expanded_conv_12/depthwise/depthwise_weights", "FeatureExtractor/MobilenetV2/expanded_conv_12/depthwise/depthwise_bn_offset"], "name": "FeatureExtractor/MobilenetV2/expanded_conv_12/depthwise/depthwise"}, {"device": "/device:CPU:0", "attr": {"data_format": {"s": "TkhXQw=="}, "T": {"type": "DT_FLOAT"}, "fused_ops": {"list": {"s": ["Qmlhc0FkZA=="]}}, "explicit_paddings": {"list": {}}, "use_cudnn_on_gpu": {"b": true}, "epsilon": {"f": 0.0}, "strides": {"list": {"i": ["1", "1", "1", "1"]}}, "num_args": {"i": "1"}, "dilations": {"list": {"i": ["1", "1", "1", "1"]}}, "padding": {"s": "U0FNRQ=="}}, "op": "_FusedConv2D", "input": ["FeatureExtractor/MobilenetV2/expanded_conv_12/depthwise/depthwise", "FeatureExtractor/MobilenetV2/expanded_conv_12/project/Conv2D_weights", "FeatureExtractor/MobilenetV2/expanded_conv_12/project/Conv2D_bn_offset"], "name": "FeatureExtractor/MobilenetV2/expanded_conv_12/project/BatchNorm/FusedBatchNormV3"}, {"attr": {"T": {"type": "DT_FLOAT"}}, "op": "AddV2", "input": ["FeatureExtractor/MobilenetV2/expanded_conv_11/add", "FeatureExtractor/MobilenetV2/expanded_conv_12/project/BatchNorm/FusedBatchNormV3"], "name": "FeatureExtractor/MobilenetV2/expanded_conv_12/add"}, {"device": "/device:CPU:0", "attr": {"epsilon": {"f": 0.0}, "T": {"type": "DT_FLOAT"}, "fused_ops": {"list": {"s": ["Qmlhc0FkZA==", "UmVsdTY="]}}, "explicit_paddings": {"list": {}}, "use_cudnn_on_gpu": {"b": true}, "data_format": {"s": "TkhXQw=="}, "strides": {"list": {"i": ["1", "1", "1", "1"]}}, "num_args": {"i": "1"}, "dilations": {"list": {"i": ["1", "1", "1", "1"]}}, "padding": {"s": "U0FNRQ=="}}, "op": "_FusedConv2D", "input": ["FeatureExtractor/MobilenetV2/expanded_conv_12/add", "FeatureExtractor/MobilenetV2/expanded_conv_13/expand/Conv2D_weights", "FeatureExtractor/MobilenetV2/expanded_conv_13/expand/Conv2D_bn_offset"], "name": "FeatureExtractor/MobilenetV2/expanded_conv_13/expand/Relu6"}, {"device": "/device:CPU:0", "attr": {"data_format": {"s": "TkhXQw=="}, "T": {"type": "DT_FLOAT"}, "fused_ops": {"list": {"s": ["Qmlhc0FkZA=="]}}, "explicit_paddings": {"list": {}}, "use_cudnn_on_gpu": {"b": true}, "epsilon": {"f": 0.0}, "strides": {"list": {"i": ["1", "1", "1", "1"]}}, "num_args": {"i": "1"}, "dilations": {"list": {"i": ["1", "1", "1", "1"]}}, "padding": {"s": "U0FNRQ=="}}, "op": "_FusedConv2D", "input": ["FeatureExtractor/MobilenetV2/expanded_conv_13/expand/Relu6", "BoxPredictor_0/ClassPredictor/weights", "BoxPredictor_0/ClassPredictor/biases"], "name": "BoxPredictor_0/ClassPredictor/BiasAdd"}, {"device": "/device:CPU:0", "attr": {"data_format": {"s": "TkhXQw=="}, "T": {"type": "DT_FLOAT"}, "fused_ops": {"list": {"s": ["Qmlhc0FkZA=="]}}, "explicit_paddings": {"list": {}}, "use_cudnn_on_gpu": {"b": true}, "epsilon": {"f": 0.0}, "strides": {"list": {"i": ["1", "1", "1", "1"]}}, "num_args": {"i": "1"}, "dilations": {"list": {"i": ["1", "1", "1", "1"]}}, "padding": {"s": "U0FNRQ=="}}, "op": "_FusedConv2D", "input": ["FeatureExtractor/MobilenetV2/expanded_conv_13/expand/Relu6", "BoxPredictor_0/BoxEncodingPredictor/weights", "BoxPredictor_0/BoxEncodingPredictor/biases"], "name": "BoxPredictor_0/BoxEncodingPredictor/BiasAdd"}, {"attr": {"T": {"type": "DT_FLOAT"}, "out_type": {"type": "DT_INT32"}}, "op": "Shape", "input": ["FeatureExtractor/MobilenetV2/expanded_conv_13/expand/Relu6"], "name": "BoxPredictor_0/Shape_1"}, {"attr": {"data_format": {"s": "TkhXQw=="}, "T": {"type": "DT_FLOAT"}, "fused_ops": {"list": {"s": ["Qmlhc0FkZA==", "UmVsdTY="]}}, "strides": {"list": {"i": ["1", "2", "2", "1"]}}, "num_args": {"i": "1"}, "dilations": {"list": {"i": ["1", "1", "1", "1"]}}, "padding": {"s": "U0FNRQ=="}}, "op": "FusedDepthwiseConv2dNative", "input": ["FeatureExtractor/MobilenetV2/expanded_conv_13/expand/Relu6", "FeatureExtractor/MobilenetV2/expanded_conv_13/depthwise/depthwise_weights", "FeatureExtractor/MobilenetV2/expanded_conv_13/depthwise/depthwise_bn_offset"], "name": "FeatureExtractor/MobilenetV2/expanded_conv_13/depthwise/depthwise"}, {"attr": {"ellipsis_mask": {"i": "0"}, "T": {"type": "DT_INT32"}, "new_axis_mask": {"i": "0"}, "Index": {"type": "DT_INT32"}, "shrink_axis_mask": {"i": "1"}, "begin_mask": {"i": "0"}, "end_mask": {"i": "0"}}, "op": "StridedSlice", "input": ["BoxPredictor_0/Shape_1", "Postprocessor/BatchMultiClassNonMaxSuppression/map/TensorArrayUnstack_1/strided_slice/stack", "Postprocessor/BatchMultiClassNonMaxSuppression/map/TensorArrayUnstack_1/strided_slice/stack_1", "Postprocessor/BatchMultiClassNonMaxSuppression/map/TensorArrayUnstack_1/strided_slice/stack_1"], "name": "BoxPredictor_0/strided_slice_1"}, {"attr": {"N": {"i": "3"}, "T": {"type": "DT_INT32"}, "axis": {"i": "0"}}, "op": "Pack", "input": ["BoxPredictor_0/strided_slice_1", "BoxPredictor_0/Reshape_1/shape/1", "BoxPredictor_0/Reshape_1/shape/2"], "name": "BoxPredictor_0/Reshape_1/shape"}, {"attr": {"N": {"i": "4"}, "T": {"type": "DT_INT32"}, "axis": {"i": "0"}}, "op": "Pack", "input": ["BoxPredictor_0/strided_slice_1", "BoxPredictor_0/Reshape_1/shape/1", "Postprocessor/BatchMultiClassNonMaxSuppression/map/TensorArrayStack/range/delta", "BoxPredictor_0/Reshape_1/shape/2"], "name": "BoxPredictor_0/Reshape/shape"}, {"attr": {"T": {"type": "DT_FLOAT"}, "Tshape": {"type": "DT_INT32"}}, "op": "Reshape", "input": ["BoxPredictor_0/ClassPredictor/BiasAdd", "BoxPredictor_0/Reshape_1/shape"], "name": "BoxPredictor_0/Reshape_1"}, {"attr": {"T": {"type": "DT_FLOAT"}, "Tshape": {"type": "DT_INT32"}}, "op": "Reshape", "input": ["BoxPredictor_0/BoxEncodingPredictor/BiasAdd", "BoxPredictor_0/Reshape/shape"], "name": "BoxPredictor_0/Reshape"}, {"device": "/device:CPU:0", "attr": {"data_format": {"s": "TkhXQw=="}, "T": {"type": "DT_FLOAT"}, "fused_ops": {"list": {"s": ["Qmlhc0FkZA=="]}}, "explicit_paddings": {"list": {}}, "use_cudnn_on_gpu": {"b": true}, "epsilon": {"f": 0.0}, "strides": {"list": {"i": ["1", "1", "1", "1"]}}, "num_args": {"i": "1"}, "dilations": {"list": {"i": ["1", "1", "1", "1"]}}, "padding": {"s": "U0FNRQ=="}}, "op": "_FusedConv2D", "input": ["FeatureExtractor/MobilenetV2/expanded_conv_13/depthwise/depthwise", "FeatureExtractor/MobilenetV2/expanded_conv_13/project/Conv2D_weights", "FeatureExtractor/MobilenetV2/expanded_conv_13/project/Conv2D_bn_offset"], "name": "FeatureExtractor/MobilenetV2/expanded_conv_13/project/BatchNorm/FusedBatchNormV3"}, {"device": "/device:CPU:0", "attr": {"data_format": {"s": "TkhXQw=="}, "T": {"type": "DT_FLOAT"}, "fused_ops": {"list": {"s": ["Qmlhc0FkZA==", "UmVsdTY="]}}, "explicit_paddings": {"list": {}}, "use_cudnn_on_gpu": {"b": true}, "epsilon": {"f": 0.0}, "strides": {"list": {"i": ["1", "1", "1", "1"]}}, "num_args": {"i": "1"}, "dilations": {"list": {"i": ["1", "1", "1", "1"]}}, "padding": {"s": "U0FNRQ=="}}, "op": "_FusedConv2D", "input": ["FeatureExtractor/MobilenetV2/expanded_conv_13/project/BatchNorm/FusedBatchNormV3", "FeatureExtractor/MobilenetV2/expanded_conv_14/expand/Conv2D_weights", "FeatureExtractor/MobilenetV2/expanded_conv_14/expand/Conv2D_bn_offset"], "name": "FeatureExtractor/MobilenetV2/expanded_conv_14/expand/Relu6"}, {"attr": {"data_format": {"s": "TkhXQw=="}, "T": {"type": "DT_FLOAT"}, "fused_ops": {"list": {"s": ["Qmlhc0FkZA==", "UmVsdTY="]}}, "strides": {"list": {"i": ["1", "1", "1", "1"]}}, "num_args": {"i": "1"}, "dilations": {"list": {"i": ["1", "1", "1", "1"]}}, "padding": {"s": "U0FNRQ=="}}, "op": "FusedDepthwiseConv2dNative", "input": ["FeatureExtractor/MobilenetV2/expanded_conv_14/expand/Relu6", "FeatureExtractor/MobilenetV2/expanded_conv_14/depthwise/depthwise_weights", "FeatureExtractor/MobilenetV2/expanded_conv_14/depthwise/depthwise_bn_offset"], "name": "FeatureExtractor/MobilenetV2/expanded_conv_14/depthwise/depthwise"}, {"device": "/device:CPU:0", "attr": {"data_format": {"s": "TkhXQw=="}, "T": {"type": "DT_FLOAT"}, "fused_ops": {"list": {"s": ["Qmlhc0FkZA=="]}}, "explicit_paddings": {"list": {}}, "use_cudnn_on_gpu": {"b": true}, "epsilon": {"f": 0.0}, "strides": {"list": {"i": ["1", "1", "1", "1"]}}, "num_args": {"i": "1"}, "dilations": {"list": {"i": ["1", "1", "1", "1"]}}, "padding": {"s": "U0FNRQ=="}}, "op": "_FusedConv2D", "input": ["FeatureExtractor/MobilenetV2/expanded_conv_14/depthwise/depthwise", "FeatureExtractor/MobilenetV2/expanded_conv_14/project/Conv2D_weights", "FeatureExtractor/MobilenetV2/expanded_conv_14/project/Conv2D_bn_offset"], "name": "FeatureExtractor/MobilenetV2/expanded_conv_14/project/BatchNorm/FusedBatchNormV3"}, {"attr": {"T": {"type": "DT_FLOAT"}}, "op": "AddV2", "input": ["FeatureExtractor/MobilenetV2/expanded_conv_13/project/BatchNorm/FusedBatchNormV3", "FeatureExtractor/MobilenetV2/expanded_conv_14/project/BatchNorm/FusedBatchNormV3"], "name": "FeatureExtractor/MobilenetV2/expanded_conv_14/add"}, {"device": "/device:CPU:0", "attr": {"data_format": {"s": "TkhXQw=="}, "T": {"type": "DT_FLOAT"}, "fused_ops": {"list": {"s": ["Qmlhc0FkZA==", "UmVsdTY="]}}, "explicit_paddings": {"list": {}}, "use_cudnn_on_gpu": {"b": true}, "epsilon": {"f": 0.0}, "strides": {"list": {"i": ["1", "1", "1", "1"]}}, "num_args": {"i": "1"}, "dilations": {"list": {"i": ["1", "1", "1", "1"]}}, "padding": {"s": "U0FNRQ=="}}, "op": "_FusedConv2D", "input": ["FeatureExtractor/MobilenetV2/expanded_conv_14/add", "FeatureExtractor/MobilenetV2/expanded_conv_15/expand/Conv2D_weights", "FeatureExtractor/MobilenetV2/expanded_conv_15/expand/Conv2D_bn_offset"], "name": "FeatureExtractor/MobilenetV2/expanded_conv_15/expand/Relu6"}, {"attr": {"data_format": {"s": "TkhXQw=="}, "T": {"type": "DT_FLOAT"}, "fused_ops": {"list": {"s": ["Qmlhc0FkZA==", "UmVsdTY="]}}, "strides": {"list": {"i": ["1", "1", "1", "1"]}}, "num_args": {"i": "1"}, "dilations": {"list": {"i": ["1", "1", "1", "1"]}}, "padding": {"s": "U0FNRQ=="}}, "op": "FusedDepthwiseConv2dNative", "input": ["FeatureExtractor/MobilenetV2/expanded_conv_15/expand/Relu6", "FeatureExtractor/MobilenetV2/expanded_conv_15/depthwise/depthwise_weights", "FeatureExtractor/MobilenetV2/expanded_conv_15/depthwise/depthwise_bn_offset"], "name": "FeatureExtractor/MobilenetV2/expanded_conv_15/depthwise/depthwise"}, {"device": "/device:CPU:0", "attr": {"data_format": {"s": "TkhXQw=="}, "T": {"type": "DT_FLOAT"}, "fused_ops": {"list": {"s": ["Qmlhc0FkZA=="]}}, "explicit_paddings": {"list": {}}, "use_cudnn_on_gpu": {"b": true}, "epsilon": {"f": 0.0}, "strides": {"list": {"i": ["1", "1", "1", "1"]}}, "num_args": {"i": "1"}, "dilations": {"list": {"i": ["1", "1", "1", "1"]}}, "padding": {"s": "U0FNRQ=="}}, "op": "_FusedConv2D", "input": ["FeatureExtractor/MobilenetV2/expanded_conv_15/depthwise/depthwise", "FeatureExtractor/MobilenetV2/expanded_conv_15/project/Conv2D_weights", "FeatureExtractor/MobilenetV2/expanded_conv_15/project/Conv2D_bn_offset"], "name": "FeatureExtractor/MobilenetV2/expanded_conv_15/project/BatchNorm/FusedBatchNormV3"}, {"attr": {"T": {"type": "DT_FLOAT"}}, "op": "AddV2", "input": ["FeatureExtractor/MobilenetV2/expanded_conv_14/add", "FeatureExtractor/MobilenetV2/expanded_conv_15/project/BatchNorm/FusedBatchNormV3"], "name": "FeatureExtractor/MobilenetV2/expanded_conv_15/add"}, {"device": "/device:CPU:0", "attr": {"data_format": {"s": "TkhXQw=="}, "T": {"type": "DT_FLOAT"}, "fused_ops": {"list": {"s": ["Qmlhc0FkZA==", "UmVsdTY="]}}, "explicit_paddings": {"list": {}}, "use_cudnn_on_gpu": {"b": true}, "epsilon": {"f": 0.0}, "strides": {"list": {"i": ["1", "1", "1", "1"]}}, "num_args": {"i": "1"}, "dilations": {"list": {"i": ["1", "1", "1", "1"]}}, "padding": {"s": "U0FNRQ=="}}, "op": "_FusedConv2D", "input": ["FeatureExtractor/MobilenetV2/expanded_conv_15/add", "FeatureExtractor/MobilenetV2/expanded_conv_16/expand/Conv2D_weights", "FeatureExtractor/MobilenetV2/expanded_conv_16/expand/Conv2D_bn_offset"], "name": "FeatureExtractor/MobilenetV2/expanded_conv_16/expand/Relu6"}, {"attr": {"data_format": {"s": "TkhXQw=="}, "T": {"type": "DT_FLOAT"}, "fused_ops": {"list": {"s": ["Qmlhc0FkZA==", "UmVsdTY="]}}, "strides": {"list": {"i": ["1", "1", "1", "1"]}}, "num_args": {"i": "1"}, "dilations": {"list": {"i": ["1", "1", "1", "1"]}}, "padding": {"s": "U0FNRQ=="}}, "op": "FusedDepthwiseConv2dNative", "input": ["FeatureExtractor/MobilenetV2/expanded_conv_16/expand/Relu6", "FeatureExtractor/MobilenetV2/expanded_conv_16/depthwise/depthwise_weights", "FeatureExtractor/MobilenetV2/expanded_conv_16/depthwise/depthwise_bn_offset"], "name": "FeatureExtractor/MobilenetV2/expanded_conv_16/depthwise/depthwise"}, {"device": "/device:CPU:0", "attr": {"epsilon": {"f": 0.0}, "T": {"type": "DT_FLOAT"}, "fused_ops": {"list": {"s": ["Qmlhc0FkZA=="]}}, "explicit_paddings": {"list": {}}, "use_cudnn_on_gpu": {"b": true}, "data_format": {"s": "TkhXQw=="}, "strides": {"list": {"i": ["1", "1", "1", "1"]}}, "num_args": {"i": "1"}, "dilations": {"list": {"i": ["1", "1", "1", "1"]}}, "padding": {"s": "U0FNRQ=="}}, "op": "_FusedConv2D", "input": ["FeatureExtractor/MobilenetV2/expanded_conv_16/depthwise/depthwise", "FeatureExtractor/MobilenetV2/expanded_conv_16/project/Conv2D_weights", "FeatureExtractor/MobilenetV2/expanded_conv_16/project/Conv2D_bn_offset"], "name": "FeatureExtractor/MobilenetV2/expanded_conv_16/project/BatchNorm/FusedBatchNormV3"}, {"device": "/device:CPU:0", "attr": {"data_format": {"s": "TkhXQw=="}, "T": {"type": "DT_FLOAT"}, "fused_ops": {"list": {"s": ["Qmlhc0FkZA==", "UmVsdTY="]}}, "explicit_paddings": {"list": {}}, "use_cudnn_on_gpu": {"b": true}, "epsilon": {"f": 0.0}, "strides": {"list": {"i": ["1", "1", "1", "1"]}}, "num_args": {"i": "1"}, "dilations": {"list": {"i": ["1", "1", "1", "1"]}}, "padding": {"s": "U0FNRQ=="}}, "op": "_FusedConv2D", "input": ["FeatureExtractor/MobilenetV2/expanded_conv_16/project/BatchNorm/FusedBatchNormV3", "FeatureExtractor/MobilenetV2/Conv_1/Conv2D_weights", "FeatureExtractor/MobilenetV2/Conv_1/Conv2D_bn_offset"], "name": "FeatureExtractor/MobilenetV2/Conv_1/Relu6"}, {"device": "/device:CPU:0", "attr": {"data_format": {"s": "TkhXQw=="}, "T": {"type": "DT_FLOAT"}, "fused_ops": {"list": {"s": ["Qmlhc0FkZA=="]}}, "explicit_paddings": {"list": {}}, "use_cudnn_on_gpu": {"b": true}, "epsilon": {"f": 0.0}, "strides": {"list": {"i": ["1", "1", "1", "1"]}}, "num_args": {"i": "1"}, "dilations": {"list": {"i": ["1", "1", "1", "1"]}}, "padding": {"s": "U0FNRQ=="}}, "op": "_FusedConv2D", "input": ["FeatureExtractor/MobilenetV2/Conv_1/Relu6", "BoxPredictor_1/ClassPredictor/weights", "BoxPredictor_1/ClassPredictor/biases"], "name": "BoxPredictor_1/ClassPredictor/BiasAdd"}, {"device": "/device:CPU:0", "attr": {"data_format": {"s": "TkhXQw=="}, "T": {"type": "DT_FLOAT"}, "fused_ops": {"list": {"s": ["Qmlhc0FkZA=="]}}, "explicit_paddings": {"list": {}}, "use_cudnn_on_gpu": {"b": true}, "epsilon": {"f": 0.0}, "strides": {"list": {"i": ["1", "1", "1", "1"]}}, "num_args": {"i": "1"}, "dilations": {"list": {"i": ["1", "1", "1", "1"]}}, "padding": {"s": "U0FNRQ=="}}, "op": "_FusedConv2D", "input": ["FeatureExtractor/MobilenetV2/Conv_1/Relu6", "BoxPredictor_1/BoxEncodingPredictor/weights", "BoxPredictor_1/BoxEncodingPredictor/biases"], "name": "BoxPredictor_1/BoxEncodingPredictor/BiasAdd"}, {"attr": {"T": {"type": "DT_FLOAT"}, "out_type": {"type": "DT_INT32"}}, "op": "Shape", "input": ["FeatureExtractor/MobilenetV2/Conv_1/Relu6"], "name": "BoxPredictor_1/Shape_1"}, {"device": "/device:CPU:0", "attr": {"data_format": {"s": "TkhXQw=="}, "T": {"type": "DT_FLOAT"}, "fused_ops": {"list": {"s": ["Qmlhc0FkZA==", "UmVsdTY="]}}, "explicit_paddings": {"list": {}}, "use_cudnn_on_gpu": {"b": true}, "epsilon": {"f": 0.0}, "strides": {"list": {"i": ["1", "1", "1", "1"]}}, "num_args": {"i": "1"}, "dilations": {"list": {"i": ["1", "1", "1", "1"]}}, "padding": {"s": "U0FNRQ=="}}, "op": "_FusedConv2D", "input": ["FeatureExtractor/MobilenetV2/Conv_1/Relu6", "FeatureExtractor/MobilenetV2/layer_19_1_Conv2d_2_1x1_256/Conv2D_weights", "FeatureExtractor/MobilenetV2/layer_19_1_Conv2d_2_1x1_256/Conv2D_bn_offset"], "name": "FeatureExtractor/MobilenetV2/layer_19_1_Conv2d_2_1x1_256/Relu6"}, {"attr": {"ellipsis_mask": {"i": "0"}, "T": {"type": "DT_INT32"}, "new_axis_mask": {"i": "0"}, "Index": {"type": "DT_INT32"}, "shrink_axis_mask": {"i": "1"}, "begin_mask": {"i": "0"}, "end_mask": {"i": "0"}}, "op": "StridedSlice", "input": ["BoxPredictor_1/Shape_1", "Postprocessor/BatchMultiClassNonMaxSuppression/map/TensorArrayUnstack_1/strided_slice/stack", "Postprocessor/BatchMultiClassNonMaxSuppression/map/TensorArrayUnstack_1/strided_slice/stack_1", "Postprocessor/BatchMultiClassNonMaxSuppression/map/TensorArrayUnstack_1/strided_slice/stack_1"], "name": "BoxPredictor_1/strided_slice_1"}, {"device": "/device:CPU:0", "attr": {"data_format": {"s": "TkhXQw=="}, "T": {"type": "DT_FLOAT"}, "fused_ops": {"list": {"s": ["Qmlhc0FkZA==", "UmVsdTY="]}}, "explicit_paddings": {"list": {}}, "use_cudnn_on_gpu": {"b": true}, "epsilon": {"f": 0.0}, "strides": {"list": {"i": ["1", "2", "2", "1"]}}, "num_args": {"i": "1"}, "dilations": {"list": {"i": ["1", "1", "1", "1"]}}, "padding": {"s": "U0FNRQ=="}}, "op": "_FusedConv2D", "input": ["FeatureExtractor/MobilenetV2/layer_19_1_Conv2d_2_1x1_256/Relu6", "FeatureExtractor/MobilenetV2/layer_19_2_Conv2d_2_3x3_s2_512/Conv2D_weights", "FeatureExtractor/MobilenetV2/layer_19_2_Conv2d_2_3x3_s2_512/Conv2D_bn_offset"], "name": "FeatureExtractor/MobilenetV2/layer_19_2_Conv2d_2_3x3_s2_512/Relu6"}, {"attr": {"N": {"i": "3"}, "T": {"type": "DT_INT32"}, "axis": {"i": "0"}}, "op": "Pack", "input": ["BoxPredictor_1/strided_slice_1", "BoxPredictor_0/Reshape_1/shape/1", "BoxPredictor_0/Reshape_1/shape/2"], "name": "BoxPredictor_1/Reshape_1/shape"}, {"attr": {"N": {"i": "4"}, "T": {"type": "DT_INT32"}, "axis": {"i": "0"}}, "op": "Pack", "input": ["BoxPredictor_1/strided_slice_1", "BoxPredictor_0/Reshape_1/shape/1", "Postprocessor/BatchMultiClassNonMaxSuppression/map/TensorArrayStack/range/delta", "BoxPredictor_0/Reshape_1/shape/2"], "name": "BoxPredictor_1/Reshape/shape"}, {"device": "/device:CPU:0", "attr": {"epsilon": {"f": 0.0}, "T": {"type": "DT_FLOAT"}, "fused_ops": {"list": {"s": ["Qmlhc0FkZA=="]}}, "explicit_paddings": {"list": {}}, "use_cudnn_on_gpu": {"b": true}, "data_format": {"s": "TkhXQw=="}, "strides": {"list": {"i": ["1", "1", "1", "1"]}}, "num_args": {"i": "1"}, "dilations": {"list": {"i": ["1", "1", "1", "1"]}}, "padding": {"s": "U0FNRQ=="}}, "op": "_FusedConv2D", "input": ["FeatureExtractor/MobilenetV2/layer_19_2_Conv2d_2_3x3_s2_512/Relu6", "BoxPredictor_2/ClassPredictor/weights", "BoxPredictor_2/ClassPredictor/biases"], "name": "BoxPredictor_2/ClassPredictor/BiasAdd"}, {"device": "/device:CPU:0", "attr": {"epsilon": {"f": 0.0}, "T": {"type": "DT_FLOAT"}, "fused_ops": {"list": {"s": ["Qmlhc0FkZA=="]}}, "explicit_paddings": {"list": {}}, "use_cudnn_on_gpu": {"b": true}, "data_format": {"s": "TkhXQw=="}, "strides": {"list": {"i": ["1", "1", "1", "1"]}}, "num_args": {"i": "1"}, "dilations": {"list": {"i": ["1", "1", "1", "1"]}}, "padding": {"s": "U0FNRQ=="}}, "op": "_FusedConv2D", "input": ["FeatureExtractor/MobilenetV2/layer_19_2_Conv2d_2_3x3_s2_512/Relu6", "BoxPredictor_2/BoxEncodingPredictor/weights", "BoxPredictor_2/BoxEncodingPredictor/biases"], "name": "BoxPredictor_2/BoxEncodingPredictor/BiasAdd"}, {"attr": {"T": {"type": "DT_FLOAT"}, "out_type": {"type": "DT_INT32"}}, "op": "Shape", "input": ["FeatureExtractor/MobilenetV2/layer_19_2_Conv2d_2_3x3_s2_512/Relu6"], "name": "BoxPredictor_2/Shape_1"}, {"device": "/device:CPU:0", "attr": {"data_format": {"s": "TkhXQw=="}, "T": {"type": "DT_FLOAT"}, "fused_ops": {"list": {"s": ["Qmlhc0FkZA==", "UmVsdTY="]}}, "explicit_paddings": {"list": {}}, "use_cudnn_on_gpu": {"b": true}, "epsilon": {"f": 0.0}, "strides": {"list": {"i": ["1", "1", "1", "1"]}}, "num_args": {"i": "1"}, "dilations": {"list": {"i": ["1", "1", "1", "1"]}}, "padding": {"s": "U0FNRQ=="}}, "op": "_FusedConv2D", "input": ["FeatureExtractor/MobilenetV2/layer_19_2_Conv2d_2_3x3_s2_512/Relu6", "FeatureExtractor/MobilenetV2/layer_19_1_Conv2d_3_1x1_128/Conv2D_weights", "FeatureExtractor/MobilenetV2/layer_19_1_Conv2d_3_1x1_128/Conv2D_bn_offset"], "name": "FeatureExtractor/MobilenetV2/layer_19_1_Conv2d_3_1x1_128/Relu6"}, {"attr": {"T": {"type": "DT_FLOAT"}, "Tshape": {"type": "DT_INT32"}}, "op": "Reshape", "input": ["BoxPredictor_1/ClassPredictor/BiasAdd", "BoxPredictor_1/Reshape_1/shape"], "name": "BoxPredictor_1/Reshape_1"}, {"attr": {"T": {"type": "DT_FLOAT"}, "Tshape": {"type": "DT_INT32"}}, "op": "Reshape", "input": ["BoxPredictor_1/BoxEncodingPredictor/BiasAdd", "BoxPredictor_1/Reshape/shape"], "name": "BoxPredictor_1/Reshape"}, {"attr": {"ellipsis_mask": {"i": "0"}, "T": {"type": "DT_INT32"}, "new_axis_mask": {"i": "0"}, "shrink_axis_mask": {"i": "1"}, "Index": {"type": "DT_INT32"}, "begin_mask": {"i": "0"}, "end_mask": {"i": "0"}}, "op": "StridedSlice", "input": ["BoxPredictor_2/Shape_1", "Postprocessor/BatchMultiClassNonMaxSuppression/map/TensorArrayUnstack_1/strided_slice/stack", "Postprocessor/BatchMultiClassNonMaxSuppression/map/TensorArrayUnstack_1/strided_slice/stack_1", "Postprocessor/BatchMultiClassNonMaxSuppression/map/TensorArrayUnstack_1/strided_slice/stack_1"], "name": "BoxPredictor_2/strided_slice_1"}, {"device": "/device:CPU:0", "attr": {"data_format": {"s": "TkhXQw=="}, "T": {"type": "DT_FLOAT"}, "fused_ops": {"list": {"s": ["Qmlhc0FkZA==", "UmVsdTY="]}}, "explicit_paddings": {"list": {}}, "use_cudnn_on_gpu": {"b": true}, "epsilon": {"f": 0.0}, "strides": {"list": {"i": ["1", "2", "2", "1"]}}, "num_args": {"i": "1"}, "dilations": {"list": {"i": ["1", "1", "1", "1"]}}, "padding": {"s": "U0FNRQ=="}}, "op": "_FusedConv2D", "input": ["FeatureExtractor/MobilenetV2/layer_19_1_Conv2d_3_1x1_128/Relu6", "FeatureExtractor/MobilenetV2/layer_19_2_Conv2d_3_3x3_s2_256/Conv2D_weights", "FeatureExtractor/MobilenetV2/layer_19_2_Conv2d_3_3x3_s2_256/Conv2D_bn_offset"], "name": "FeatureExtractor/MobilenetV2/layer_19_2_Conv2d_3_3x3_s2_256/Relu6"}, {"attr": {"N": {"i": "3"}, "T": {"type": "DT_INT32"}, "axis": {"i": "0"}}, "op": "Pack", "input": ["BoxPredictor_2/strided_slice_1", "BoxPredictor_0/Reshape_1/shape/1", "BoxPredictor_0/Reshape_1/shape/2"], "name": "BoxPredictor_2/Reshape_1/shape"}, {"attr": {"T": {"type": "DT_INT32"}, "N": {"i": "4"}, "axis": {"i": "0"}}, "op": "Pack", "input": ["BoxPredictor_2/strided_slice_1", "BoxPredictor_0/Reshape_1/shape/1", "Postprocessor/BatchMultiClassNonMaxSuppression/map/TensorArrayStack/range/delta", "BoxPredictor_0/Reshape_1/shape/2"], "name": "BoxPredictor_2/Reshape/shape"}, {"device": "/device:CPU:0", "attr": {"data_format": {"s": "TkhXQw=="}, "T": {"type": "DT_FLOAT"}, "fused_ops": {"list": {"s": ["Qmlhc0FkZA=="]}}, "explicit_paddings": {"list": {}}, "use_cudnn_on_gpu": {"b": true}, "epsilon": {"f": 0.0}, "strides": {"list": {"i": ["1", "1", "1", "1"]}}, "num_args": {"i": "1"}, "dilations": {"list": {"i": ["1", "1", "1", "1"]}}, "padding": {"s": "U0FNRQ=="}}, "op": "_FusedConv2D", "input": ["FeatureExtractor/MobilenetV2/layer_19_2_Conv2d_3_3x3_s2_256/Relu6", "BoxPredictor_3/ClassPredictor/weights", "BoxPredictor_3/ClassPredictor/biases"], "name": "BoxPredictor_3/ClassPredictor/BiasAdd"}, {"device": "/device:CPU:0", "attr": {"data_format": {"s": "TkhXQw=="}, "T": {"type": "DT_FLOAT"}, "fused_ops": {"list": {"s": ["Qmlhc0FkZA=="]}}, "explicit_paddings": {"list": {}}, "use_cudnn_on_gpu": {"b": true}, "epsilon": {"f": 0.0}, "strides": {"list": {"i": ["1", "1", "1", "1"]}}, "num_args": {"i": "1"}, "dilations": {"list": {"i": ["1", "1", "1", "1"]}}, "padding": {"s": "U0FNRQ=="}}, "op": "_FusedConv2D", "input": ["FeatureExtractor/MobilenetV2/layer_19_2_Conv2d_3_3x3_s2_256/Relu6", "BoxPredictor_3/BoxEncodingPredictor/weights", "BoxPredictor_3/BoxEncodingPredictor/biases"], "name": "BoxPredictor_3/BoxEncodingPredictor/BiasAdd"}, {"attr": {"T": {"type": "DT_FLOAT"}, "out_type": {"type": "DT_INT32"}}, "op": "Shape", "input": ["FeatureExtractor/MobilenetV2/layer_19_2_Conv2d_3_3x3_s2_256/Relu6"], "name": "BoxPredictor_3/Shape_1"}, {"device": "/device:CPU:0", "attr": {"data_format": {"s": "TkhXQw=="}, "T": {"type": "DT_FLOAT"}, "fused_ops": {"list": {"s": ["Qmlhc0FkZA==", "UmVsdTY="]}}, "explicit_paddings": {"list": {}}, "use_cudnn_on_gpu": {"b": true}, "epsilon": {"f": 0.0}, "strides": {"list": {"i": ["1", "1", "1", "1"]}}, "num_args": {"i": "1"}, "dilations": {"list": {"i": ["1", "1", "1", "1"]}}, "padding": {"s": "U0FNRQ=="}}, "op": "_FusedConv2D", "input": ["FeatureExtractor/MobilenetV2/layer_19_2_Conv2d_3_3x3_s2_256/Relu6", "FeatureExtractor/MobilenetV2/layer_19_1_Conv2d_4_1x1_128/Conv2D_weights", "FeatureExtractor/MobilenetV2/layer_19_1_Conv2d_4_1x1_128/Conv2D_bn_offset"], "name": "FeatureExtractor/MobilenetV2/layer_19_1_Conv2d_4_1x1_128/Relu6"}, {"attr": {"T": {"type": "DT_FLOAT"}, "Tshape": {"type": "DT_INT32"}}, "op": "Reshape", "input": ["BoxPredictor_2/ClassPredictor/BiasAdd", "BoxPredictor_2/Reshape_1/shape"], "name": "BoxPredictor_2/Reshape_1"}, {"attr": {"T": {"type": "DT_FLOAT"}, "Tshape": {"type": "DT_INT32"}}, "op": "Reshape", "input": ["BoxPredictor_2/BoxEncodingPredictor/BiasAdd", "BoxPredictor_2/Reshape/shape"], "name": "BoxPredictor_2/Reshape"}, {"attr": {"ellipsis_mask": {"i": "0"}, "T": {"type": "DT_INT32"}, "end_mask": {"i": "0"}, "Index": {"type": "DT_INT32"}, "shrink_axis_mask": {"i": "1"}, "begin_mask": {"i": "0"}, "new_axis_mask": {"i": "0"}}, "op": "StridedSlice", "input": ["BoxPredictor_3/Shape_1", "Postprocessor/BatchMultiClassNonMaxSuppression/map/TensorArrayUnstack_1/strided_slice/stack", "Postprocessor/BatchMultiClassNonMaxSuppression/map/TensorArrayUnstack_1/strided_slice/stack_1", "Postprocessor/BatchMultiClassNonMaxSuppression/map/TensorArrayUnstack_1/strided_slice/stack_1"], "name": "BoxPredictor_3/strided_slice_1"}, {"device": "/device:CPU:0", "attr": {"data_format": {"s": "TkhXQw=="}, "T": {"type": "DT_FLOAT"}, "fused_ops": {"list": {"s": ["Qmlhc0FkZA==", "UmVsdTY="]}}, "explicit_paddings": {"list": {}}, "use_cudnn_on_gpu": {"b": true}, "epsilon": {"f": 0.0}, "strides": {"list": {"i": ["1", "2", "2", "1"]}}, "num_args": {"i": "1"}, "dilations": {"list": {"i": ["1", "1", "1", "1"]}}, "padding": {"s": "U0FNRQ=="}}, "op": "_FusedConv2D", "input": ["FeatureExtractor/MobilenetV2/layer_19_1_Conv2d_4_1x1_128/Relu6", "FeatureExtractor/MobilenetV2/layer_19_2_Conv2d_4_3x3_s2_256/Conv2D_weights", "FeatureExtractor/MobilenetV2/layer_19_2_Conv2d_4_3x3_s2_256/Conv2D_bn_offset"], "name": "FeatureExtractor/MobilenetV2/layer_19_2_Conv2d_4_3x3_s2_256/Relu6"}, {"attr": {"N": {"i": "3"}, "T": {"type": "DT_INT32"}, "axis": {"i": "0"}}, "op": "Pack", "input": ["BoxPredictor_3/strided_slice_1", "BoxPredictor_0/Reshape_1/shape/1", "BoxPredictor_0/Reshape_1/shape/2"], "name": "BoxPredictor_3/Reshape_1/shape"}, {"attr": {"N": {"i": "4"}, "T": {"type": "DT_INT32"}, "axis": {"i": "0"}}, "op": "Pack", "input": ["BoxPredictor_3/strided_slice_1", "BoxPredictor_0/Reshape_1/shape/1", "Postprocessor/BatchMultiClassNonMaxSuppression/map/TensorArrayStack/range/delta", "BoxPredictor_0/Reshape_1/shape/2"], "name": "BoxPredictor_3/Reshape/shape"}, {"device": "/device:CPU:0", "attr": {"data_format": {"s": "TkhXQw=="}, "T": {"type": "DT_FLOAT"}, "fused_ops": {"list": {"s": ["Qmlhc0FkZA=="]}}, "explicit_paddings": {"list": {}}, "use_cudnn_on_gpu": {"b": true}, "epsilon": {"f": 0.0}, "strides": {"list": {"i": ["1", "1", "1", "1"]}}, "num_args": {"i": "1"}, "dilations": {"list": {"i": ["1", "1", "1", "1"]}}, "padding": {"s": "U0FNRQ=="}}, "op": "_FusedConv2D", "input": ["FeatureExtractor/MobilenetV2/layer_19_2_Conv2d_4_3x3_s2_256/Relu6", "BoxPredictor_4/ClassPredictor/weights", "BoxPredictor_4/ClassPredictor/biases"], "name": "BoxPredictor_4/ClassPredictor/BiasAdd"}, {"device": "/device:CPU:0", "attr": {"epsilon": {"f": 0.0}, "T": {"type": "DT_FLOAT"}, "fused_ops": {"list": {"s": ["Qmlhc0FkZA=="]}}, "explicit_paddings": {"list": {}}, "use_cudnn_on_gpu": {"b": true}, "data_format": {"s": "TkhXQw=="}, "strides": {"list": {"i": ["1", "1", "1", "1"]}}, "num_args": {"i": "1"}, "dilations": {"list": {"i": ["1", "1", "1", "1"]}}, "padding": {"s": "U0FNRQ=="}}, "op": "_FusedConv2D", "input": ["FeatureExtractor/MobilenetV2/layer_19_2_Conv2d_4_3x3_s2_256/Relu6", "BoxPredictor_4/BoxEncodingPredictor/weights", "BoxPredictor_4/BoxEncodingPredictor/biases"], "name": "BoxPredictor_4/BoxEncodingPredictor/BiasAdd"}, {"attr": {"T": {"type": "DT_FLOAT"}, "out_type": {"type": "DT_INT32"}}, "op": "Shape", "input": ["FeatureExtractor/MobilenetV2/layer_19_2_Conv2d_4_3x3_s2_256/Relu6"], "name": "BoxPredictor_4/Shape_1"}, {"device": "/device:CPU:0", "attr": {"data_format": {"s": "TkhXQw=="}, "T": {"type": "DT_FLOAT"}, "fused_ops": {"list": {"s": ["Qmlhc0FkZA==", "UmVsdTY="]}}, "explicit_paddings": {"list": {}}, "use_cudnn_on_gpu": {"b": true}, "epsilon": {"f": 0.0}, "strides": {"list": {"i": ["1", "1", "1", "1"]}}, "num_args": {"i": "1"}, "dilations": {"list": {"i": ["1", "1", "1", "1"]}}, "padding": {"s": "U0FNRQ=="}}, "op": "_FusedConv2D", "input": ["FeatureExtractor/MobilenetV2/layer_19_2_Conv2d_4_3x3_s2_256/Relu6", "FeatureExtractor/MobilenetV2/layer_19_1_Conv2d_5_1x1_64/Conv2D_weights", "FeatureExtractor/MobilenetV2/layer_19_1_Conv2d_5_1x1_64/Conv2D_bn_offset"], "name": "FeatureExtractor/MobilenetV2/layer_19_1_Conv2d_5_1x1_64/Relu6"}, {"attr": {"T": {"type": "DT_FLOAT"}, "Tshape": {"type": "DT_INT32"}}, "op": "Reshape", "input": ["BoxPredictor_3/ClassPredictor/BiasAdd", "BoxPredictor_3/Reshape_1/shape"], "name": "BoxPredictor_3/Reshape_1"}, {"attr": {"T": {"type": "DT_FLOAT"}, "Tshape": {"type": "DT_INT32"}}, "op": "Reshape", "input": ["BoxPredictor_3/BoxEncodingPredictor/BiasAdd", "BoxPredictor_3/Reshape/shape"], "name": "BoxPredictor_3/Reshape"}, {"attr": {"ellipsis_mask": {"i": "0"}, "T": {"type": "DT_INT32"}, "end_mask": {"i": "0"}, "Index": {"type": "DT_INT32"}, "shrink_axis_mask": {"i": "1"}, "begin_mask": {"i": "0"}, "new_axis_mask": {"i": "0"}}, "op": "StridedSlice", "input": ["BoxPredictor_4/Shape_1", "Postprocessor/BatchMultiClassNonMaxSuppression/map/TensorArrayUnstack_1/strided_slice/stack", "Postprocessor/BatchMultiClassNonMaxSuppression/map/TensorArrayUnstack_1/strided_slice/stack_1", "Postprocessor/BatchMultiClassNonMaxSuppression/map/TensorArrayUnstack_1/strided_slice/stack_1"], "name": "BoxPredictor_4/strided_slice_1"}, {"device": "/device:CPU:0", "attr": {"epsilon": {"f": 0.0}, "T": {"type": "DT_FLOAT"}, "fused_ops": {"list": {"s": ["Qmlhc0FkZA==", "UmVsdTY="]}}, "explicit_paddings": {"list": {}}, "use_cudnn_on_gpu": {"b": true}, "data_format": {"s": "TkhXQw=="}, "strides": {"list": {"i": ["1", "2", "2", "1"]}}, "num_args": {"i": "1"}, "dilations": {"list": {"i": ["1", "1", "1", "1"]}}, "padding": {"s": "U0FNRQ=="}}, "op": "_FusedConv2D", "input": ["FeatureExtractor/MobilenetV2/layer_19_1_Conv2d_5_1x1_64/Relu6", "FeatureExtractor/MobilenetV2/layer_19_2_Conv2d_5_3x3_s2_128/Conv2D_weights", "FeatureExtractor/MobilenetV2/layer_19_2_Conv2d_5_3x3_s2_128/Conv2D_bn_offset"], "name": "FeatureExtractor/MobilenetV2/layer_19_2_Conv2d_5_3x3_s2_128/Relu6"}, {"attr": {"T": {"type": "DT_INT32"}, "N": {"i": "3"}, "axis": {"i": "0"}}, "op": "Pack", "input": ["BoxPredictor_4/strided_slice_1", "BoxPredictor_0/Reshape_1/shape/1", "BoxPredictor_0/Reshape_1/shape/2"], "name": "BoxPredictor_4/Reshape_1/shape"}, {"attr": {"N": {"i": "4"}, "T": {"type": "DT_INT32"}, "axis": {"i": "0"}}, "op": "Pack", "input": ["BoxPredictor_4/strided_slice_1", "BoxPredictor_0/Reshape_1/shape/1", "Postprocessor/BatchMultiClassNonMaxSuppression/map/TensorArrayStack/range/delta", "BoxPredictor_0/Reshape_1/shape/2"], "name": "BoxPredictor_4/Reshape/shape"}, {"device": "/device:CPU:0", "attr": {"epsilon": {"f": 0.0}, "T": {"type": "DT_FLOAT"}, "fused_ops": {"list": {"s": ["Qmlhc0FkZA=="]}}, "explicit_paddings": {"list": {}}, "use_cudnn_on_gpu": {"b": true}, "data_format": {"s": "TkhXQw=="}, "strides": {"list": {"i": ["1", "1", "1", "1"]}}, "num_args": {"i": "1"}, "dilations": {"list": {"i": ["1", "1", "1", "1"]}}, "padding": {"s": "U0FNRQ=="}}, "op": "_FusedConv2D", "input": ["FeatureExtractor/MobilenetV2/layer_19_2_Conv2d_5_3x3_s2_128/Relu6", "BoxPredictor_5/ClassPredictor/weights", "BoxPredictor_5/ClassPredictor/biases"], "name": "BoxPredictor_5/ClassPredictor/BiasAdd"}, {"device": "/device:CPU:0", "attr": {"data_format": {"s": "TkhXQw=="}, "T": {"type": "DT_FLOAT"}, "fused_ops": {"list": {"s": ["Qmlhc0FkZA=="]}}, "explicit_paddings": {"list": {}}, "use_cudnn_on_gpu": {"b": true}, "epsilon": {"f": 0.0}, "strides": {"list": {"i": ["1", "1", "1", "1"]}}, "num_args": {"i": "1"}, "dilations": {"list": {"i": ["1", "1", "1", "1"]}}, "padding": {"s": "U0FNRQ=="}}, "op": "_FusedConv2D", "input": ["FeatureExtractor/MobilenetV2/layer_19_2_Conv2d_5_3x3_s2_128/Relu6", "BoxPredictor_5/BoxEncodingPredictor/weights", "BoxPredictor_5/BoxEncodingPredictor/biases"], "name": "BoxPredictor_5/BoxEncodingPredictor/BiasAdd"}, {"attr": {"T": {"type": "DT_FLOAT"}, "out_type": {"type": "DT_INT32"}}, "op": "Shape", "input": ["FeatureExtractor/MobilenetV2/layer_19_2_Conv2d_5_3x3_s2_128/Relu6"], "name": "BoxPredictor_5/Shape_1"}, {"attr": {"T": {"type": "DT_FLOAT"}, "Tshape": {"type": "DT_INT32"}}, "op": "Reshape", "input": ["BoxPredictor_4/ClassPredictor/BiasAdd", "BoxPredictor_4/Reshape_1/shape"], "name": "BoxPredictor_4/Reshape_1"}, {"attr": {"T": {"type": "DT_FLOAT"}, "Tshape": {"type": "DT_INT32"}}, "op": "Reshape", "input": ["BoxPredictor_4/BoxEncodingPredictor/BiasAdd", "BoxPredictor_4/Reshape/shape"], "name": "BoxPredictor_4/Reshape"}, {"attr": {"ellipsis_mask": {"i": "0"}, "T": {"type": "DT_INT32"}, "end_mask": {"i": "0"}, "Index": {"type": "DT_INT32"}, "shrink_axis_mask": {"i": "1"}, "begin_mask": {"i": "0"}, "new_axis_mask": {"i": "0"}}, "op": "StridedSlice", "input": ["BoxPredictor_5/Shape_1", "Postprocessor/BatchMultiClassNonMaxSuppression/map/TensorArrayUnstack_1/strided_slice/stack", "Postprocessor/BatchMultiClassNonMaxSuppression/map/TensorArrayUnstack_1/strided_slice/stack_1", "Postprocessor/BatchMultiClassNonMaxSuppression/map/TensorArrayUnstack_1/strided_slice/stack_1"], "name": "BoxPredictor_5/strided_slice_1"}, {"attr": {"N": {"i": "3"}, "T": {"type": "DT_INT32"}, "axis": {"i": "0"}}, "op": "Pack", "input": ["BoxPredictor_5/strided_slice_1", "BoxPredictor_0/Reshape_1/shape/1", "BoxPredictor_0/Reshape_1/shape/2"], "name": "BoxPredictor_5/Reshape_1/shape"}, {"attr": {"T": {"type": "DT_INT32"}, "N": {"i": "4"}, "axis": {"i": "0"}}, "op": "Pack", "input": ["BoxPredictor_5/strided_slice_1", "BoxPredictor_0/Reshape_1/shape/1", "Postprocessor/BatchMultiClassNonMaxSuppression/map/TensorArrayStack/range/delta", "BoxPredictor_0/Reshape_1/shape/2"], "name": "BoxPredictor_5/Reshape/shape"}, {"attr": {"T": {"type": "DT_FLOAT"}, "Tshape": {"type": "DT_INT32"}}, "op": "Reshape", "input": ["BoxPredictor_5/ClassPredictor/BiasAdd", "BoxPredictor_5/Reshape_1/shape"], "name": "BoxPredictor_5/Reshape_1"}, {"attr": {"T": {"type": "DT_FLOAT"}, "Tshape": {"type": "DT_INT32"}}, "op": "Reshape", "input": ["BoxPredictor_5/BoxEncodingPredictor/BiasAdd", "BoxPredictor_5/Reshape/shape"], "name": "BoxPredictor_5/Reshape"}, {"attr": {"T": {"type": "DT_FLOAT"}, "N": {"i": "6"}, "Tidx": {"type": "DT_INT32"}}, "op": "ConcatV2", "input": ["BoxPredictor_0/Reshape_1", "BoxPredictor_1/Reshape_1", "BoxPredictor_2/Reshape_1", "BoxPredictor_3/Reshape_1", "BoxPredictor_4/Reshape_1", "BoxPredictor_5/Reshape_1", "Postprocessor/BatchMultiClassNonMaxSuppression/map/TensorArrayStack/range/delta"], "name": "concat_1"}, {"attr": {"N": {"i": "6"}, "T": {"type": "DT_FLOAT"}, "Tidx": {"type": "DT_INT32"}}, "op": "ConcatV2", "input": ["BoxPredictor_0/Reshape", "BoxPredictor_1/Reshape", "BoxPredictor_2/Reshape", "BoxPredictor_3/Reshape", "BoxPredictor_4/Reshape", "BoxPredictor_5/Reshape", "Postprocessor/BatchMultiClassNonMaxSuppression/map/TensorArrayStack/range/delta"], "name": "concat"}, {"attr": {"T": {"type": "DT_FLOAT"}}, "op": "Sigmoid", "input": ["concat_1"], "name": "Postprocessor/convert_scores"}, {"attr": {"squeeze_dims": {"list": {"i": ["2"]}}, "T": {"type": "DT_FLOAT"}}, "op": "Squeeze", "input": ["concat"], "name": "Squeeze"}, {"attr": {"T": {"type": "DT_FLOAT"}, "Index": {"type": "DT_INT32"}}, "op": "Slice", "input": ["Postprocessor/convert_scores", "Postprocessor/Slice/begin", "Postprocessor/Slice/size"], "name": "Postprocessor/Slice"}, {"attr": {"T": {"type": "DT_FLOAT"}, "Tshape": {"type": "DT_INT32"}}, "op": "Reshape", "input": ["Squeeze", "Postprocessor/Reshape_1/shape"], "name": "Postprocessor/Reshape_1"}, {"attr": {"T": {"type": "DT_FLOAT"}, "out_type": {"type": "DT_INT32"}}, "op": "Shape", "input": ["Squeeze"], "name": "Postprocessor/Shape"}, {"attr": {"T": {"type": "DT_FLOAT"}, "out_type": {"type": "DT_INT32"}}, "op": "Shape", "input": ["Postprocessor/Slice"], "name": "Postprocessor/BatchMultiClassNonMaxSuppression/map/TensorArrayUnstack_1/Shape"}, {"attr": {"T": {"type": "DT_FLOAT"}, "Tperm": {"type": "DT_INT32"}}, "op": "Transpose", "input": ["Postprocessor/Reshape_1", "Postprocessor/Decode/transpose/perm"], "name": "Postprocessor/Decode/transpose"}, {"attr": {"ellipsis_mask": {"i": "0"}, "T": {"type": "DT_INT32"}, "new_axis_mask": {"i": "0"}, "shrink_axis_mask": {"i": "1"}, "Index": {"type": "DT_INT32"}, "begin_mask": {"i": "0"}, "end_mask": {"i": "0"}}, "op": "StridedSlice", "input": ["Postprocessor/Shape", "Postprocessor/BatchMultiClassNonMaxSuppression/map/TensorArrayUnstack_1/strided_slice/stack", "Postprocessor/BatchMultiClassNonMaxSuppression/map/TensorArrayUnstack_1/strided_slice/stack_1", "Postprocessor/BatchMultiClassNonMaxSuppression/map/TensorArrayUnstack_1/strided_slice/stack_1"], "name": "Postprocessor/strided_slice"}, {"attr": {"ellipsis_mask": {"i": "0"}, "T": {"type": "DT_INT32"}, "new_axis_mask": {"i": "0"}, "Index": {"type": "DT_INT32"}, "shrink_axis_mask": {"i": "1"}, "begin_mask": {"i": "0"}, "end_mask": {"i": "0"}}, "op": "StridedSlice", "input": ["Postprocessor/Shape", "Postprocessor/BatchMultiClassNonMaxSuppression/map/TensorArrayUnstack_1/strided_slice/stack_1", "Postprocessor/BatchMultiClassNonMaxSuppression/strided_slice_1/stack_1", "Postprocessor/BatchMultiClassNonMaxSuppression/map/TensorArrayUnstack_1/strided_slice/stack_1"], "name": "Postprocessor/strided_slice_1"}, {"attr": {"begin_mask": {"i": "0"}, "T": {"type": "DT_INT32"}, "new_axis_mask": {"i": "0"}, "shrink_axis_mask": {"i": "1"}, "Index": {"type": "DT_INT32"}, "ellipsis_mask": {"i": "0"}, "end_mask": {"i": "0"}}, "op": "StridedSlice", "input": ["Postprocessor/BatchMultiClassNonMaxSuppression/map/TensorArrayUnstack_1/Shape", "Postprocessor/BatchMultiClassNonMaxSuppression/map/TensorArrayUnstack_1/strided_slice/stack", "Postprocessor/BatchMultiClassNonMaxSuppression/map/TensorArrayUnstack_1/strided_slice/stack_1", "Postprocessor/BatchMultiClassNonMaxSuppression/map/TensorArrayUnstack_1/strided_slice/stack_1"], "name": "Postprocessor/BatchMultiClassNonMaxSuppression/map/TensorArrayUnstack_1/strided_slice"}, {"attr": {"T": {"type": "DT_FLOAT"}, "num": {"i": "4"}, "axis": {"i": "0"}}, "op": "Unpack", "input": ["Postprocessor/Decode/transpose"], "name": "Postprocessor/Decode/unstack"}, {"attr": {"N": {"i": "3"}, "T": {"type": "DT_INT32"}, "axis": {"i": "0"}}, "op": "Pack", "input": ["Postprocessor/strided_slice", "Postprocessor/BatchMultiClassNonMaxSuppression/map/TensorArrayStack/range/delta", "Postprocessor/BatchMultiClassNonMaxSuppression/map/TensorArrayStack/range/delta"], "name": "Postprocessor/Tile/multiples"}, {"attr": {"N": {"i": "3"}, "T": {"type": "DT_INT32"}, "axis": {"i": "0"}}, "op": "Pack", "input": ["Postprocessor/strided_slice", "Postprocessor/strided_slice_1", "BoxPredictor_0/Reshape_1/shape/2"], "name": "Postprocessor/stack"}, {"attr": {"Tidx": {"type": "DT_INT32"}}, "op": "Range", "input": ["Postprocessor/BatchMultiClassNonMaxSuppression/map/TensorArrayStack/range/start", "Postprocessor/BatchMultiClassNonMaxSuppression/map/TensorArrayUnstack_1/strided_slice", "Postprocessor/BatchMultiClassNonMaxSuppression/map/TensorArrayStack/range/delta"], "name": "Postprocessor/BatchMultiClassNonMaxSuppression/map/TensorArrayUnstack_1/range"}, {"attr": {"T": {"type": "DT_FLOAT"}}, "op": "Mul", "input": ["ConstantFolding/Postprocessor/Decode/truediv_recip", "Postprocessor/Decode/unstack"], "name": "Postprocessor/Decode/truediv"}, {"attr": {"T": {"type": "DT_FLOAT"}}, "op": "Mul", "input": ["ConstantFolding/Postprocessor/Decode/truediv_recip", "Postprocessor/Decode/unstack:1"], "name": "Postprocessor/Decode/truediv_1"}, {"attr": {"T": {"type": "DT_FLOAT"}}, "op": "Mul", "input": ["ConstantFolding/Postprocessor/Decode/truediv_2_recip", "Postprocessor/Decode/unstack:2"], "name": "Postprocessor/Decode/truediv_2"}, {"attr": {"T": {"type": "DT_FLOAT"}}, "op": "Mul", "input": ["ConstantFolding/Postprocessor/Decode/truediv_2_recip", "Postprocessor/Decode/unstack:3"], "name": "Postprocessor/Decode/truediv_3"}, {"attr": {"T": {"type": "DT_FLOAT"}, "Tmultiples": {"type": "DT_INT32"}}, "op": "Tile", "input": ["Postprocessor/ExpandDims", "Postprocessor/Tile/multiples"], "name": "Postprocessor/Tile"}, {"attr": {"T": {"type": "DT_FLOAT"}}, "op": "Exp", "input": ["Postprocessor/Decode/truediv_2"], "name": "Postprocessor/Decode/Exp_1"}, {"attr": {"T": {"type": "DT_FLOAT"}}, "op": "Exp", "input": ["Postprocessor/Decode/truediv_3"], "name": "Postprocessor/Decode/Exp"}, {"attr": {"T": {"type": "DT_FLOAT"}, "Tshape": {"type": "DT_INT32"}}, "op": "Reshape", "input": ["Postprocessor/Tile", "Postprocessor/Reshape_1/shape"], "name": "Postprocessor/Reshape"}, {"attr": {"T": {"type": "DT_FLOAT"}, "Tperm": {"type": "DT_INT32"}}, "op": "Transpose", "input": ["Postprocessor/Reshape", "Postprocessor/Decode/transpose/perm"], "name": "Postprocessor/Decode/get_center_coordinates_and_sizes/transpose"}, {"attr": {"T": {"type": "DT_FLOAT"}, "num": {"i": "4"}, "axis": {"i": "0"}}, "op": "Unpack", "input": ["Postprocessor/Decode/get_center_coordinates_and_sizes/transpose"], "name": "Postprocessor/Decode/get_center_coordinates_and_sizes/unstack"}, {"attr": {"T": {"type": "DT_FLOAT"}}, "op": "Sub", "input": ["Postprocessor/Decode/get_center_coordinates_and_sizes/unstack:2", "Postprocessor/Decode/get_center_coordinates_and_sizes/unstack"], "name": "Postprocessor/Decode/get_center_coordinates_and_sizes/sub_1"}, {"attr": {"T": {"type": "DT_FLOAT"}}, "op": "Sub", "input": ["Postprocessor/Decode/get_center_coordinates_and_sizes/unstack:3", "Postprocessor/Decode/get_center_coordinates_and_sizes/unstack:1"], "name": "Postprocessor/Decode/get_center_coordinates_and_sizes/sub"}, {"attr": {"T": {"type": "DT_FLOAT"}}, "op": "Mul", "input": ["Postprocessor/Decode/get_center_coordinates_and_sizes/sub_1", "Postprocessor/Decode/truediv"], "name": "Postprocessor/Decode/mul_2"}, {"attr": {"T": {"type": "DT_FLOAT"}}, "op": "Mul", "input": ["ConstantFolding/Postprocessor/Decode/truediv_4_recip", "Postprocessor/Decode/get_center_coordinates_and_sizes/sub_1"], "name": "Postprocessor/Decode/get_center_coordinates_and_sizes/truediv"}, {"attr": {"T": {"type": "DT_FLOAT"}}, "op": "Mul", "input": ["Postprocessor/Decode/get_center_coordinates_and_sizes/sub", "Postprocessor/Decode/truediv_1"], "name": "Postprocessor/Decode/mul_3"}, {"attr": {"T": {"type": "DT_FLOAT"}}, "op": "Mul", "input": ["ConstantFolding/Postprocessor/Decode/truediv_4_recip", "Postprocessor/Decode/get_center_coordinates_and_sizes/sub"], "name": "Postprocessor/Decode/get_center_coordinates_and_sizes/truediv_1"}, {"attr": {"T": {"type": "DT_FLOAT"}}, "op": "AddV2", "input": ["Postprocessor/Decode/get_center_coordinates_and_sizes/truediv", "Postprocessor/Decode/get_center_coordinates_and_sizes/unstack"], "name": "Postprocessor/Decode/get_center_coordinates_and_sizes/add"}, {"attr": {"T": {"type": "DT_FLOAT"}}, "op": "Mul", "input": ["Postprocessor/Decode/Exp_1", "Postprocessor/Decode/get_center_coordinates_and_sizes/truediv"], "name": "Postprocessor/Decode/truediv_4"}, {"attr": {"T": {"type": "DT_FLOAT"}}, "op": "AddV2", "input": ["Postprocessor/Decode/get_center_coordinates_and_sizes/truediv_1", "Postprocessor/Decode/get_center_coordinates_and_sizes/unstack:1"], "name": "Postprocessor/Decode/get_center_coordinates_and_sizes/add_1"}, {"attr": {"T": {"type": "DT_FLOAT"}}, "op": "Mul", "input": ["Postprocessor/Decode/Exp", "Postprocessor/Decode/get_center_coordinates_and_sizes/truediv_1"], "name": "Postprocessor/Decode/truediv_5"}, {"attr": {"T": {"type": "DT_FLOAT"}}, "op": "AddV2", "input": ["Postprocessor/Decode/get_center_coordinates_and_sizes/add", "Postprocessor/Decode/mul_2"], "name": "Postprocessor/Decode/add"}, {"attr": {"T": {"type": "DT_FLOAT"}}, "op": "AddV2", "input": ["Postprocessor/Decode/get_center_coordinates_and_sizes/add_1", "Postprocessor/Decode/mul_3"], "name": "Postprocessor/Decode/add_1"}, {"attr": {"T": {"type": "DT_FLOAT"}}, "op": "Sub", "input": ["Postprocessor/Decode/add", "Postprocessor/Decode/truediv_4"], "name": "Postprocessor/Decode/sub"}, {"attr": {"T": {"type": "DT_FLOAT"}}, "op": "AddV2", "input": ["Postprocessor/Decode/add", "Postprocessor/Decode/truediv_4"], "name": "Postprocessor/Decode/add_2"}, {"attr": {"T": {"type": "DT_FLOAT"}}, "op": "Sub", "input": ["Postprocessor/Decode/add_1", "Postprocessor/Decode/truediv_5"], "name": "Postprocessor/Decode/sub_1"}, {"attr": {"T": {"type": "DT_FLOAT"}}, "op": "AddV2", "input": ["Postprocessor/Decode/add_1", "Postprocessor/Decode/truediv_5"], "name": "Postprocessor/Decode/add_3"}, {"attr": {"N": {"i": "4"}, "T": {"type": "DT_FLOAT"}, "axis": {"i": "0"}}, "op": "Pack", "input": ["Postprocessor/Decode/sub", "Postprocessor/Decode/sub_1", "Postprocessor/Decode/add_2", "Postprocessor/Decode/add_3"], "name": "Postprocessor/Decode/stack"}, {"attr": {"T": {"type": "DT_FLOAT"}, "Tperm": {"type": "DT_INT32"}}, "op": "Transpose", "input": ["Postprocessor/Decode/stack", "Postprocessor/Decode/transpose/perm"], "name": "Postprocessor/Decode/transpose_1"}, {"attr": {"T": {"type": "DT_FLOAT"}, "Tshape": {"type": "DT_INT32"}}, "op": "Reshape", "input": ["Postprocessor/Decode/transpose_1", "Postprocessor/stack"], "name": "Postprocessor/Reshape_2"}, {"attr": {"T": {"type": "DT_FLOAT"}, "Tdim": {"type": "DT_INT32"}}, "op": "ExpandDims", "input": ["Postprocessor/Reshape_2", "Postprocessor/ExpandDims_1/dim"], "name": "Postprocessor/ExpandDims_1"}, {"attr": {"T": {"type": "DT_FLOAT"}, "out_type": {"type": "DT_INT32"}}, "op": "Shape", "input": ["Postprocessor/ExpandDims_1"], "name": "Postprocessor/BatchMultiClassNonMaxSuppression/map/TensorArrayUnstack/Shape"}, {"attr": {"ellipsis_mask": {"i": "0"}, "T": {"type": "DT_INT32"}, "end_mask": {"i": "0"}, "Index": {"type": "DT_INT32"}, "shrink_axis_mask": {"i": "1"}, "begin_mask": {"i": "0"}, "new_axis_mask": {"i": "0"}}, "op": "StridedSlice", "input": ["Postprocessor/BatchMultiClassNonMaxSuppression/map/TensorArrayUnstack/Shape", "Postprocessor/BatchMultiClassNonMaxSuppression/map/TensorArrayUnstack_1/strided_slice/stack_1", "Postprocessor/BatchMultiClassNonMaxSuppression/strided_slice_1/stack_1", "Postprocessor/BatchMultiClassNonMaxSuppression/map/TensorArrayUnstack_1/strided_slice/stack_1"], "name": "Postprocessor/BatchMultiClassNonMaxSuppression/strided_slice_1"}, {"attr": {"ellipsis_mask": {"i": "0"}, "T": {"type": "DT_INT32"}, "new_axis_mask": {"i": "0"}, "Index": {"type": "DT_INT32"}, "shrink_axis_mask": {"i": "1"}, "begin_mask": {"i": "0"}, "end_mask": {"i": "0"}}, "op": "StridedSlice", "input": ["Postprocessor/BatchMultiClassNonMaxSuppression/map/TensorArrayUnstack/Shape", "Postprocessor/BatchMultiClassNonMaxSuppression/map/TensorArrayUnstack_1/strided_slice/stack", "Postprocessor/BatchMultiClassNonMaxSuppression/map/TensorArrayUnstack_1/strided_slice/stack_1", "Postprocessor/BatchMultiClassNonMaxSuppression/map/TensorArrayUnstack_1/strided_slice/stack_1"], "name": "Postprocessor/BatchMultiClassNonMaxSuppression/map/TensorArrayUnstack/strided_slice"}, {"attr": {"clear_after_read": {"b": true}, "element_shape": {"shape": {"unknownRank": true}}, "identical_element_shapes": {"b": true}, "tensor_array_name": {"s": ""}, "dtype": {"type": "DT_FLOAT"}, "dynamic_size": {"b": false}}, "op": "TensorArrayV3", "input": ["Postprocessor/BatchMultiClassNonMaxSuppression/map/TensorArrayUnstack/strided_slice"], "name": "Postprocessor/BatchMultiClassNonMaxSuppression/map/TensorArray_7"}, {"attr": {"clear_after_read": {"b": true}, "element_shape": {"shape": {"unknownRank": true}}, "identical_element_shapes": {"b": true}, "tensor_array_name": {"s": ""}, "dtype": {"type": "DT_FLOAT"}, "dynamic_size": {"b": false}}, "op": "TensorArrayV3", "input": ["Postprocessor/BatchMultiClassNonMaxSuppression/map/TensorArrayUnstack/strided_slice"], "name": "Postprocessor/BatchMultiClassNonMaxSuppression/map/TensorArray_9"}, {"attr": {"clear_after_read": {"b": true}, "element_shape": {"shape": {"unknownRank": true}}, "identical_element_shapes": {"b": true}, "tensor_array_name": {"s": ""}, "dtype": {"type": "DT_FLOAT"}, "dynamic_size": {"b": false}}, "op": "TensorArrayV3", "input": ["Postprocessor/BatchMultiClassNonMaxSuppression/map/TensorArrayUnstack/strided_slice"], "name": "Postprocessor/BatchMultiClassNonMaxSuppression/map/TensorArray_8"}, {"attr": {"clear_after_read": {"b": true}, "element_shape": {"shape": {"unknownRank": true}}, "identical_element_shapes": {"b": true}, "tensor_array_name": {"s": ""}, "dtype": {"type": "DT_INT32"}, "dynamic_size": {"b": false}}, "op": "TensorArrayV3", "input": ["Postprocessor/BatchMultiClassNonMaxSuppression/map/TensorArrayUnstack/strided_slice"], "name": "Postprocessor/BatchMultiClassNonMaxSuppression/map/TensorArray_13"}, {"attr": {"clear_after_read": {"b": true}, "element_shape": {"shape": {"unknownRank": true}}, "identical_element_shapes": {"b": true}, "tensor_array_name": {"s": ""}, "dtype": {"type": "DT_FLOAT"}, "dynamic_size": {"b": false}}, "op": "TensorArrayV3", "input": ["Postprocessor/BatchMultiClassNonMaxSuppression/map/TensorArrayUnstack/strided_slice"], "name": "Postprocessor/BatchMultiClassNonMaxSuppression/map/TensorArray_1"}, {"attr": {"Tidx": {"type": "DT_INT32"}}, "op": "Range", "input": ["Postprocessor/BatchMultiClassNonMaxSuppression/map/TensorArrayStack/range/start", "Postprocessor/BatchMultiClassNonMaxSuppression/map/TensorArrayUnstack/strided_slice", "Postprocessor/BatchMultiClassNonMaxSuppression/map/TensorArrayStack/range/delta"], "name": "Postprocessor/BatchMultiClassNonMaxSuppression/map/TensorArrayUnstack/range"}, {"attr": {"clear_after_read": {"b": true}, "element_shape": {"shape": {"unknownRank": true}}, "identical_element_shapes": {"b": true}, "tensor_array_name": {"s": ""}, "dtype": {"type": "DT_FLOAT"}, "dynamic_size": {"b": false}}, "op": "TensorArrayV3", "input": ["Postprocessor/BatchMultiClassNonMaxSuppression/map/TensorArrayUnstack/strided_slice"], "name": "Postprocessor/BatchMultiClassNonMaxSuppression/map/TensorArray"}, {"attr": {"clear_after_read": {"b": true}, "element_shape": {"shape": {"unknownRank": true}}, "identical_element_shapes": {"b": true}, "tensor_array_name": {"s": ""}, "dtype": {"type": "DT_INT32"}, "dynamic_size": {"b": false}}, "op": "TensorArrayV3", "input": ["Postprocessor/BatchMultiClassNonMaxSuppression/map/TensorArrayUnstack/strided_slice"], "name": "Postprocessor/BatchMultiClassNonMaxSuppression/map/TensorArray_6"}, {"attr": {"clear_after_read": {"b": true}, "element_shape": {"shape": {"unknownRank": true}}, "identical_element_shapes": {"b": true}, "tensor_array_name": {"s": ""}, "dtype": {"type": "DT_FLOAT"}, "dynamic_size": {"b": false}}, "op": "TensorArrayV3", "input": ["Postprocessor/BatchMultiClassNonMaxSuppression/map/TensorArrayUnstack/strided_slice"], "name": "Postprocessor/BatchMultiClassNonMaxSuppression/map/TensorArray_3"}, {"attr": {"frame_name": {"s": "UG9zdHByb2Nlc3Nvci9CYXRjaE11bHRpQ2xhc3NOb25NYXhTdXBwcmVzc2lvbi9tYXAvd2hpbGUvd2hpbGVfY29udGV4dA=="}, "T": {"type": "DT_INT32"}, "is_constant": {"b": true}, "parallel_iterations": {"i": "32"}}, "op": "Enter", "input": ["Postprocessor/BatchMultiClassNonMaxSuppression/map/TensorArrayUnstack/strided_slice"], "name": "Postprocessor/BatchMultiClassNonMaxSuppression/map/while/Less/Enter"}, {"attr": {"dtype": {"type": "DT_INT32"}, "value": {"tensor": {"tensorShape": {}, "dtype": "DT_INT32"}}}, "op": "Const", "input": ["^Postprocessor/BatchMultiClassNonMaxSuppression/map/TensorArrayUnstack/strided_slice"], "name": "ConstantFolding/Postprocessor/BatchMultiClassNonMaxSuppression/ones/packed_const_axis"}, {"attr": {"frame_name": {"s": "UG9zdHByb2Nlc3Nvci9CYXRjaE11bHRpQ2xhc3NOb25NYXhTdXBwcmVzc2lvbi9tYXAvd2hpbGUvd2hpbGVfY29udGV4dA=="}, "T": {"type": "DT_RESOURCE"}, "is_constant": {"b": true}, "parallel_iterations": {"i": "32"}}, "op": "Enter", "input": ["Postprocessor/BatchMultiClassNonMaxSuppression/map/TensorArray_7"], "name": "Postprocessor/BatchMultiClassNonMaxSuppression/map/while/TensorArrayWrite/TensorArrayWriteV3/Enter"}, {"attr": {"frame_name": {"s": "UG9zdHByb2Nlc3Nvci9CYXRjaE11bHRpQ2xhc3NOb25NYXhTdXBwcmVzc2lvbi9tYXAvd2hpbGUvd2hpbGVfY29udGV4dA=="}, "T": {"type": "DT_FLOAT"}, "is_constant": {"b": false}, "parallel_iterations": {"i": "32"}}, "op": "Enter", "input": ["Postprocessor/BatchMultiClassNonMaxSuppression/map/TensorArray_7:1"], "name": "Postprocessor/BatchMultiClassNonMaxSuppression/map/while/Enter_2"}, {"attr": {"frame_name": {"s": "UG9zdHByb2Nlc3Nvci9CYXRjaE11bHRpQ2xhc3NOb25NYXhTdXBwcmVzc2lvbi9tYXAvd2hpbGUvd2hpbGVfY29udGV4dA=="}, "T": {"type": "DT_RESOURCE"}, "is_constant": {"b": true}, "parallel_iterations": {"i": "32"}}, "op": "Enter", "input": ["Postprocessor/BatchMultiClassNonMaxSuppression/map/TensorArray_9"], "name": "Postprocessor/BatchMultiClassNonMaxSuppression/map/while/TensorArrayWrite_2/TensorArrayWriteV3/Enter"}, {"attr": {"frame_name": {"s": "UG9zdHByb2Nlc3Nvci9CYXRjaE11bHRpQ2xhc3NOb25NYXhTdXBwcmVzc2lvbi9tYXAvd2hpbGUvd2hpbGVfY29udGV4dA=="}, "T": {"type": "DT_FLOAT"}, "is_constant": {"b": false}, "parallel_iterations": {"i": "32"}}, "op": "Enter", "input": ["Postprocessor/BatchMultiClassNonMaxSuppression/map/TensorArray_9:1"], "name": "Postprocessor/BatchMultiClassNonMaxSuppression/map/while/Enter_4"}, {"attr": {"frame_name": {"s": "UG9zdHByb2Nlc3Nvci9CYXRjaE11bHRpQ2xhc3NOb25NYXhTdXBwcmVzc2lvbi9tYXAvd2hpbGUvd2hpbGVfY29udGV4dA=="}, "T": {"type": "DT_RESOURCE"}, "is_constant": {"b": true}, "parallel_iterations": {"i": "32"}}, "op": "Enter", "input": ["Postprocessor/BatchMultiClassNonMaxSuppression/map/TensorArray_8"], "name": "Postprocessor/BatchMultiClassNonMaxSuppression/map/while/TensorArrayWrite_1/TensorArrayWriteV3/Enter"}, {"attr": {"frame_name": {"s": "UG9zdHByb2Nlc3Nvci9CYXRjaE11bHRpQ2xhc3NOb25NYXhTdXBwcmVzc2lvbi9tYXAvd2hpbGUvd2hpbGVfY29udGV4dA=="}, "T": {"type": "DT_FLOAT"}, "is_constant": {"b": false}, "parallel_iterations": {"i": "32"}}, "op": "Enter", "input": ["Postprocessor/BatchMultiClassNonMaxSuppression/map/TensorArray_8:1"], "name": "Postprocessor/BatchMultiClassNonMaxSuppression/map/while/Enter_3"}, {"attr": {"frame_name": {"s": "UG9zdHByb2Nlc3Nvci9CYXRjaE11bHRpQ2xhc3NOb25NYXhTdXBwcmVzc2lvbi9tYXAvd2hpbGUvd2hpbGVfY29udGV4dA=="}, "T": {"type": "DT_RESOURCE"}, "is_constant": {"b": true}, "parallel_iterations": {"i": "32"}}, "op": "Enter", "input": ["Postprocessor/BatchMultiClassNonMaxSuppression/map/TensorArray_13"], "name": "Postprocessor/BatchMultiClassNonMaxSuppression/map/while/TensorArrayWrite_6/TensorArrayWriteV3/Enter"}, {"attr": {"frame_name": {"s": "UG9zdHByb2Nlc3Nvci9CYXRjaE11bHRpQ2xhc3NOb25NYXhTdXBwcmVzc2lvbi9tYXAvd2hpbGUvd2hpbGVfY29udGV4dA=="}, "T": {"type": "DT_FLOAT"}, "is_constant": {"b": false}, "parallel_iterations": {"i": "32"}}, "op": "Enter", "input": ["Postprocessor/BatchMultiClassNonMaxSuppression/map/TensorArray_13:1"], "name": "Postprocessor/BatchMultiClassNonMaxSuppression/map/while/Enter_8"}, {"attr": {"frame_name": {"s": "UG9zdHByb2Nlc3Nvci9CYXRjaE11bHRpQ2xhc3NOb25NYXhTdXBwcmVzc2lvbi9tYXAvd2hpbGUvd2hpbGVfY29udGV4dA=="}, "T": {"type": "DT_RESOURCE"}, "is_constant": {"b": true}, "parallel_iterations": {"i": "32"}}, "op": "Enter", "input": ["Postprocessor/BatchMultiClassNonMaxSuppression/map/TensorArray_1"], "name": "Postprocessor/BatchMultiClassNonMaxSuppression/map/while/TensorArrayReadV3_1/Enter"}, {"attr": {"T": {"type": "DT_FLOAT"}}, "op": "TensorArrayScatterV3", "input": ["Postprocessor/BatchMultiClassNonMaxSuppression/map/TensorArray_1", "Postprocessor/BatchMultiClassNonMaxSuppression/map/TensorArrayUnstack_1/range", "Postprocessor/Slice", "Postprocessor/BatchMultiClassNonMaxSuppression/map/TensorArray_1:1"], "name": "Postprocessor/BatchMultiClassNonMaxSuppression/map/TensorArrayUnstack_1/TensorArrayScatter/TensorArrayScatterV3"}, {"attr": {"frame_name": {"s": "UG9zdHByb2Nlc3Nvci9CYXRjaE11bHRpQ2xhc3NOb25NYXhTdXBwcmVzc2lvbi9tYXAvd2hpbGUvd2hpbGVfY29udGV4dA=="}, "T": {"type": "DT_RESOURCE"}, "is_constant": {"b": true}, "parallel_iterations": {"i": "32"}}, "op": "Enter", "input": ["Postprocessor/BatchMultiClassNonMaxSuppression/map/TensorArray"], "name": "Postprocessor/BatchMultiClassNonMaxSuppression/map/while/TensorArrayReadV3/Enter"}, {"attr": {"T": {"type": "DT_FLOAT"}}, "op": "TensorArrayScatterV3", "input": ["Postprocessor/BatchMultiClassNonMaxSuppression/map/TensorArray", "Postprocessor/BatchMultiClassNonMaxSuppression/map/TensorArrayUnstack/range", "Postprocessor/ExpandDims_1", "Postprocessor/BatchMultiClassNonMaxSuppression/map/TensorArray:1"], "name": "Postprocessor/BatchMultiClassNonMaxSuppression/map/TensorArrayUnstack/TensorArrayScatter/TensorArrayScatterV3"}, {"attr": {"frame_name": {"s": "UG9zdHByb2Nlc3Nvci9CYXRjaE11bHRpQ2xhc3NOb25NYXhTdXBwcmVzc2lvbi9tYXAvd2hpbGUvd2hpbGVfY29udGV4dA=="}, "T": {"type": "DT_RESOURCE"}, "is_constant": {"b": true}, "parallel_iterations": {"i": "32"}}, "op": "Enter", "input": ["Postprocessor/BatchMultiClassNonMaxSuppression/map/TensorArray_6"], "name": "Postprocessor/BatchMultiClassNonMaxSuppression/map/while/TensorArrayReadV3_6/Enter"}, {"attr": {"frame_name": {"s": "UG9zdHByb2Nlc3Nvci9CYXRjaE11bHRpQ2xhc3NOb25NYXhTdXBwcmVzc2lvbi9tYXAvd2hpbGUvd2hpbGVfY29udGV4dA=="}, "T": {"type": "DT_RESOURCE"}, "is_constant": {"b": true}, "parallel_iterations": {"i": "32"}}, "op": "Enter", "input": ["Postprocessor/BatchMultiClassNonMaxSuppression/map/TensorArray_3"], "name": "Postprocessor/BatchMultiClassNonMaxSuppression/map/while/TensorArrayReadV3_3/Enter"}, {"attr": {"T": {"type": "DT_FLOAT"}}, "op": "TensorArrayScatterV3", "input": ["Postprocessor/BatchMultiClassNonMaxSuppression/map/TensorArray_3", "Postprocessor/BatchMultiClassNonMaxSuppression/map/TensorArrayUnstack_3/range", "Postprocessor/stack_1", "Postprocessor/BatchMultiClassNonMaxSuppression/map/TensorArray_3:1"], "name": "Postprocessor/BatchMultiClassNonMaxSuppression/map/TensorArrayUnstack_3/TensorArrayScatter/TensorArrayScatterV3"}, {"attr": {"T": {"type": "DT_INT32"}}, "op": "Less", "input": ["Postprocessor/BatchMultiClassNonMaxSuppression/map/while/Merge", "Postprocessor/BatchMultiClassNonMaxSuppression/map/while/Less/Enter"], "name": "Postprocessor/BatchMultiClassNonMaxSuppression/map/while/Less"}, {"attr": {"T": {"type": "DT_INT32"}}, "op": "Less", "input": ["Postprocessor/BatchMultiClassNonMaxSuppression/map/while/Merge_1", "Postprocessor/BatchMultiClassNonMaxSuppression/map/while/Less/Enter"], "name": "Postprocessor/BatchMultiClassNonMaxSuppression/map/while/Less_1"}, {"attr": {"T": {"type": "DT_INT32"}, "Tdim": {"type": "DT_INT32"}}, "op": "ExpandDims", "input": ["Postprocessor/BatchMultiClassNonMaxSuppression/map/TensorArrayUnstack/strided_slice", "ConstantFolding/Postprocessor/BatchMultiClassNonMaxSuppression/ones/packed_const_axis"], "name": "Postprocessor/BatchMultiClassNonMaxSuppression/ones/packed"}, {"attr": {"T": {"type": "DT_FLOAT"}, "N": {"i": "2"}}, "op": "Merge", "input": ["Postprocessor/BatchMultiClassNonMaxSuppression/map/while/Enter_2", "Postprocessor/BatchMultiClassNonMaxSuppression/map/while/NextIteration_2"], "name": "Postprocessor/BatchMultiClassNonMaxSuppression/map/while/Merge_2"}, {"attr": {"T": {"type": "DT_FLOAT"}, "N": {"i": "2"}}, "op": "Merge", "input": ["Postprocessor/BatchMultiClassNonMaxSuppression/map/while/Enter_4", "Postprocessor/BatchMultiClassNonMaxSuppression/map/while/NextIteration_4"], "name": "Postprocessor/BatchMultiClassNonMaxSuppression/map/while/Merge_4"}, {"attr": {"T": {"type": "DT_FLOAT"}, "N": {"i": "2"}}, "op": "Merge", "input": ["Postprocessor/BatchMultiClassNonMaxSuppression/map/while/Enter_3", "Postprocessor/BatchMultiClassNonMaxSuppression/map/while/NextIteration_3"], "name": "Postprocessor/BatchMultiClassNonMaxSuppression/map/while/Merge_3"}, {"attr": {"T": {"type": "DT_FLOAT"}, "N": {"i": "2"}}, "op": "Merge", "input": ["Postprocessor/BatchMultiClassNonMaxSuppression/map/while/Enter_8", "Postprocessor/BatchMultiClassNonMaxSuppression/map/while/NextIteration_8"], "name": "Postprocessor/BatchMultiClassNonMaxSuppression/map/while/Merge_8"}, {"attr": {"frame_name": {"s": "UG9zdHByb2Nlc3Nvci9CYXRjaE11bHRpQ2xhc3NOb25NYXhTdXBwcmVzc2lvbi9tYXAvd2hpbGUvd2hpbGVfY29udGV4dA=="}, "T": {"type": "DT_FLOAT"}, "is_constant": {"b": true}, "parallel_iterations": {"i": "32"}}, "op": "Enter", "input": ["Postprocessor/BatchMultiClassNonMaxSuppression/map/TensorArrayUnstack_1/TensorArrayScatter/TensorArrayScatterV3"], "name": "Postprocessor/BatchMultiClassNonMaxSuppression/map/while/TensorArrayReadV3_1/Enter_1"}, {"attr": {"frame_name": {"s": "UG9zdHByb2Nlc3Nvci9CYXRjaE11bHRpQ2xhc3NOb25NYXhTdXBwcmVzc2lvbi9tYXAvd2hpbGUvd2hpbGVfY29udGV4dA=="}, "T": {"type": "DT_FLOAT"}, "is_constant": {"b": true}, "parallel_iterations": {"i": "32"}}, "op": "Enter", "input": ["Postprocessor/BatchMultiClassNonMaxSuppression/map/TensorArrayUnstack/TensorArrayScatter/TensorArrayScatterV3"], "name": "Postprocessor/BatchMultiClassNonMaxSuppression/map/while/TensorArrayReadV3/Enter_1"}, {"attr": {"frame_name": {"s": "UG9zdHByb2Nlc3Nvci9CYXRjaE11bHRpQ2xhc3NOb25NYXhTdXBwcmVzc2lvbi9tYXAvd2hpbGUvd2hpbGVfY29udGV4dA=="}, "T": {"type": "DT_FLOAT"}, "is_constant": {"b": true}, "parallel_iterations": {"i": "32"}}, "op": "Enter", "input": ["Postprocessor/BatchMultiClassNonMaxSuppression/map/TensorArrayUnstack_3/TensorArrayScatter/TensorArrayScatterV3"], "name": "Postprocessor/BatchMultiClassNonMaxSuppression/map/while/TensorArrayReadV3_3/Enter_1"}, {"op": "LogicalAnd", "input": ["Postprocessor/BatchMultiClassNonMaxSuppression/map/while/Less", "Postprocessor/BatchMultiClassNonMaxSuppression/map/while/Less_1"], "name": "Postprocessor/BatchMultiClassNonMaxSuppression/map/while/LogicalAnd"}, {"attr": {"T": {"type": "DT_INT32"}, "index_type": {"type": "DT_INT32"}}, "op": "Fill", "input": ["Postprocessor/BatchMultiClassNonMaxSuppression/ones/packed", "Postprocessor/BatchMultiClassNonMaxSuppression/map/TensorArrayStack/range/delta"], "name": "Postprocessor/BatchMultiClassNonMaxSuppression/ones"}, {"op": "LoopCond", "input": ["Postprocessor/BatchMultiClassNonMaxSuppression/map/while/LogicalAnd"], "name": "Postprocessor/BatchMultiClassNonMaxSuppression/map/while/LoopCond"}, {"attr": {"T": {"type": "DT_INT32"}}, "op": "Mul", "input": ["Postprocessor/BatchMultiClassNonMaxSuppression/ones", "Postprocessor/BatchMultiClassNonMaxSuppression/strided_slice_1"], "name": "Postprocessor/BatchMultiClassNonMaxSuppression/mul"}, {"attr": {"T": {"type": "DT_FLOAT"}}, "op": "Switch", "input": ["Postprocessor/BatchMultiClassNonMaxSuppression/map/while/Merge_2", "Postprocessor/BatchMultiClassNonMaxSuppression/map/while/LoopCond"], "name": "Postprocessor/BatchMultiClassNonMaxSuppression/map/while/Switch_2"}, {"attr": {"T": {"type": "DT_FLOAT"}}, "op": "Switch", "input": ["Postprocessor/BatchMultiClassNonMaxSuppression/map/while/Merge_4", "Postprocessor/BatchMultiClassNonMaxSuppression/map/while/LoopCond"], "name": "Postprocessor/BatchMultiClassNonMaxSuppression/map/while/Switch_4"}, {"attr": {"T": {"type": "DT_FLOAT"}}, "op": "Switch", "input": ["Postprocessor/BatchMultiClassNonMaxSuppression/map/while/Merge_3", "Postprocessor/BatchMultiClassNonMaxSuppression/map/while/LoopCond"], "name": "Postprocessor/BatchMultiClassNonMaxSuppression/map/while/Switch_3"}, {"attr": {"T": {"type": "DT_INT32"}}, "op": "Switch", "input": ["Postprocessor/BatchMultiClassNonMaxSuppression/map/while/Merge", "Postprocessor/BatchMultiClassNonMaxSuppression/map/while/LoopCond"], "name": "Postprocessor/BatchMultiClassNonMaxSuppression/map/while/Switch"}, {"attr": {"T": {"type": "DT_INT32"}}, "op": "Switch", "input": ["Postprocessor/BatchMultiClassNonMaxSuppression/map/while/Merge_1", "Postprocessor/BatchMultiClassNonMaxSuppression/map/while/LoopCond"], "name": "Postprocessor/BatchMultiClassNonMaxSuppression/map/while/Switch_1"}, {"attr": {"T": {"type": "DT_FLOAT"}}, "op": "Switch", "input": ["Postprocessor/BatchMultiClassNonMaxSuppression/map/while/Merge_8", "Postprocessor/BatchMultiClassNonMaxSuppression/map/while/LoopCond"], "name": "Postprocessor/BatchMultiClassNonMaxSuppression/map/while/Switch_8"}, {"attr": {"T": {"type": "DT_INT32"}, "out_type": {"type": "DT_INT32"}}, "op": "Shape", "input": ["Postprocessor/BatchMultiClassNonMaxSuppression/mul"], "name": "Postprocessor/BatchMultiClassNonMaxSuppression/map/TensorArrayUnstack_6/Shape"}, {"attr": {"T": {"type": "DT_FLOAT"}}, "op": "Exit", "input": ["Postprocessor/BatchMultiClassNonMaxSuppression/map/while/Switch_2"], "name": "P…
ect", "input": ["Postprocessor/BatchMultiClassNonMaxSuppression/map/while/MultiClassNonMaxSuppression/Greater", "Postprocessor/BatchMultiClassNonMaxSuppression/map/while/MultiClassNonMaxSuppression/Sum", "Postprocessor/BatchMultiClassNonMaxSuppression/map/while/MultiClassNonMaxSuppression/Minimum_3"], "name": "Postprocessor/BatchMultiClassNonMaxSuppression/map/while/MultiClassNonMaxSuppression/Select_4"}, {"attr": {"Tidx": {"type": "DT_INT32"}}, "op": "Range", "input": ["Postprocessor/BatchMultiClassNonMaxSuppression/map/while/PadOrClipBoxList/zeros_1/Const", "Postprocessor/BatchMultiClassNonMaxSuppression/map/while/MultiClassNonMaxSuppression/Select_4", "Postprocessor/BatchMultiClassNonMaxSuppression/map/while/MultiClassNonMaxSuppression/range_3/delta"], "name": "Postprocessor/BatchMultiClassNonMaxSuppression/map/while/MultiClassNonMaxSuppression/range_4"}, {"attr": {"T": {"type": "DT_INT32"}}, "op": "TensorArrayWriteV3", "input": ["Postprocessor/BatchMultiClassNonMaxSuppression/map/while/TensorArrayWrite_6/TensorArrayWriteV3/Enter", "Postprocessor/BatchMultiClassNonMaxSuppression/map/while/Switch_1:1", "Postprocessor/BatchMultiClassNonMaxSuppression/map/while/MultiClassNonMaxSuppression/Select_4", "Postprocessor/BatchMultiClassNonMaxSuppression/map/while/Switch_8:1"], "name": "Postprocessor/BatchMultiClassNonMaxSuppression/map/while/TensorArrayWrite_6/TensorArrayWriteV3"}, {"attr": {"Tindices": {"type": "DT_INT32"}, "Tparams": {"type": "DT_FLOAT"}, "batch_dims": {"i": "0"}, "Taxis": {"type": "DT_INT32"}}, "op": "GatherV2", "input": ["Postprocessor/BatchMultiClassNonMaxSuppression/map/while/MultiClassNonMaxSuppression/Gather_3/GatherV2_5", "Postprocessor/BatchMultiClassNonMaxSuppression/map/while/MultiClassNonMaxSuppression/range_4", "Postprocessor/BatchMultiClassNonMaxSuppression/map/while/PadOrClipBoxList/zeros_1/Const"], "name": "Postprocessor/BatchMultiClassNonMaxSuppression/map/while/MultiClassNonMaxSuppression/Gather_4/GatherV2_5"}, {"attr": {"Tindices": {"type": "DT_INT32"}, "Tparams": {"type": "DT_FLOAT"}, "batch_dims": {"i": "0"}, "Taxis": {"type": "DT_INT32"}}, "op": "GatherV2", "input": ["Postprocessor/BatchMultiClassNonMaxSuppression/map/while/MultiClassNonMaxSuppression/Gather_3/GatherV2_1", "Postprocessor/BatchMultiClassNonMaxSuppression/map/while/MultiClassNonMaxSuppression/range_4", "Postprocessor/BatchMultiClassNonMaxSuppression/map/while/PadOrClipBoxList/zeros_1/Const"], "name": "Postprocessor/BatchMultiClassNonMaxSuppression/map/while/MultiClassNonMaxSuppression/Gather_4/GatherV2_1"}, {"attr": {"Tindices": {"type": "DT_INT32"}, "Tparams": {"type": "DT_FLOAT"}, "batch_dims": {"i": "0"}, "Taxis": {"type": "DT_INT32"}}, "op": "GatherV2", "input": ["Postprocessor/BatchMultiClassNonMaxSuppression/map/while/MultiClassNonMaxSuppression/Gather_3/GatherV2_6", "Postprocessor/BatchMultiClassNonMaxSuppression/map/while/MultiClassNonMaxSuppression/range_4", "Postprocessor/BatchMultiClassNonMaxSuppression/map/while/PadOrClipBoxList/zeros_1/Const"], "name": "Postprocessor/BatchMultiClassNonMaxSuppression/map/while/MultiClassNonMaxSuppression/Gather_4/GatherV2_6"}, {"attr": {"T": {"type": "DT_FLOAT"}}, "op": "NextIteration", "input": ["Postprocessor/BatchMultiClassNonMaxSuppression/map/while/TensorArrayWrite_6/TensorArrayWriteV3"], "name": "Postprocessor/BatchMultiClassNonMaxSuppression/map/while/NextIteration_8"}, {"attr": {"T": {"type": "DT_FLOAT"}, "out_type": {"type": "DT_INT32"}}, "op": "Shape", "input": ["Postprocessor/BatchMultiClassNonMaxSuppression/map/while/MultiClassNonMaxSuppression/Gather_4/GatherV2_5"], "name": "Postprocessor/BatchMultiClassNonMaxSuppression/map/while/PadOrClipBoxList/Shape_10"}, {"attr": {"T": {"type": "DT_FLOAT"}, "out_type": {"type": "DT_INT32"}}, "op": "Shape", "input": ["Postprocessor/BatchMultiClassNonMaxSuppression/map/while/MultiClassNonMaxSuppression/Gather_4/GatherV2_1"], "name": "Postprocessor/BatchMultiClassNonMaxSuppression/map/while/PadOrClipBoxList/Shape_2"}, {"attr": {"T": {"type": "DT_FLOAT"}, "out_type": {"type": "DT_INT32"}}, "op": "Shape", "input": ["Postprocessor/BatchMultiClassNonMaxSuppression/map/while/MultiClassNonMaxSuppression/Gather_4/GatherV2_6"], "name": "Postprocessor/BatchMultiClassNonMaxSuppression/map/while/PadOrClipBoxList/Shape"}, {"attr": {"begin_mask": {"i": "0"}, "T": {"type": "DT_INT32"}, "new_axis_mask": {"i": "0"}, "Index": {"type": "DT_INT32"}, "shrink_axis_mask": {"i": "1"}, "ellipsis_mask": {"i": "0"}, "end_mask": {"i": "0"}}, "op": "StridedSlice", "input": ["Postprocessor/BatchMultiClassNonMaxSuppression/map/while/PadOrClipBoxList/Shape_10", "Postprocessor/BatchMultiClassNonMaxSuppression/map/while/PadOrClipBoxList/strided_slice_2/stack", "Postprocessor/BatchMultiClassNonMaxSuppression/map/while/PadOrClipBoxList/strided_slice_2/stack_1", "Postprocessor/BatchMultiClassNonMaxSuppression/map/while/PadOrClipBoxList/strided_slice_2/stack_1"], "name": "Postprocessor/BatchMultiClassNonMaxSuppression/map/while/PadOrClipBoxList/strided_slice_18"}, {"attr": {"begin_mask": {"i": "0"}, "T": {"type": "DT_INT32"}, "new_axis_mask": {"i": "0"}, "Index": {"type": "DT_INT32"}, "shrink_axis_mask": {"i": "1"}, "ellipsis_mask": {"i": "0"}, "end_mask": {"i": "0"}}, "op": "StridedSlice", "input": ["Postprocessor/BatchMultiClassNonMaxSuppression/map/while/PadOrClipBoxList/Shape_2", "Postprocessor/BatchMultiClassNonMaxSuppression/map/while/PadOrClipBoxList/strided_slice_2/stack", "Postprocessor/BatchMultiClassNonMaxSuppression/map/while/PadOrClipBoxList/strided_slice_2/stack_1", "Postprocessor/BatchMultiClassNonMaxSuppression/map/while/PadOrClipBoxList/strided_slice_2/stack_1"], "name": "Postprocessor/BatchMultiClassNonMaxSuppression/map/while/PadOrClipBoxList/strided_slice_4"}, {"attr": {"begin_mask": {"i": "0"}, "T": {"type": "DT_INT32"}, "new_axis_mask": {"i": "0"}, "Index": {"type": "DT_INT32"}, "shrink_axis_mask": {"i": "1"}, "ellipsis_mask": {"i": "0"}, "end_mask": {"i": "0"}}, "op": "StridedSlice", "input": ["Postprocessor/BatchMultiClassNonMaxSuppression/map/while/PadOrClipBoxList/Shape", "Postprocessor/BatchMultiClassNonMaxSuppression/map/while/PadOrClipBoxList/strided_slice_2/stack", "Postprocessor/BatchMultiClassNonMaxSuppression/map/while/PadOrClipBoxList/strided_slice_2/stack_1", "Postprocessor/BatchMultiClassNonMaxSuppression/map/while/PadOrClipBoxList/strided_slice_2/stack_1"], "name": "Postprocessor/BatchMultiClassNonMaxSuppression/map/while/PadOrClipBoxList/strided_slice"}, {"attr": {"begin_mask": {"i": "0"}, "T": {"type": "DT_INT32"}, "new_axis_mask": {"i": "0"}, "Index": {"type": "DT_INT32"}, "shrink_axis_mask": {"i": "1"}, "ellipsis_mask": {"i": "0"}, "end_mask": {"i": "0"}}, "op": "StridedSlice", "input": ["Postprocessor/BatchMultiClassNonMaxSuppression/map/while/PadOrClipBoxList/Shape", "Postprocessor/BatchMultiClassNonMaxSuppression/map/while/PadOrClipBoxList/strided_slice_2/stack_1", "Postprocessor/BatchMultiClassNonMaxSuppression/map/while/PadOrClipBoxList/zeros_1/shape_as_tensor", "Postprocessor/BatchMultiClassNonMaxSuppression/map/while/PadOrClipBoxList/strided_slice_2/stack_1"], "name": "Postprocessor/BatchMultiClassNonMaxSuppression/map/while/PadOrClipBoxList/strided_slice_1"}, {"attr": {"T": {"type": "DT_INT32"}}, "op": "Sub", "input": ["Postprocessor/BatchMultiClassNonMaxSuppression/map/while/PadOrClipBoxList/strided_slice_18", "Postprocessor/BatchMultiClassNonMaxSuppression/map/while/PadOrClipBoxList/sub_2/x"], "name": "Postprocessor/BatchMultiClassNonMaxSuppression/map/while/PadOrClipBoxList/sub_18"}, {"attr": {"T": {"type": "DT_INT32"}}, "op": "Sub", "input": ["Postprocessor/BatchMultiClassNonMaxSuppression/map/while/PadOrClipBoxList/strided_slice_4", "Postprocessor/BatchMultiClassNonMaxSuppression/map/while/PadOrClipBoxList/sub_2/x"], "name": "Postprocessor/BatchMultiClassNonMaxSuppression/map/while/PadOrClipBoxList/sub_4"}, {"attr": {"T": {"type": "DT_INT32"}}, "op": "Sub", "input": ["Postprocessor/BatchMultiClassNonMaxSuppression/map/while/PadOrClipBoxList/strided_slice", "Postprocessor/BatchMultiClassNonMaxSuppression/map/while/PadOrClipBoxList/sub_2/x"], "name": "Postprocessor/BatchMultiClassNonMaxSuppression/map/while/PadOrClipBoxList/sub"}, {"attr": {"T": {"type": "DT_INT32"}}, "op": "Sub", "input": ["Postprocessor/BatchMultiClassNonMaxSuppression/map/while/PadOrClipBoxList/strided_slice_1", "Postprocessor/BatchMultiClassNonMaxSuppression/map/while/PadOrClipBoxList/sub_3/x"], "name": "Postprocessor/BatchMultiClassNonMaxSuppression/map/while/PadOrClipBoxList/sub_1"}, {"attr": {"T": {"type": "DT_INT32"}}, "op": "Greater", "input": ["Postprocessor/BatchMultiClassNonMaxSuppression/map/while/PadOrClipBoxList/sub_18", "Postprocessor/BatchMultiClassNonMaxSuppression/map/while/PadOrClipBoxList/zeros_1/Const"], "name": "Postprocessor/BatchMultiClassNonMaxSuppression/map/while/PadOrClipBoxList/Greater_9"}, {"attr": {"T": {"type": "DT_INT32"}}, "op": "Greater", "input": ["Postprocessor/BatchMultiClassNonMaxSuppression/map/while/PadOrClipBoxList/sub_4", "Postprocessor/BatchMultiClassNonMaxSuppression/map/while/PadOrClipBoxList/zeros_1/Const"], "name": "Postprocessor/BatchMultiClassNonMaxSuppression/map/while/PadOrClipBoxList/Greater_2"}, {"attr": {"T": {"type": "DT_INT32"}}, "op": "Greater", "input": ["Postprocessor/BatchMultiClassNonMaxSuppression/map/while/PadOrClipBoxList/sub", "Postprocessor/BatchMultiClassNonMaxSuppression/map/while/PadOrClipBoxList/zeros_1/Const"], "name": "Postprocessor/BatchMultiClassNonMaxSuppression/map/while/PadOrClipBoxList/Greater"}, {"attr": {"T": {"type": "DT_INT32"}}, "op": "Greater", "input": ["Postprocessor/BatchMultiClassNonMaxSuppression/map/while/PadOrClipBoxList/sub_1", "Postprocessor/BatchMultiClassNonMaxSuppression/map/while/PadOrClipBoxList/zeros_1/Const"], "name": "Postprocessor/BatchMultiClassNonMaxSuppression/map/while/PadOrClipBoxList/Greater_1"}, {"attr": {"T": {"type": "DT_INT32"}}, "op": "Select", "input": ["Postprocessor/BatchMultiClassNonMaxSuppression/map/while/PadOrClipBoxList/Greater_9", "Postprocessor/BatchMultiClassNonMaxSuppression/map/while/PadOrClipBoxList/sub_2/x", "Postprocessor/BatchMultiClassNonMaxSuppression/map/while/PadOrClipBoxList/Select/e"], "name": "Postprocessor/BatchMultiClassNonMaxSuppression/map/while/PadOrClipBoxList/Select_9"}, {"attr": {"T": {"type": "DT_INT32"}}, "op": "Select", "input": ["Postprocessor/BatchMultiClassNonMaxSuppression/map/while/PadOrClipBoxList/Greater_2", "Postprocessor/BatchMultiClassNonMaxSuppression/map/while/PadOrClipBoxList/sub_2/x", "Postprocessor/BatchMultiClassNonMaxSuppression/map/while/PadOrClipBoxList/Select/e"], "name": "Postprocessor/BatchMultiClassNonMaxSuppression/map/while/PadOrClipBoxList/Select_2"}, {"attr": {"T": {"type": "DT_INT32"}}, "op": "Select", "input": ["Postprocessor/BatchMultiClassNonMaxSuppression/map/while/PadOrClipBoxList/Greater", "Postprocessor/BatchMultiClassNonMaxSuppression/map/while/PadOrClipBoxList/sub_2/x", "Postprocessor/BatchMultiClassNonMaxSuppression/map/while/PadOrClipBoxList/Select/e"], "name": "Postprocessor/BatchMultiClassNonMaxSuppression/map/while/PadOrClipBoxList/Select"}, {"attr": {"T": {"type": "DT_INT32"}}, "op": "Select", "input": ["Postprocessor/BatchMultiClassNonMaxSuppression/map/while/PadOrClipBoxList/Greater_1", "Postprocessor/BatchMultiClassNonMaxSuppression/map/while/PadOrClipBoxList/sub_3/x", "Postprocessor/BatchMultiClassNonMaxSuppression/map/while/PadOrClipBoxList/Select/e"], "name": "Postprocessor/BatchMultiClassNonMaxSuppression/map/while/PadOrClipBoxList/Select_1"}, {"attr": {"dtype": {"type": "DT_INT32"}, "value": {"tensor": {"tensorShape": {}, "dtype": "DT_INT32"}}}, "op": "Const", "input": ["^Postprocessor/BatchMultiClassNonMaxSuppression/map/while/PadOrClipBoxList/Select_9"], "name": "ConstantFolding/Postprocessor/BatchMultiClassNonMaxSuppression/map/while/PadOrClipBoxList/Slice_5/size_const_axis"}, {"attr": {"dtype": {"type": "DT_INT32"}, "value": {"tensor": {"tensorShape": {}, "dtype": "DT_INT32"}}}, "op": "Const", "input": ["^Postprocessor/BatchMultiClassNonMaxSuppression/map/while/PadOrClipBoxList/Select_2"], "name": "ConstantFolding/Postprocessor/BatchMultiClassNonMaxSuppression/map/while/PadOrClipBoxList/Slice_1/size_const_axis"}, {"attr": {"N": {"i": "2"}, "T": {"type": "DT_INT32"}, "axis": {"i": "0"}}, "op": "Pack", "input": ["Postprocessor/BatchMultiClassNonMaxSuppression/map/while/PadOrClipBoxList/Select", "Postprocessor/BatchMultiClassNonMaxSuppression/map/while/PadOrClipBoxList/Select_1"], "name": "Postprocessor/BatchMultiClassNonMaxSuppression/map/while/PadOrClipBoxList/Slice/size"}, {"attr": {"T": {"type": "DT_INT32"}, "Tdim": {"type": "DT_INT32"}}, "op": "ExpandDims", "input": ["Postprocessor/BatchMultiClassNonMaxSuppression/map/while/PadOrClipBoxList/Select_9", "ConstantFolding/Postprocessor/BatchMultiClassNonMaxSuppression/map/while/PadOrClipBoxList/Slice_5/size_const_axis"], "name": "Postprocessor/BatchMultiClassNonMaxSuppression/map/while/PadOrClipBoxList/Slice_5/size"}, {"attr": {"T": {"type": "DT_INT32"}, "Tdim": {"type": "DT_INT32"}}, "op": "ExpandDims", "input": ["Postprocessor/BatchMultiClassNonMaxSuppression/map/while/PadOrClipBoxList/Select_2", "ConstantFolding/Postprocessor/BatchMultiClassNonMaxSuppression/map/while/PadOrClipBoxList/Slice_1/size_const_axis"], "name": "Postprocessor/BatchMultiClassNonMaxSuppression/map/while/PadOrClipBoxList/Slice_1/size"}, {"attr": {"T": {"type": "DT_FLOAT"}, "Index": {"type": "DT_INT32"}}, "op": "Slice", "input": ["Postprocessor/BatchMultiClassNonMaxSuppression/map/while/MultiClassNonMaxSuppression/Gather_4/GatherV2_6", "Postprocessor/BatchMultiClassNonMaxSuppression/map/while/PadOrClipBoxList/zeros_1", "Postprocessor/BatchMultiClassNonMaxSuppression/map/while/PadOrClipBoxList/Slice/size"], "name": "Postprocessor/BatchMultiClassNonMaxSuppression/map/while/PadOrClipBoxList/Slice"}, {"attr": {"T": {"type": "DT_FLOAT"}, "Index": {"type": "DT_INT32"}}, "op": "Slice", "input": ["Postprocessor/BatchMultiClassNonMaxSuppression/map/while/MultiClassNonMaxSuppression/Gather_4/GatherV2_5", "Postprocessor/BatchMultiClassNonMaxSuppression/map/while/PadOrClipBoxList/zeros_11", "Postprocessor/BatchMultiClassNonMaxSuppression/map/while/PadOrClipBoxList/Slice_5/size"], "name": "Postprocessor/BatchMultiClassNonMaxSuppression/map/while/PadOrClipBoxList/Slice_5"}, {"attr": {"T": {"type": "DT_FLOAT"}, "Index": {"type": "DT_INT32"}}, "op": "Slice", "input": ["Postprocessor/BatchMultiClassNonMaxSuppression/map/while/MultiClassNonMaxSuppression/Gather_4/GatherV2_1", "Postprocessor/BatchMultiClassNonMaxSuppression/map/while/PadOrClipBoxList/zeros_11", "Postprocessor/BatchMultiClassNonMaxSuppression/map/while/PadOrClipBoxList/Slice_1/size"], "name": "Postprocessor/BatchMultiClassNonMaxSuppression/map/while/PadOrClipBoxList/Slice_1"}, {"attr": {"T": {"type": "DT_FLOAT"}, "out_type": {"type": "DT_INT32"}}, "op": "Shape", "input": ["Postprocessor/BatchMultiClassNonMaxSuppression/map/while/PadOrClipBoxList/Slice"], "name": "Postprocessor/BatchMultiClassNonMaxSuppression/map/while/PadOrClipBoxList/Shape_1"}, {"attr": {"T": {"type": "DT_FLOAT"}, "out_type": {"type": "DT_INT32"}}, "op": "Shape", "input": ["Postprocessor/BatchMultiClassNonMaxSuppression/map/while/PadOrClipBoxList/Slice_5"], "name": "Postprocessor/BatchMultiClassNonMaxSuppression/map/while/PadOrClipBoxList/Shape_11"}, {"attr": {"T": {"type": "DT_FLOAT"}, "out_type": {"type": "DT_INT32"}}, "op": "Shape", "input": ["Postprocessor/BatchMultiClassNonMaxSuppression/map/while/PadOrClipBoxList/Slice_1"], "name": "Postprocessor/BatchMultiClassNonMaxSuppression/map/while/PadOrClipBoxList/Shape_3"}, {"attr": {"ellipsis_mask": {"i": "0"}, "T": {"type": "DT_INT32"}, "end_mask": {"i": "0"}, "Index": {"type": "DT_INT32"}, "shrink_axis_mask": {"i": "1"}, "begin_mask": {"i": "0"}, "new_axis_mask": {"i": "0"}}, "op": "StridedSlice", "input": ["Postprocessor/BatchMultiClassNonMaxSuppression/map/while/PadOrClipBoxList/Shape_1", "Postprocessor/BatchMultiClassNonMaxSuppression/map/while/PadOrClipBoxList/strided_slice_2/stack", "Postprocessor/BatchMultiClassNonMaxSuppression/map/while/PadOrClipBoxList/strided_slice_2/stack_1", "Postprocessor/BatchMultiClassNonMaxSuppression/map/while/PadOrClipBoxList/strided_slice_2/stack_1"], "name": "Postprocessor/BatchMultiClassNonMaxSuppression/map/while/PadOrClipBoxList/strided_slice_2"}, {"attr": {"ellipsis_mask": {"i": "0"}, "T": {"type": "DT_INT32"}, "new_axis_mask": {"i": "0"}, "Index": {"type": "DT_INT32"}, "shrink_axis_mask": {"i": "1"}, "begin_mask": {"i": "0"}, "end_mask": {"i": "0"}}, "op": "StridedSlice", "input": ["Postprocessor/BatchMultiClassNonMaxSuppression/map/while/PadOrClipBoxList/Shape_1", "Postprocessor/BatchMultiClassNonMaxSuppression/map/while/PadOrClipBoxList/strided_slice_2/stack_1", "Postprocessor/BatchMultiClassNonMaxSuppression/map/while/PadOrClipBoxList/zeros_1/shape_as_tensor", "Postprocessor/BatchMultiClassNonMaxSuppression/map/while/PadOrClipBoxList/strided_slice_2/stack_1"], "name": "Postprocessor/BatchMultiClassNonMaxSuppression/map/while/PadOrClipBoxList/strided_slice_3"}, {"attr": {"ellipsis_mask": {"i": "0"}, "T": {"type": "DT_INT32"}, "new_axis_mask": {"i": "0"}, "Index": {"type": "DT_INT32"}, "shrink_axis_mask": {"i": "1"}, "begin_mask": {"i": "0"}, "end_mask": {"i": "0"}}, "op": "StridedSlice", "input": ["Postprocessor/BatchMultiClassNonMaxSuppression/map/while/PadOrClipBoxList/Shape_11", "Postprocessor/BatchMultiClassNonMaxSuppression/map/while/PadOrClipBoxList/strided_slice_2/stack", "Postprocessor/BatchMultiClassNonMaxSuppression/map/while/PadOrClipBoxList/strided_slice_2/stack_1", "Postprocessor/BatchMultiClassNonMaxSuppression/map/while/PadOrClipBoxList/strided_slice_2/stack_1"], "name": "Postprocessor/BatchMultiClassNonMaxSuppression/map/while/PadOrClipBoxList/strided_slice_19"}, {"attr": {"begin_mask": {"i": "0"}, "T": {"type": "DT_INT32"}, "new_axis_mask": {"i": "0"}, "Index": {"type": "DT_INT32"}, "shrink_axis_mask": {"i": "1"}, "ellipsis_mask": {"i": "0"}, "end_mask": {"i": "0"}}, "op": "StridedSlice", "input": ["Postprocessor/BatchMultiClassNonMaxSuppression/map/while/PadOrClipBoxList/Shape_3", "Postprocessor/BatchMultiClassNonMaxSuppression/map/while/PadOrClipBoxList/strided_slice_2/stack", "Postprocessor/BatchMultiClassNonMaxSuppression/map/while/PadOrClipBoxList/strided_slice_2/stack_1", "Postprocessor/BatchMultiClassNonMaxSuppression/map/while/PadOrClipBoxList/strided_slice_2/stack_1"], "name": "Postprocessor/BatchMultiClassNonMaxSuppression/map/while/PadOrClipBoxList/strided_slice_5"}, {"attr": {"T": {"type": "DT_INT32"}}, "op": "Sub", "input": ["Postprocessor/BatchMultiClassNonMaxSuppression/map/while/PadOrClipBoxList/sub_2/x", "Postprocessor/BatchMultiClassNonMaxSuppression/map/while/PadOrClipBoxList/strided_slice_2"], "name": "Postprocessor/BatchMultiClassNonMaxSuppression/map/while/PadOrClipBoxList/sub_2"}, {"attr": {"T": {"type": "DT_INT32"}}, "op": "Sub", "input": ["Postprocessor/BatchMultiClassNonMaxSuppression/map/while/PadOrClipBoxList/sub_3/x", "Postprocessor/BatchMultiClassNonMaxSuppression/map/while/PadOrClipBoxList/strided_slice_3"], "name": "Postprocessor/BatchMultiClassNonMaxSuppression/map/while/PadOrClipBoxList/sub_3"}, {"attr": {"T": {"type": "DT_INT32"}}, "op": "Sub", "input": ["Postprocessor/BatchMultiClassNonMaxSuppression/map/while/PadOrClipBoxList/sub_2/x", "Postprocessor/BatchMultiClassNonMaxSuppression/map/while/PadOrClipBoxList/strided_slice_19"], "name": "Postprocessor/BatchMultiClassNonMaxSuppression/map/while/PadOrClipBoxList/sub_19"}, {"attr": {"T": {"type": "DT_INT32"}}, "op": "Sub", "input": ["Postprocessor/BatchMultiClassNonMaxSuppression/map/while/PadOrClipBoxList/sub_2/x", "Postprocessor/BatchMultiClassNonMaxSuppression/map/while/PadOrClipBoxList/strided_slice_5"], "name": "Postprocessor/BatchMultiClassNonMaxSuppression/map/while/PadOrClipBoxList/sub_5"}, {"attr": {"N": {"i": "2"}, "T": {"type": "DT_INT32"}, "axis": {"i": "0"}}, "op": "Pack", "input": ["Postprocessor/BatchMultiClassNonMaxSuppression/map/while/PadOrClipBoxList/sub_2", "Postprocessor/BatchMultiClassNonMaxSuppression/map/while/PadOrClipBoxList/sub_3"], "name": "Postprocessor/BatchMultiClassNonMaxSuppression/map/while/PadOrClipBoxList/stack/values_1"}, {"attr": {"dtype": {"type": "DT_INT32"}, "value": {"tensor": {"tensorShape": {}, "dtype": "DT_INT32"}}}, "op": "Const", "input": ["^Postprocessor/BatchMultiClassNonMaxSuppression/map/while/PadOrClipBoxList/sub_19"], "name": "ConstantFolding/Postprocessor/BatchMultiClassNonMaxSuppression/map/while/PadOrClipBoxList/stack_5/values_1_const_axis"}, {"attr": {"dtype": {"type": "DT_INT32"}, "value": {"tensor": {"tensorShape": {}, "dtype": "DT_INT32"}}}, "op": "Const", "input": ["^Postprocessor/BatchMultiClassNonMaxSuppression/map/while/PadOrClipBoxList/sub_5"], "name": "ConstantFolding/Postprocessor/BatchMultiClassNonMaxSuppression/map/while/PadOrClipBoxList/stack_1/values_1_const_axis"}, {"attr": {"N": {"i": "2"}, "T": {"type": "DT_INT32"}, "axis": {"i": "1"}}, "op": "Pack", "input": ["Postprocessor/BatchMultiClassNonMaxSuppression/map/while/PadOrClipBoxList/zeros_1", "Postprocessor/BatchMultiClassNonMaxSuppression/map/while/PadOrClipBoxList/stack/values_1"], "name": "Postprocessor/BatchMultiClassNonMaxSuppression/map/while/PadOrClipBoxList/stack"}, {"attr": {"T": {"type": "DT_INT32"}, "Tdim": {"type": "DT_INT32"}}, "op": "ExpandDims", "input": ["Postprocessor/BatchMultiClassNonMaxSuppression/map/while/PadOrClipBoxList/sub_19", "ConstantFolding/Postprocessor/BatchMultiClassNonMaxSuppression/map/while/PadOrClipBoxList/stack_5/values_1_const_axis"], "name": "Postprocessor/BatchMultiClassNonMaxSuppression/map/while/PadOrClipBoxList/stack_5/values_1"}, {"attr": {"T": {"type": "DT_INT32"}, "Tdim": {"type": "DT_INT32"}}, "op": "ExpandDims", "input": ["Postprocessor/BatchMultiClassNonMaxSuppression/map/while/PadOrClipBoxList/sub_5", "ConstantFolding/Postprocessor/BatchMultiClassNonMaxSuppression/map/while/PadOrClipBoxList/stack_1/values_1_const_axis"], "name": "Postprocessor/BatchMultiClassNonMaxSuppression/map/while/PadOrClipBoxList/stack_1/values_1"}, {"attr": {"T": {"type": "DT_FLOAT"}, "Tpaddings": {"type": "DT_INT32"}}, "op": "Pad", "input": ["Postprocessor/BatchMultiClassNonMaxSuppression/map/while/PadOrClipBoxList/Slice", "Postprocessor/BatchMultiClassNonMaxSuppression/map/while/PadOrClipBoxList/stack"], "name": "Postprocessor/BatchMultiClassNonMaxSuppression/map/while/PadOrClipBoxList/Pad"}, {"attr": {"T": {"type": "DT_INT32"}, "N": {"i": "2"}, "axis": {"i": "1"}}, "op": "Pack", "input": ["Postprocessor/BatchMultiClassNonMaxSuppression/map/while/PadOrClipBoxList/zeros_11", "Postprocessor/BatchMultiClassNonMaxSuppression/map/while/PadOrClipBoxList/stack_5/values_1"], "name": "Postprocessor/BatchMultiClassNonMaxSuppression/map/while/PadOrClipBoxList/stack_5"}, {"attr": {"N": {"i": "2"}, "T": {"type": "DT_INT32"}, "axis": {"i": "1"}}, "op": "Pack", "input": ["Postprocessor/BatchMultiClassNonMaxSuppression/map/while/PadOrClipBoxList/zeros_11", "Postprocessor/BatchMultiClassNonMaxSuppression/map/while/PadOrClipBoxList/stack_1/values_1"], "name": "Postprocessor/BatchMultiClassNonMaxSuppression/map/while/PadOrClipBoxList/stack_1"}, {"attr": {"T": {"type": "DT_FLOAT"}}, "op": "TensorArrayWriteV3", "input": ["Postprocessor/BatchMultiClassNonMaxSuppression/map/while/TensorArrayWrite/TensorArrayWriteV3/Enter", "Postprocessor/BatchMultiClassNonMaxSuppression/map/while/Switch_1:1", "Postprocessor/BatchMultiClassNonMaxSuppression/map/while/PadOrClipBoxList/Pad", "Postprocessor/BatchMultiClassNonMaxSuppression/map/while/Switch_2:1"], "name": "Postprocessor/BatchMultiClassNonMaxSuppression/map/while/TensorArrayWrite/TensorArrayWriteV3"}, {"attr": {"T": {"type": "DT_FLOAT"}, "Tpaddings": {"type": "DT_INT32"}}, "op": "Pad", "input": ["Postprocessor/BatchMultiClassNonMaxSuppression/map/while/PadOrClipBoxList/Slice_5", "Postprocessor/BatchMultiClassNonMaxSuppression/map/while/PadOrClipBoxList/stack_5"], "name": "Postprocessor/BatchMultiClassNonMaxSuppression/map/while/PadOrClipBoxList/Pad_5"}, {"attr": {"T": {"type": "DT_FLOAT"}, "Tpaddings": {"type": "DT_INT32"}}, "op": "Pad", "input": ["Postprocessor/BatchMultiClassNonMaxSuppression/map/while/PadOrClipBoxList/Slice_1", "Postprocessor/BatchMultiClassNonMaxSuppression/map/while/PadOrClipBoxList/stack_1"], "name": "Postprocessor/BatchMultiClassNonMaxSuppression/map/while/PadOrClipBoxList/Pad_1"}, {"attr": {"T": {"type": "DT_FLOAT"}}, "op": "NextIteration", "input": ["Postprocessor/BatchMultiClassNonMaxSuppression/map/while/TensorArrayWrite/TensorArrayWriteV3"], "name": "Postprocessor/BatchMultiClassNonMaxSuppression/map/while/NextIteration_2"}, {"attr": {"T": {"type": "DT_FLOAT"}}, "op": "TensorArrayWriteV3", "input": ["Postprocessor/BatchMultiClassNonMaxSuppression/map/while/TensorArrayWrite_2/TensorArrayWriteV3/Enter", "Postprocessor/BatchMultiClassNonMaxSuppression/map/while/Switch_1:1", "Postprocessor/BatchMultiClassNonMaxSuppression/map/while/PadOrClipBoxList/Pad_5", "Postprocessor/BatchMultiClassNonMaxSuppression/map/while/Switch_4:1"], "name": "Postprocessor/BatchMultiClassNonMaxSuppression/map/while/TensorArrayWrite_2/TensorArrayWriteV3"}, {"attr": {"T": {"type": "DT_FLOAT"}}, "op": "TensorArrayWriteV3", "input": ["Postprocessor/BatchMultiClassNonMaxSuppression/map/while/TensorArrayWrite_1/TensorArrayWriteV3/Enter", "Postprocessor/BatchMultiClassNonMaxSuppression/map/while/Switch_1:1", "Postprocessor/BatchMultiClassNonMaxSuppression/map/while/PadOrClipBoxList/Pad_1", "Postprocessor/BatchMultiClassNonMaxSuppression/map/while/Switch_3:1"], "name": "Postprocessor/BatchMultiClassNonMaxSuppression/map/while/TensorArrayWrite_1/TensorArrayWriteV3"}, {"attr": {"T": {"type": "DT_FLOAT"}}, "op": "NextIteration", "input": ["Postprocessor/BatchMultiClassNonMaxSuppression/map/while/TensorArrayWrite_2/TensorArrayWriteV3"], "name": "Postprocessor/BatchMultiClassNonMaxSuppression/map/while/NextIteration_4"}, {"attr": {"T": {"type": "DT_FLOAT"}}, "op": "NextIteration", "input": ["Postprocessor/BatchMultiClassNonMaxSuppression/map/while/TensorArrayWrite_1/TensorArrayWriteV3"], "name": "Postprocessor/BatchMultiClassNonMaxSuppression/map/while/NextIteration_3"}], "versions": {}}, "weightsManifest": [{"weights": [{"dtype": "float32", "name": "BoxPredictor_0/ClassPredictor/weights", "shape": [1, 1, 576, 12]}, {"dtype": "float32", "name": "BoxPredictor_0/ClassPredictor/biases", "shape": [12]}, {"dtype": "float32", "name": "BoxPredictor_1/ClassPredictor/weights", "shape": [1, 1, 1280, 24]}, {"dtype": "float32", "name": "BoxPredictor_1/ClassPredictor/biases", "shape": [24]}, {"dtype": "float32", "name": "BoxPredictor_2/ClassPredictor/weights", "shape": [1, 1, 512, 24]}, {"dtype": "float32", "name": "BoxPredictor_2/ClassPredictor/biases", "shape": [24]}, {"dtype": "float32", "name": "BoxPredictor_3/ClassPredictor/weights", "shape": [1, 1, 256, 24]}, {"dtype": "float32", "name": "BoxPredictor_3/ClassPredictor/biases", "shape": [24]}, {"dtype": "float32", "name": "BoxPredictor_4/ClassPredictor/weights", "shape": [1, 1, 256, 24]}, {"dtype": "float32", "name": "BoxPredictor_4/ClassPredictor/biases", "shape": [24]}, {"dtype": "float32", "name": "BoxPredictor_5/ClassPredictor/weights", "shape": [1, 1, 128, 24]}, {"dtype": "float32", "name": "BoxPredictor_5/ClassPredictor/biases", "shape": [24]}, {"dtype": "int32", "name": "Postprocessor/Slice/begin", "shape": [3]}, {"dtype": "int32", "name": "Postprocessor/Slice/size", "shape": [3]}, {"dtype": "float32", "name": "ConstantFolding/Postprocessor/truediv_recip", "shape": []}, {"dtype": "float32", "name": "ConstantFolding/Postprocessor/Decode/truediv_recip", "shape": []}, {"dtype": "float32", "name": "ConstantFolding/Postprocessor/Decode/truediv_2_recip", "shape": []}, {"dtype": "float32", "name": "ConstantFolding/Postprocessor/Decode/truediv_4_recip", "shape": []}, {"dtype": "float32", "name": "Postprocessor/ExpandDims", "shape": [1, 1917, 4]}, {"dtype": "int32", "name": "Postprocessor/Reshape_1/shape", "shape": [2]}, {"dtype": "int32", "name": "Postprocessor/Decode/transpose/perm", "shape": [2]}, {"dtype": "float32", "name": "BoxPredictor_0/BoxEncodingPredictor/weights", "shape": [1, 1, 576, 12]}, {"dtype": "float32", "name": "BoxPredictor_0/BoxEncodingPredictor/biases", "shape": [12]}, {"dtype": "float32", "name": "BoxPredictor_1/BoxEncodingPredictor/weights", "shape": [1, 1, 1280, 24]}, {"dtype": "float32", "name": "BoxPredictor_1/BoxEncodingPredictor/biases", "shape": [24]}, {"dtype": "float32", "name": "BoxPredictor_2/BoxEncodingPredictor/weights", "shape": [1, 1, 512, 24]}, {"dtype": "float32", "name": "BoxPredictor_2/BoxEncodingPredictor/biases", "shape": [24]}, {"dtype": "float32", "name": "BoxPredictor_3/BoxEncodingPredictor/weights", "shape": [1, 1, 256, 24]}, {"dtype": "float32", "name": "BoxPredictor_3/BoxEncodingPredictor/biases", "shape": [24]}, {"dtype": "float32", "name": "BoxPredictor_4/BoxEncodingPredictor/weights", "shape": [1, 1, 256, 24]}, {"dtype": "float32", "name": "BoxPredictor_4/BoxEncodingPredictor/biases", "shape": [24]}, {"dtype": "float32", "name": "BoxPredictor_5/BoxEncodingPredictor/weights", "shape": [1, 1, 128, 24]}, {"dtype": "float32", "name": "BoxPredictor_5/BoxEncodingPredictor/biases", "shape": [24]}, {"dtype": "int32", "name": "Postprocessor/BatchMultiClassNonMaxSuppression/map/TensorArrayStack/range/start", "shape": []}, {"dtype": "float32", "name": "Preprocessor/mul/x", "shape": []}, {"dtype": "float32", "name": "add/y", "shape": []}, {"dtype": "int32", "name": "BoxPredictor_0/Reshape_1/shape/1", "shape": []}, {"dtype": "int32", "name": "Postprocessor/BatchMultiClassNonMaxSuppression/map/TensorArrayStack/range/delta", "shape": []}, {"dtype": "int32", "name": "Postprocessor/BatchMultiClassNonMaxSuppression/strided_slice_1/stack_1", "shape": [1]}, {"dtype": "int32", "name": "BoxPredictor_0/Reshape_1/shape/2", "shape": []}, {"dtype": "int32", "name": "Postprocessor/ExpandDims_1/dim", "shape": []}, {"dtype": "int32", "name": "Postprocessor/BatchMultiClassNonMaxSuppression/map/TensorArrayUnstack_1/strided_slice/stack", "shape": [1]}, {"dtype": "int32", "name": "Postprocessor/BatchMultiClassNonMaxSuppression/map/TensorArrayUnstack_1/strided_slice/stack_1", "shape": [1]}, {"dtype": "float32", "name": "FeatureExtractor/MobilenetV2/Conv/Conv2D_weights", "shape": [3, 3, 3, 32]}, {"dtype": "float32", "name": "FeatureExtractor/MobilenetV2/Conv/Conv2D_bn_offset", "shape": [32]}, {"dtype": "float32", "name": "FeatureExtractor/MobilenetV2/expanded_conv/depthwise/depthwise_weights", "shape": [3, 3, 32, 1]}, {"dtype": "float32", "name": "FeatureExtractor/MobilenetV2/expanded_conv/depthwise/depthwise_bn_offset", "shape": [32]}, {"dtype": "float32", "name": "FeatureExtractor/MobilenetV2/expanded_conv/project/Conv2D_weights", "shape": [1, 1, 32, 16]}, {"dtype": "float32", "name": "FeatureExtractor/MobilenetV2/expanded_conv/project/Conv2D_bn_offset", "shape": [16]}, {"dtype": "float32", "name": "FeatureExtractor/MobilenetV2/expanded_conv_1/expand/Conv2D_weights", "shape": [1, 1, 16, 96]}, {"dtype": "float32", "name": "FeatureExtractor/MobilenetV2/expanded_conv_1/expand/Conv2D_bn_offset", "shape": [96]}, {"dtype": "float32", "name": "FeatureExtractor/MobilenetV2/expanded_conv_1/depthwise/depthwise_weights", "shape": [3, 3, 96, 1]}, {"dtype": "float32", "name": "FeatureExtractor/MobilenetV2/expanded_conv_1/depthwise/depthwise_bn_offset", "shape": [96]}, {"dtype": "float32", "name": "FeatureExtractor/MobilenetV2/expanded_conv_1/project/Conv2D_weights", "shape": [1, 1, 96, 24]}, {"dtype": "float32", "name": "FeatureExtractor/MobilenetV2/expanded_conv_1/project/Conv2D_bn_offset", "shape": [24]}, {"dtype": "float32", "name": "FeatureExtractor/MobilenetV2/expanded_conv_2/expand/Conv2D_weights", "shape": [1, 1, 24, 144]}, {"dtype": "float32", "name": "FeatureExtractor/MobilenetV2/expanded_conv_2/expand/Conv2D_bn_offset", "shape": [144]}, {"dtype": "float32", "name": "FeatureExtractor/MobilenetV2/expanded_conv_2/depthwise/depthwise_weights", "shape": [3, 3, 144, 1]}, {"dtype": "float32", "name": "FeatureExtractor/MobilenetV2/expanded_conv_2/depthwise/depthwise_bn_offset", "shape": [144]}, {"dtype": "float32", "name": "FeatureExtractor/MobilenetV2/expanded_conv_2/project/Conv2D_weights", "shape": [1, 1, 144, 24]}, {"dtype": "float32", "name": "FeatureExtractor/MobilenetV2/expanded_conv_2/project/Conv2D_bn_offset", "shape": [24]}, {"dtype": "float32", "name": "FeatureExtractor/MobilenetV2/expanded_conv_3/expand/Conv2D_weights", "shape": [1, 1, 24, 144]}, {"dtype": "float32", "name": "FeatureExtractor/MobilenetV2/expanded_conv_3/expand/Conv2D_bn_offset", "shape": [144]}, {"dtype": "float32", "name": "FeatureExtractor/MobilenetV2/expanded_conv_3/depthwise/depthwise_weights", "shape": [3, 3, 144, 1]}, {"dtype": "float32", "name": "FeatureExtractor/MobilenetV2/expanded_conv_3/depthwise/depthwise_bn_offset", "shape": [144]}, {"dtype": "float32", "name": "FeatureExtractor/MobilenetV2/expanded_conv_3/project/Conv2D_weights", "shape": [1, 1, 144, 32]}, {"dtype": "float32", "name": "FeatureExtractor/MobilenetV2/expanded_conv_3/project/Conv2D_bn_offset", "shape": [32]}, {"dtype": "float32", "name": "FeatureExtractor/MobilenetV2/expanded_conv_4/expand/Conv2D_weights", "shape": [1, 1, 32, 192]}, {"dtype": "float32", "name": "FeatureExtractor/MobilenetV2/expanded_conv_4/expand/Conv2D_bn_offset", "shape": [192]}, {"dtype": "float32", "name": "FeatureExtractor/MobilenetV2/expanded_conv_4/depthwise/depthwise_weights", "shape": [3, 3, 192, 1]}, {"dtype": "float32", "name": "FeatureExtractor/MobilenetV2/expanded_conv_4/depthwise/depthwise_bn_offset", "shape": [192]}, {"dtype": "float32", "name": "FeatureExtractor/MobilenetV2/expanded_conv_4/project/Conv2D_weights", "shape": [1, 1, 192, 32]}, {"dtype": "float32", "name": "FeatureExtractor/MobilenetV2/expanded_conv_4/project/Conv2D_bn_offset", "shape": [32]}, {"dtype": "float32", "name": "FeatureExtractor/MobilenetV2/expanded_conv_5/expand/Conv2D_weights", "shape": [1, 1, 32, 192]}, {"dtype": "float32", "name": "FeatureExtractor/MobilenetV2/expanded_conv_5/expand/Conv2D_bn_offset", "shape": [192]}, {"dtype": "float32", "name": "FeatureExtractor/MobilenetV2/expanded_conv_5/depthwise/depthwise_weights", "shape": [3, 3, 192, 1]}, {"dtype": "float32", "name": "FeatureExtractor/MobilenetV2/expanded_conv_5/depthwise/depthwise_bn_offset", "shape": [192]}, {"dtype": "float32", "name": "FeatureExtractor/MobilenetV2/expanded_conv_5/project/Conv2D_weights", "shape": [1, 1, 192, 32]}, {"dtype": "float32", "name": "FeatureExtractor/MobilenetV2/expanded_conv_5/project/Conv2D_bn_offset", "shape": [32]}, {"dtype": "float32", "name": "FeatureExtractor/MobilenetV2/expanded_conv_6/expand/Conv2D_weights", "shape": [1, 1, 32, 192]}, {"dtype": "float32", "name": "FeatureExtractor/MobilenetV2/expanded_conv_6/expand/Conv2D_bn_offset", "shape": [192]}, {"dtype": "float32", "name": "FeatureExtractor/MobilenetV2/expanded_conv_6/depthwise/depthwise_weights", "shape": [3, 3, 192, 1]}, {"dtype": "float32", "name": "FeatureExtractor/MobilenetV2/expanded_conv_6/depthwise/depthwise_bn_offset", "shape": [192]}, {"dtype": "float32", "name": "FeatureExtractor/MobilenetV2/expanded_conv_6/project/Conv2D_weights", "shape": [1, 1, 192, 64]}, {"dtype": "float32", "name": "FeatureExtractor/MobilenetV2/expanded_conv_6/project/Conv2D_bn_offset", "shape": [64]}, {"dtype": "float32", "name": "FeatureExtractor/MobilenetV2/expanded_conv_7/expand/Conv2D_weights", "shape": [1, 1, 64, 384]}, {"dtype": "float32", "name": "FeatureExtractor/MobilenetV2/expanded_conv_7/expand/Conv2D_bn_offset", "shape": [384]}, {"dtype": "float32", "name": "FeatureExtractor/MobilenetV2/expanded_conv_7/depthwise/depthwise_weights", "shape": [3, 3, 384, 1]}, {"dtype": "float32", "name": "FeatureExtractor/MobilenetV2/expanded_conv_7/depthwise/depthwise_bn_offset", "shape": [384]}, {"dtype": "float32", "name": "FeatureExtractor/MobilenetV2/expanded_conv_7/project/Conv2D_weights", "shape": [1, 1, 384, 64]}, {"dtype": "float32", "name": "FeatureExtractor/MobilenetV2/expanded_conv_7/project/Conv2D_bn_offset", "shape": [64]}, {"dtype": "float32", "name": "FeatureExtractor/MobilenetV2/expanded_conv_8/expand/Conv2D_weights", "shape": [1, 1, 64, 384]}, {"dtype": "float32", "name": "FeatureExtractor/MobilenetV2/expanded_conv_8/expand/Conv2D_bn_offset", "shape": [384]}, {"dtype": "float32", "name": "FeatureExtractor/MobilenetV2/expanded_conv_8/depthwise/depthwise_weights", "shape": [3, 3, 384, 1]}, {"dtype": "float32", "name": "FeatureExtractor/MobilenetV2/expanded_conv_8/depthwise/depthwise_bn_offset", "shape": [384]}, {"dtype": "float32", "name": "FeatureExtractor/MobilenetV2/expanded_conv_8/project/Conv2D_weights", "shape": [1, 1, 384, 64]}, {"dtype": "float32", "name": "FeatureExtractor/MobilenetV2/expanded_conv_8/project/Conv2D_bn_offset", "shape": [64]}, {"dtype": "float32", "name": "FeatureExtractor/MobilenetV2/expanded_conv_9/expand/Conv2D_weights", "shape": [1, 1, 64, 384]}, {"dtype": "float32", "name": "FeatureExtractor/MobilenetV2/expanded_conv_9/expand/Conv2D_bn_offset", "shape": [384]}, {"dtype": "float32", "name": "FeatureExtractor/MobilenetV2/expanded_conv_9/depthwise/depthwise_weights", "shape": [3, 3, 384, 1]}, {"dtype": "float32", "name": "FeatureExtractor/MobilenetV2/expanded_conv_9/depthwise/depthwise_bn_offset", "shape": [384]}, {"dtype": "float32", "name": "FeatureExtractor/MobilenetV2/expanded_conv_9/project/Conv2D_weights", "shape": [1, 1, 384, 64]}, {"dtype": "float32", "name": "FeatureExtractor/MobilenetV2/expanded_conv_9/project/Conv2D_bn_offset", "shape": [64]}, {"dtype": "float32", "name": "FeatureExtractor/MobilenetV2/expanded_conv_10/expand/Conv2D_weights", "shape": [1, 1, 64, 384]}, {"dtype": "float32", "name": "FeatureExtractor/MobilenetV2/expanded_conv_10/expand/Conv2D_bn_offset", "shape": [384]}, {"dtype": "float32", "name": "FeatureExtractor/MobilenetV2/expanded_conv_10/depthwise/depthwise_weights", "shape": [3, 3, 384, 1]}, {"dtype": "float32", "name": "FeatureExtractor/MobilenetV2/expanded_conv_10/depthwise/depthwise_bn_offset", "shape": [384]}, {"dtype": "float32", "name": "FeatureExtractor/MobilenetV2/expanded_conv_10/project/Conv2D_weights", "shape": [1, 1, 384, 96]}, {"dtype": "float32", "name": "FeatureExtractor/MobilenetV2/expanded_conv_10/project/Conv2D_bn_offset", "shape": [96]}, {"dtype": "float32", "name": "FeatureExtractor/MobilenetV2/expanded_conv_11/expand/Conv2D_weights", "shape": [1, 1, 96, 576]}, {"dtype": "float32", "name": "FeatureExtractor/MobilenetV2/expanded_conv_11/expand/Conv2D_bn_offset", "shape": [576]}, {"dtype": "float32", "name": "FeatureExtractor/MobilenetV2/expanded_conv_11/depthwise/depthwise_weights", "shape": [3, 3, 576, 1]}, {"dtype": "float32", "name": "FeatureExtractor/MobilenetV2/expanded_conv_11/depthwise/depthwise_bn_offset", "shape": [576]}, {"dtype": "float32", "name": "FeatureExtractor/MobilenetV2/expanded_conv_11/project/Conv2D_weights", "shape": [1, 1, 576, 96]}, {"dtype": "float32", "name": "FeatureExtractor/MobilenetV2/expanded_conv_11/project/Conv2D_bn_offset", "shape": [96]}, {"dtype": "float32", "name": "FeatureExtractor/MobilenetV2/expanded_conv_12/expand/Conv2D_weights", "shape": [1, 1, 96, 576]}, {"dtype": "float32", "name": "FeatureExtractor/MobilenetV2/expanded_conv_12/expand/Conv2D_bn_offset", "shape": [576]}, {"dtype": "float32", "name": "FeatureExtractor/MobilenetV2/expanded_conv_12/depthwise/depthwise_weights", "shape": [3, 3, 576, 1]}, {"dtype": "float32", "name": "FeatureExtractor/MobilenetV2/expanded_conv_12/depthwise/depthwise_bn_offset", "shape": [576]}, {"dtype": "float32", "name": "FeatureExtractor/MobilenetV2/expanded_conv_12/project/Conv2D_weights", "shape": [1, 1, 576, 96]}, {"dtype": "float32", "name": "FeatureExtractor/MobilenetV2/expanded_conv_12/project/Conv2D_bn_offset", "shape": [96]}, {"dtype": "float32", "name": "FeatureExtractor/MobilenetV2/expanded_conv_13/expand/Conv2D_weights", "shape": [1, 1, 96, 576]}, {"dtype": "float32", "name": "FeatureExtractor/MobilenetV2/expanded_conv_13/expand/Conv2D_bn_offset", "shape": [576]}, {"dtype": "float32", "name": "FeatureExtractor/MobilenetV2/expanded_conv_13/depthwise/depthwise_weights", "shape": [3, 3, 576, 1]}, {"dtype": "float32", "name": "FeatureExtractor/MobilenetV2/expanded_conv_13/depthwise/depthwise_bn_offset", "shape": [576]}, {"dtype": "float32", "name": "FeatureExtractor/MobilenetV2/expanded_conv_13/project/Conv2D_weights", "shape": [1, 1, 576, 160]}, {"dtype": "float32", "name": "FeatureExtractor/MobilenetV2/expanded_conv_13/project/Conv2D_bn_offset", "shape": [160]}, {"dtype": "float32", "name": "FeatureExtractor/MobilenetV2/expanded_conv_14/expand/Conv2D_weights", "shape": [1, 1, 160, 960]}, {"dtype": "float32", "name": "FeatureExtractor/MobilenetV2/expanded_conv_14/expand/Conv2D_bn_offset", "shape": [960]}, {"dtype": "float32", "name": "FeatureExtractor/MobilenetV2/expanded_conv_14/depthwise/depthwise_weights", "shape": [3, 3, 960, 1]}, {"dtype": "float32", "name": "FeatureExtractor/MobilenetV2/expanded_conv_14/depthwise/depthwise_bn_offset", "shape": [960]}, {"dtype": "float32", "name": "FeatureExtractor/MobilenetV2/expanded_conv_14/project/Conv2D_weights", "shape": [1, 1, 960, 160]}, {"dtype": "float32", "name": "FeatureExtractor/MobilenetV2/expanded_conv_14/project/Conv2D_bn_offset", "shape": [160]}, {"dtype": "float32", "name": "FeatureExtractor/MobilenetV2/expanded_conv_15/expand/Conv2D_weights", "shape": [1, 1, 160, 960]}, {"dtype": "float32", "name": "FeatureExtractor/MobilenetV2/expanded_conv_15/expand/Conv2D_bn_offset", "shape": [960]}, {"dtype": "float32", "name": "FeatureExtractor/MobilenetV2/expanded_conv_15/depthwise/depthwise_weights", "shape": [3, 3, 960, 1]}, {"dtype": "float32", "name": "FeatureExtractor/MobilenetV2/expanded_conv_15/depthwise/depthwise_bn_offset", "shape": [960]}, {"dtype": "float32", "name": "FeatureExtractor/MobilenetV2/expanded_conv_15/project/Conv2D_weights", "shape": [1, 1, 960, 160]}, {"dtype": "float32", "name": "FeatureExtractor/MobilenetV2/expanded_conv_15/project/Conv2D_bn_offset", "shape": [160]}, {"dtype": "float32", "name": "FeatureExtractor/MobilenetV2/expanded_conv_16/expand/Conv2D_weights", "shape": [1, 1, 160, 960]}, {"dtype": "float32", "name": "FeatureExtractor/MobilenetV2/expanded_conv_16/expand/Conv2D_bn_offset", "shape": [960]}, {"dtype": "float32", "name": "FeatureExtractor/MobilenetV2/expanded_conv_16/depthwise/depthwise_weights", "shape": [3, 3, 960, 1]}, {"dtype": "float32", "name": "FeatureExtractor/MobilenetV2/expanded_conv_16/depthwise/depthwise_bn_offset", "shape": [960]}, {"dtype": "float32", "name": "FeatureExtractor/MobilenetV2/expanded_conv_16/project/Conv2D_weights", "shape": [1, 1, 960, 320]}, {"dtype": "float32", "name": "FeatureExtractor/MobilenetV2/expanded_conv_16/project/Conv2D_bn_offset", "shape": [320]}, {"dtype": "float32", "name": "FeatureExtractor/MobilenetV2/Conv_1/Conv2D_weights", "shape": [1, 1, 320, 1280]}, {"dtype": "float32", "name": "FeatureExtractor/MobilenetV2/Conv_1/Conv2D_bn_offset", "shape": [1280]}, {"dtype": "float32", "name": "FeatureExtractor/MobilenetV2/layer_19_1_Conv2d_2_1x1_256/Conv2D_weights", "shape": [1, 1, 1280, 256]}, {"dtype": "float32", "name": "FeatureExtractor/MobilenetV2/layer_19_1_Conv2d_2_1x1_256/Conv2D_bn_offset", "shape": [256]}, {"dtype": "float32", "name": "FeatureExtractor/MobilenetV2/layer_19_2_Conv2d_2_3x3_s2_512/Conv2D_weights", "shape": [3, 3, 256, 512]}, {"dtype": "float32", "name": "FeatureExtractor/MobilenetV2/layer_19_2_Conv2d_2_3x3_s2_512/Conv2D_bn_offset", "shape": [512]}, {"dtype": "float32", "name": "FeatureExtractor/MobilenetV2/layer_19_1_Conv2d_3_1x1_128/Conv2D_weights", "shape": [1, 1, 512, 128]}, {"dtype": "float32", "name": "FeatureExtractor/MobilenetV2/layer_19_1_Conv2d_3_1x1_128/Conv2D_bn_offset", "shape": [128]}, {"dtype": "float32", "name": "FeatureExtractor/MobilenetV2/layer_19_2_Conv2d_3_3x3_s2_256/Conv2D_weights", "shape": [3, 3, 128, 256]}, {"dtype": "float32", "name": "FeatureExtractor/MobilenetV2/layer_19_2_Conv2d_3_3x3_s2_256/Conv2D_bn_offset", "shape": [256]}, {"dtype": "float32", "name": "FeatureExtractor/MobilenetV2/layer_19_1_Conv2d_4_1x1_128/Conv2D_weights", "shape": [1, 1, 256, 128]}, {"dtype": "float32", "name": "FeatureExtractor/MobilenetV2/layer_19_1_Conv2d_4_1x1_128/Conv2D_bn_offset", "shape": [128]}, {"dtype": "float32", "name": "FeatureExtractor/MobilenetV2/layer_19_2_Conv2d_4_3x3_s2_256/Conv2D_weights", "shape": [3, 3, 128, 256]}, {"dtype": "float32", "name": "FeatureExtractor/MobilenetV2/layer_19_2_Conv2d_4_3x3_s2_256/Conv2D_bn_offset", "shape": [256]}, {"dtype": "float32", "name": "FeatureExtractor/MobilenetV2/layer_19_1_Conv2d_5_1x1_64/Conv2D_weights", "shape": [1, 1, 256, 64]}, {"dtype": "float32", "name": "FeatureExtractor/MobilenetV2/layer_19_1_Conv2d_5_1x1_64/Conv2D_bn_offset", "shape": [64]}, {"dtype": "float32", "name": "FeatureExtractor/MobilenetV2/layer_19_2_Conv2d_5_3x3_s2_128/Conv2D_weights", "shape": [3, 3, 64, 128]}, {"dtype": "float32", "name": "FeatureExtractor/MobilenetV2/layer_19_2_Conv2d_5_3x3_s2_128/Conv2D_bn_offset", "shape": [128]}, {"dtype": "int32", "name": "Preprocessor/map/while/ResizeImage/stack_1", "shape": [3]}, {"dtype": "int32", "name": "Preprocessor/map/while/ResizeImage/resize/ExpandDims/dim", "shape": []}, {"dtype": "int32", "name": "Preprocessor/map/while/ResizeImage/stack", "shape": [2]}, {"dtype": "int32", "name": "Preprocessor/map/while/add/y", "shape": []}, {"dtype": "int32", "name": "ConstantFolding/Postprocessor/BatchMultiClassNonMaxSuppression/ones/packed_const_axis", "shape": []}, {"dtype": "int32", "name": "Postprocessor/BatchMultiClassNonMaxSuppression/map/while/PadOrClipBoxList/sub_3/x", "shape": []}, {"dtype": "float32", "name": "Postprocessor/BatchMultiClassNonMaxSuppression/map/while/MultiClassNonMaxSuppression/add_5/y", "shape": []}, {"dtype": "float32", "name": "Postprocessor/BatchMultiClassNonMaxSuppression/map/while/MultiClassNonMaxSuppression/mul_3/x", "shape": []}, {"dtype": "int32", "name": "Postprocessor/BatchMultiClassNonMaxSuppression/map/while/MultiClassNonMaxSuppression/Slice_1/begin", "shape": [2]}, {"dtype": "int32", "name": "Postprocessor/BatchMultiClassNonMaxSuppression/map/while/MultiClassNonMaxSuppression/Slice_2/begin", "shape": [2]}, {"dtype": "int32", "name": "Postprocessor/BatchMultiClassNonMaxSuppression/map/while/MultiClassNonMaxSuppression/Slice/begin", "shape": [2]}, {"dtype": "int32", "name": "Postprocessor/BatchMultiClassNonMaxSuppression/map/while/Reshape_1/shape", "shape": [2]}, {"dtype": "int32", "name": "Postprocessor/BatchMultiClassNonMaxSuppression/map/while/PadOrClipBoxList/sub_2/x", "shape": []}, {"dtype": "int32", "name": "Postprocessor/BatchMultiClassNonMaxSuppression/map/while/Slice/begin", "shape": [3]}, {"dtype": "int32", "name": "Postprocessor/BatchMultiClassNonMaxSuppression/map/while/PadOrClipBoxList/Select/e", "shape": []}, {"dtype": "int32", "name": "Postprocessor/BatchMultiClassNonMaxSuppression/map/while/Reshape/shape", "shape": [3]}, {"dtype": "float32", "name": "Postprocessor/BatchMultiClassNonMaxSuppression/map/while/MultiClassNonMaxSuppression/non_max_suppression_with_scores/iou_threshold", "shape": []}, {"dtype": "float32", "name": "Postprocessor/BatchMultiClassNonMaxSuppression/map/while/MultiClassNonMaxSuppression/non_max_suppression_with_scores/score_threshold", "shape": []}, {"dtype": "float32", "name": "Postprocessor/BatchMultiClassNonMaxSuppression/map/while/MultiClassNonMaxSuppression/add_1/y", "shape": []}, {"dtype": "int32", "name": "Postprocessor/BatchMultiClassNonMaxSuppression/map/while/MultiClassNonMaxSuppression/ones_3/Reshape/shape", "shape": [1]}, {"dtype": "int32", "name": "Postprocessor/BatchMultiClassNonMaxSuppression/map/while/PadOrClipBoxList/zeros_1/Const", "shape": []}, {"dtype": "float32", "name": "Postprocessor/BatchMultiClassNonMaxSuppression/map/while/MultiClassNonMaxSuppression/add_3/y", "shape": []}, {"dtype": "int32", "name": "Postprocessor/BatchMultiClassNonMaxSuppression/map/while/MultiClassNonMaxSuppression/ChangeCoordinateFrame/strided_slice/stack_1", "shape": [1]}, {"dtype": "int32", "name": "Postprocessor/BatchMultiClassNonMaxSuppression/map/while/MultiClassNonMaxSuppression/ChangeCoordinateFrame/strided_slice_2/stack_1", "shape": [1]}, {"dtype": "int32", "name": "Postprocessor/BatchMultiClassNonMaxSuppression/map/while/PadOrClipBoxList/zeros_1/shape_as_tensor", "shape": [1]}, {"dtype": "int32", "name": "Postprocessor/BatchMultiClassNonMaxSuppression/map/while/PadOrClipBoxList/strided_slice_2/stack", "shape": [1]}, {"dtype": "int32", "name": "Postprocessor/BatchMultiClassNonMaxSuppression/map/while/PadOrClipBoxList/strided_slice_2/stack_1", "shape": [1]}, {"dtype": "int32", "name": "Postprocessor/BatchMultiClassNonMaxSuppression/map/while/MultiClassNonMaxSuppression/range_3/delta", "shape": []}, {"dtype": "int32", "name": "Postprocessor/BatchMultiClassNonMaxSuppression/map/while/PadOrClipBoxList/zeros_1", "shape": [2]}, {"dtype": "int32", "name": "Postprocessor/BatchMultiClassNonMaxSuppression/map/while/PadOrClipBoxList/zeros_11", "shape": [1]}, {"dtype": "int32", "name": "ConstantFolding/Postprocessor/BatchMultiClassNonMaxSuppression/map/while/PadOrClipBoxList/Slice_5/size_const_axis", "shape": []}, {"dtype": "int32", "name": "ConstantFolding/Postprocessor/BatchMultiClassNonMaxSuppression/map/while/PadOrClipBoxList/Slice_1/size_const_axis", "shape": []}, {"dtype": "int32", "name": "ConstantFolding/Postprocessor/BatchMultiClassNonMaxSuppression/map/while/PadOrClipBoxList/stack_5/values_1_const_axis", "shape": []}, {"dtype": "int32", "name": "ConstantFolding/Postprocessor/BatchMultiClassNonMaxSuppression/map/while/PadOrClipBoxList/stack_1/values_1_const_axis", "shape": []}], "paths": ["group1-shard1of5.bin", "group1-shard2of5.bin", "group1-shard3of5.bin", "group1-shard4of5.bin", "group1-shard5of5.bin"]}]}